DAY 2/2_DDPG/ddpg/save_model/model.pth (torch_old, 18931 bytes, 5 tensors)

fc1.weight f4 [64, 3]
000000 67 5a 19 bf 8d ae 07 3f 9f 3a af 3e f5 f1 c0 bd
       -0.5990357 0.5300072 0.34224412 -0.0942115
000010 81 f0 26 3f d2 c9 f9 3d 8f 7f 28 bf 6f 3c 2d 3f
       0.6521073 0.12196697 -0.6581964 0.6767034
000020 6a a4 13 be 3e 16 5d 3f 17 c8 46 3f f5 ed be 3e
       -0.14418188 0.86362064 0.7764906 0.37290922
000030 e4 4f 9e 3e e3 b8 42 bf c5 61 07 bf a1 ce c2 3d
       0.30920327 -0.76063365 -0.5288356 0.095120676
000040 8f db 18 3e ef 55 4f bc ca ca 4f 3e d3 22 09 40
       0.14927505 -0.0126547655 0.20292202 2.1427505
000050 6e 20 eb 3d f9 ac 87 3f de d1 bc bd 9e 05 27 be
       0.11480795 1.0599662 -0.092197165 -0.16310737
000060 b2 86 9d bf 26 98 77 3f df 6a 43 3c 51 d1 2d bf
       -1.2306731 0.96716535 0.0119273355 -0.67897516
000070 ef e5 90 3f db 89 56 3e a4 7d 00 bf 20 0b 12 bf
       1.132017 0.20951025 -0.5019171 -0.57048225
000080 40 a8 0a 3e f7 84 24 3f 8c c3 7c bf 63 6d 2e bb
       0.13540745 0.6426539 -0.9873588 -0.0026615493
000090 3c 6c 50 3f db 0f 46 3f c0 7a 7a 3e 86 e5 8a bf
       0.8141515 0.77367944 0.24460888 -1.0851295
0000a0 d2 4a 7b bf a1 bb 80 be 12 b3 59 3f 79 92 cd be
       -0.9816104 -0.2514315 0.85038865 -0.40150812
0000b0 c7 a2 66 3e a1 33 06 3f e5 ab 0b bf ee 44 cc be
       0.22523032 0.5242253 -0.54559165 -0.3989634
0000c0 dc da 1e bf 43 bf 22 bf 31 99 34 be 7c 88 d8 be
       -0.620527 -0.6357309 -0.17636563 -0.4229163
0000d0 c6 27 8f 3f 79 b9 8e be 95 83 15 3f 1b c6 be 3f
       1.1184013 -0.2787588 0.58403903 1.4904207
0000e0 6f 99 85 bf 8d bf 90 3a b2 38 92 3f fe 8c 24 3f
       -1.0437449 0.0011043415 1.1423552 0.64277637
0000f0 aa 5e 85 3e f4 3a 2d 3f 93 56 67 be d4 a8 73 bd
       0.26048785 0.6766808 -0.22591619 -0.05948718
000100 86 b9 f3 3e 39 f1 ac 3d b5 5a 06 3f 41 c8 00 3e
       0.4760248 0.08444447 0.5248216 0.12576391
000110 f2 9b e6 3e 71 09 3a bf c1 21 ce bf d6 8a 09 bf
       0.45040852 -0.72670656 -1.6104051 -0.5372747
000120 f3 2b 97 3f b3 a0 2d 3e b2 1b b3 3d 80 c5 a0 bf
       1.1810287 0.16955833 0.08745517 -1.2560272
000130 5d b4 69 bf 96 cf fb 3c 51 be 5d 3f f4 3a 8c bf
       -0.9129084 0.030738633 0.86618525 -1.0955491
000140 00 e2 0a be 01 c0 eb 3e 20 51 84 3f a7 96 00 3f
       -0.13562775 0.46044925 1.0337257 0.5022988
000150 98 e9 81 bf 55 dd 03 3d 85 0a fe 3d 15 e0 90 3f
       -1.0149412 0.0321935 0.1240435 1.1318384
000160 2e 81 d0 3e 25 3c 39 3e 45 58 d3 be d7 cd 4b bf
       0.40723556 0.1808935 -0.41278282 -0.7961096
000170 9a b9 fc 3e a0 36 cf 3f e6 78 5d 3f 1f 7b 97 bd
       0.49360353 1.6188545 0.865126 -0.0739653
000180 58 7b 4b 3f 8b 3d a3 bd 82 e5 07 3e 46 08 5c 3f
       0.7948508 -0.07970723 0.13271144 0.85950124
000190 61 f6 66 3f 3b 28 d7 3d 59 63 9e bd 5c ca dc 3e
       0.90219694 0.1050572 -0.07733793 0.43123138
0001a0 8d 12 05 bf f2 5b 65 3f 1a a0 eb 3f 0b 34 e4 3e
       -0.5198143 0.8959342 1.8408234 0.44570956
0001b0 5b ac 5c 3f ed 29 7c bf 23 fa 8a be b9 51 b6 3e
       0.86200494 -0.98501474 -0.27143964 0.35609224
0001c0 43 1d 8f be df 8e 03 bf 60 ca e2 be 88 f0 d3 3f
       -0.27952012 -0.5138988 -0.44295025 1.6557779
0001d0 d2 82 8e bf 6b ae d6 3e dd 32 70 3f 04 5f 88 3e
       -1.1133673 0.41929945 0.9382761 0.2663499
0001e0 79 2f 27 bf 2a fb 23 bf 66 13 9c bd 44 8d 44 bb
       -0.6530681 -0.6405512 -0.076208875 -0.0029991427
0001f0 2c 29 85 3f fc a9 11 3f f5 f6 b0 3f e9 28 9e be
       1.040319 0.569 1.3825365 -0.30890587
000200 99 92 45 3e 7c 6d 37 bf cd 7a f9 3e a9 8c 92 3e
       0.19294204 -0.71651435 0.48726502 0.2862294
000210 67 f3 64 bf c9 39 41 3d 60 2e cb be 91 80 4e 3f
       -0.894339 0.04717425 -0.3968382 0.80664927
000220 7c 9e 18 bf 4e d4 97 be 33 26 f8 bc 9b d3 30 bf
       -0.5961683 -0.29654163 -0.030291652 -0.69072884
000230 b9 2a be 3e c8 b9 2a bf a9 23 b6 3f 9f e1 ba be
       0.3714197 -0.6668973 1.4229633 -0.3650026
000240 07 29 8d bd 55 10 4f bf e2 aa 00 be 57 d9 b3 be
       -0.06892591 -0.80884296 -0.12565187 -0.35126755
000250 5b 63 5d bf 7d 3e 96 bd 55 98 5f 3f 2e 20 ad be
       -0.8647973 -0.073361374 0.87341815 -0.33813614
000260 2c 08 77 be ba 94 35 be 70 02 a0 bf 3f b2 cf bd
       -0.24124211 -0.17732516 -1.2500744 -0.101414196
000270 c5 2e 5b 3f be 36 10 3f 87 cc 32 bc 22 e9 ac 3e
       0.8561824 0.5633353 -0.010913021 0.33771616
000280 98 96 db 3f 5d af 22 be cd 5e d3 3e 77 dd b4 be
       1.7155333 -0.15887208 0.41283265 -0.35325214
000290 1f 4b 8c bc da 13 d2 be 38 78 10 3f 95 86 d7 3d
       -0.017125664 -0.4103077 0.5643344 0.10523716
0002a0 ab 68 87 3f b2 35 5f 3f 6f 94 2c 3e 1a 65 5c bf
       1.0578817 0.8719131 0.16853498 -0.8609177
0002b0 ba 75 19 3f bd 8a e9 3e c7 d2 e9 3d 1c 4a 6d 3e
       0.5994526 0.4561366 0.11417156 0.23172802
0002c0 8f 4d a3 3e 31 42 ff be 1f 6f 18 3f 1d e7 ca 3c
       0.3189511 -0.49855188 0.5954456 0.024768407
0002d0 8d c9 48 bb 56 52 88 3f f3 b0 06 bf 6c 4e 23 3f
       -0.0030637712 1.0650127 -0.52613753 0.6379154
0002e0 29 b7 be 3f 24 82 0a bd d1 5b 54 3f eb 04 72 bf
       1.4899646 -0.033815518 0.829526 -0.94538754
0002f0 98 4c c4 be 8b 3e 21 3f 1b 4e ae bf 25 41 5a bd
       -0.38339686 0.6298606 -1.3617586 -0.053284783

fc1.bias f4 [64]
000000 43 f5 ca be 53 9a fe 3e a5 45 ff 3d 4b 04 c7 be
       -0.39640245 0.49727115 0.124644555 -0.38870463
000010 f3 26 06 bf 52 9e b0 be aa ac 66 be 88 a4 5d bc
       -0.5240318 -0.3449579 -0.22526804 -0.013527997
000020 14 ad 2d 3f 61 b5 b5 be ee 48 df be 40 67 2c 3f
       0.6784222 -0.35489944 -0.43610328 0.67345047
000030 a3 4f 43 be f0 86 19 3e 67 fa 08 bf b2 d9 b6 bf
       -0.19073348 0.14992881 -0.53507084 -1.4285185
000040 4f e6 dc 3e 77 4e a5 bd 4d ee f8 3d 79 cd 13 bf
       0.43144462 -0.080716066 0.12154827 -0.577354
000050 4c b4 c8 bd e5 6a b3 3e 89 a2 65 bf cf d7 17 bf
       -0.09800014 0.35042492 -0.89701134 -0.5931367
000060 70 c9 e6 be b3 4a 98 3d 7a 9d 04 be bb 75 7b bf
       -0.4507556 0.07436123 -0.12950698 -0.9822652
000070 2f f9 1a bf 16 df 2a bf 88 d3 b0 be 5a 93 6b 3e
       -0.60536474 -0.6674665 -0.34536386 0.23005429
000080 f5 96 15 bf bc 75 af bd 91 93 0d bf 6b b5 ad be
       -0.5843347 -0.08567378 -0.55303293 -0.33927473
000090 1c 00 86 be 92 af 67 bf 62 15 20 bf fa 00 0b 3f
       -0.26171958 -0.90502274 -0.6253263 0.54298365
0000a0 a9 c2 84 3d 17 85 dc 3e 6e e8 82 3e cd a2 11 3f
       0.06482441 0.4307029 0.25567955 0.5688904
0000b0 c1 dd 4b bf ab 87 29 bf e8 7e a8 bd 86 5e f7 be
       -0.79635245 -0.6622264 -0.082273304 -0.48314303
0000c0 02 b7 5e 3e 4b f6 ad bc 80 2e ae be f6 de 20 bf
       0.217495 -0.021235606 -0.34019852 -0.6284021
0000d0 cf 2c da 3e 36 2a c1 3e 5d bc 77 3e 37 04 13 3f
       0.4261231 0.37727517 0.24192949 0.57428306
0000e0 34 94 35 bf 20 bb f6 be 60 69 07 bf fa 5e 03 3f
       -0.70929265 -0.4818964 -0.52895164 0.513168
0000f0 81 59 60 3d 6e 2e e4 3e b3 6e f8 be 76 a7 ac be
       0.054772858 0.44566673 -0.48521957 -0.33721513

fc2.weight f4 [64, 64]
000000 45 f7 8a be 66 c4 64 3e fd cf b8 3d 55 c7 02 3f
       -0.27141777 0.22340545 0.090240456 0.51085407
000010 18 3a a4 3d ee a8 c5 bd d0 1c 6d 3e f0 6c 9f 3d
       0.08018893 -0.096513614 0.23155522 0.0778445
000020 10 f6 46 3e 79 ef 00 bf 88 f1 15 bf 30 52 18 bd
       0.19429803 -0.50365406 -0.5857167 -0.037187755
000030 3f 88 3d 3e 2c b0 91 3d 55 9a ea 3e fb 9a 8d 3f
       0.18509005 0.0711368 0.4582087 1.1062921
000040 4d fd 68 bd 28 11 27 3e b6 9f 8c 3e 06 b7 8f be
       -0.05688219 0.16315138 0.274656 -0.28069323
000050 3a b4 8f bd d9 ce d3 3d 79 21 49 3d ca 3f 7f 3d
       -0.07016797 0.103421874 0.049104188 0.062316693
000060 2a 6e 92 3e 33 12 2b be 94 44 d5 be 20 64 c3 3c
       0.28599674 -0.16706161 -0.41653883 0.023851454
000070 d9 23 2b bf b8 21 9b bd 7c 40 af be 6d 15 6d 3e
       -0.66851574 -0.07574791 -0.34228885 0.23152705
000080 73 29 27 3f 75 c8 82 3e da 12 7b 3e 5b a3 c8 3e
       0.6529762 0.25543562 0.2451891 0.3918713
000090 31 5b e4 be e7 60 6b 3d 33 83 d4 3e 28 bb a1 3d
       -0.44600824 0.05746546 0.41506347 0.07897025
0000a0 0a 1a 6a be b9 8e b6 3e 8b bd 35 3d 4f a6 60 3e
       -0.22861496 0.35655764 0.044370215 0.21938442
0000b0 6c a2 d2 3d 78 c5 96 3e 48 57 94 be 41 14 3d 3e
       0.10284886 0.29447532 -0.2897284 0.18464758
0000c0 d1 1f 89 bf 73 64 9e be d0 50 6a 3a be 24 49 bf
       -1.0712835 -0.30936012 0.00089384336 -0.7857169
0000d0 3e 9d c6 3d a3 7e 6d 3e 1a c0 02 3e c6 a9 0e 3e
       0.0969796 0.2319284 0.12768593 0.13931951
0000e0 6b fb 15 3e 73 9b e3 be cc e3 93 bd f7 2a 16 be
       0.1464669 -0.44454536 -0.07221183 -0.14664827
0000f0 8f 3f 68 3e 54 8a 80 3e 10 fc 3e be 8e c1 80 bf
       0.22680496 0.25105536 -0.18650842 -1.0059068
000100 c4 43 c9 bd e8 87 b3 bd 79 e0 b5 3d c8 83 8e 3c
       -0.098273784 -0.087661564 0.088807054 0.017396823
000110 a4 3f bd 3d 00 e8 5f ba 76 64 bb 3d 53 61 13 be
       0.09240654 -0.00085413456 0.09150021 -0.14392595
000120 5d 4c 16 bd 54 3f 44 3d 54 22 9f bd cf 99 bb bd
       -0.03669392 0.047911957 -0.077702194 -0.09160196
000130 c1 4b a4 3d b0 06 7b bc e3 93 2c 3c d0 e4 75 bc
       0.080222614 -0.015321419 0.010533306 -0.015008166
000140 d3 17 33 be 3e 3d 8b bb de 42 0b be 29 18 a0 bd
       -0.17489557 -0.004249244 -0.13599727 -0.07817108
000150 30 7b 2c 3d 2a 5c b9 bb 24 93 df bd 34 b5 85 3d
       0.04210967 -0.0056567388 -0.10916737 0.065287024
000160 19 c1 84 bc 20 62 8c bd b8 f0 17 be 0a 8e a5 3c
       -0.016205357 -0.06854653 -0.1483792 0.020209331
000170 80 46 03 bd 79 30 14 bd 19 60 a7 3d 88 5c fc bb
       -0.032049656 -0.03617904 0.08172626 -0.0077014603
000180 70 2d 15 bd b3 d6 06 bc 65 95 5e bd 22 7a 89 bd
       -0.036420286 -0.008229899 -0.054341692 -0.06712748
000190 49 fa ba bc e2 00 97 3d de 8f 5d bd 6d a8 89 bd
       -0.022824423 0.07373215 -0.05409228 -0.06721578
0001a0 fb 37 b8 3d a4 bf 10 bd 73 16 25 3d 5a 28 10 be
       0.089950524 -0.035339013 0.040304612 -0.14077893
0001b0 68 d1 c4 3c b0 77 68 3d 98 05 90 bd 2e 36 fe bc
       0.024025634 0.056754768 -0.07032317 -0.031031694
0001c0 6d 3f 18 3c be ad a4 bd 26 e4 12 3c ea f1 f0 bc
       0.009292466 -0.08040951 0.008965528 -0.029412229
0001d0 80 83 df 3d 75 70 86 bd d1 30 a5 bc ad 95 86 bd
       0.109137535 -0.06564418 -0.020164879 -0.06571517
0001e0 9e 1f 02 3e 57 70 35 3d d0 bf 85 3c 0d 56 87 bd
       0.12707373 0.04429659 0.016326815 -0.0660821
0001f0 02 a4 70 bd 69 03 90 3d f5 8e 1b be b2 f6 89 bc
       -0.05875016 0.070319004 -0.15191253 -0.016841266
000200 ec 38 8c 3d ed be 0e 3d c6 de 8d 3d b8 98 12 be
       0.068467945 0.03485005 0.06927256 -0.1431607
000210 d8 be 78 bd 68 f7 b3 3c 3a fd 79 3c 4f fd 17 be
       -0.060728878 0.021968558 0.015258128 -0.14842723
000220 58 37 27 bd 05 63 92 3d b4 f3 f5 bd b0 3d 92 3d
       -0.040824264 0.07147793 -0.12009373 0.07140672
000230 3f 00 ab bc c3 93 4c 3a 0a 87 0d bd c0 ec 10 bc
       -0.02087414 0.00078040006 -0.03455261 -0.008845508
000240 31 1f ca bd 78 43 f1 bd 48 95 11 be 1d fc b7 3c
       -0.098692305 -0.11780447 -0.14217103 0.022459084
000250 c8 38 18 be b7 eb 28 be ad 8a 93 bd e9 43 82 bd
       -0.1486541 -0.16496168 -0.07204185 -0.06360609
000260 50 39 e5 bc fc 7d e9 bd 34 be 7b 3d ff d3 0c 3d
       -0.02798143 -0.11400983 0.06146069 0.034381863
000270 3e f6 6a bc 54 d9 71 3d db 8e ed bd d7 4a 65 bd
       -0.014340935 0.05904515 -0.11599513 -0.055979576
000280 5e a1 e1 bd 16 7c 8a 3d a4 f8 86 bd f7 2b b5 bd
       -0.110171065 0.06761949 -0.06590393 -0.08846276
000290 b1 a7 ba 3d e4 4f eb bc 00 c0 7a 37 e4 8f 3b bd
       0.09114016 -0.028724618 1.4945865e-05 -0.04579152
0002a0 a0 28 a4 3d 1c 09 ba bd 22 be d5 bd 6b 5a 10 3c
       0.08015561 -0.09083769 -0.104366556 0.00881062
0002b0 e0 ad 6e 3c 40 86 18 bc 48 07 7c bd 7d 42 79 3d
       0.014567822 -0.009309351 -0.06153038 0.060854424
0002c0 8e b2 df bd f5 4c ac bd a9 43 7a bd 42 a7 a1 bd
       -0.109227285 -0.08413116 -0.061099682 -0.0789323
0002d0 74 b6 3f bd 10 4c 0d bc 36 56 bc bd e2 55 fb bd
       -0.04680486 -0.008624092 -0.09196131 -0.1227224
0002e0 d1 dd f8 bd 1e 0c 21 be 87 e4 86 3d bc 14 c8 bc
       -0.12151683 -0.15727279 0.06586557 -0.02442395
0002f0 e0 4e 36 bc 86 1e 74 bb 3a f0 96 3d 04 df 61 3d
       -0.011127204 -0.0037249639 0.07370038 0.055144325
000300 ca e2 30 bc e7 2b 6f 3e e2 10 8e be 30 b2 dd bd
       -0.010796258 0.23356591 -0.27747256 -0.10825002
000310 9f 49 45 be dd 2c 8d 3d 62 87 b9 bd 92 a8 65 3e
       -0.19266365 0.068933226 -0.09059025 0.22427586
000320 ab ea 36 3e a3 fd dc 3d fd 83 ef 3d df a8 a3 3e
       0.17862956 0.10790565 0.11695097 0.31964776
000330 6a c6 82 3d 31 6a d1 be 7b 1b 86 bd 48 8f 39 be
       0.06385501 -0.4090133 -0.0654821 -0.18121064
000340 73 93 ee 3d 0d 74 21 be b0 75 72 3c 62 bf f8 bf
       0.116492175 -0.15766926 0.014798567 -1.9433405
000350 64 ef e0 3d 76 df 38 3e e9 c4 be 3c 02 e9 7f bd
       0.1098316 0.18053994 0.023287253 -0.062478073
000360 e0 d7 c4 3e 47 fd 91 3e 7e 95 73 3e 68 f6 d0 bf
       0.3844595 0.28513548 0.23787495 -1.6325197
000370 66 30 a1 3e 63 e6 27 be ac 49 5b 3e b4 71 8c 3e
       0.31482238 -0.1639648 0.21414822 0.274305
000380 1d 2f 1c be 25 05 05 3e d8 32 8c bd f2 02 0d bf
       -0.15252347 0.12990244 -0.06845635 -0.5508262
000390 01 eb 1b 3e 74 04 56 be ee 5a 3f be b9 05 70 3e
       0.15226366 -0.20900136 -0.1868703 0.23439683
0003a0 60 45 8b 3d b9 c0 c9 3d 69 88 9f 3e 9e 8d 2d 3e
       0.068003416 0.09851212 0.3115876 0.16948554
0003b0 18 29 4f bf 79 ab b0 3e 8c c9 0e 3d 3a b6 48 be
       -0.8092208 0.34505823 0.03486018 -0.19600764
0003c0 43 9b cb 3c 2d 43 46 be 20 64 e7 3d 33 32 89 3e
       0.024854308 -0.19361563 0.11298394 0.2679611
0003d0 6b 0d 44 be 9c 5d 33 3e ec b5 5e 3b 87 98 20 3e
       -0.19145744 0.17516178 0.0033982946 0.15683185
0003e0 27 01 c9 3e 3f c4 4f 3e 76 d3 a2 bd c8 5a ff 3b
       0.39258692 0.20289706 -0.07950489 0.0077928044
0003f0 2e b0 76 3d 1f 68 07 3e 05 df 80 3d 74 0e e1 3e
       0.06022661 0.13223313 0.062925376 0.4395634

fc2.bias f4 [64]
000000 64 0c c6 bd fe 0a 95 bd cb 7f fc bb 34 f4 9d 3d
       -0.09670332 -0.07277487 -0.007705664 0.07712594
000010 84 c7 fa bd 46 b6 75 3b f2 12 44 3e c6 96 3e be
       -0.12245086 0.0037492677 0.19147852 -0.18612203
000020 f5 93 fb 3b c1 77 56 be 0c 8a 51 3d 38 55 a1 be
       0.00767755 -0.2094412 0.051157042 -0.3151033
000030 79 34 0e 3e b0 31 c6 bd 63 10 93 bd 1d 4c 35 bd
       0.13887204 -0.09677446 -0.0718086 -0.04426204
000040 a0 b2 ae be ee 1d 76 3b 28 39 99 3d e8 8b cb bd
       -0.34120655 0.003755446 0.07481605 -0.099387944
000050 9c ca 1b 3e b0 6f 81 bd b9 88 63 3d 0f a2 3e be
       0.15214008 -0.06320131 0.05555031 -0.18616508
000060 b6 28 e1 3d 0a 68 85 bd 0e f9 ae 3e eb dd 72 bd
       0.10994093 -0.065139845 0.3417439 -0.05929367
000070 2a 40 fb 3d 3e fd 31 bd d5 06 b3 3c fc 5a 29 3c
       0.12268098 -0.0434544 0.021853844 0.010336634
000080 ea 1e a8 bd ce 40 2d 3e 27 78 d5 3d 75 f0 48 3e
       -0.082090214 0.16919252 0.10423308 0.19622977
000090 b1 ab d4 bc 49 56 bb 3d 96 cb c7 bc a8 08 56 be
       -0.025960775 0.09147317 -0.02438907 -0.2090174
0000a0 99 60 7e bd b4 5b 41 3d 53 ff 24 be 54 0e 97 bc
       -0.06210384 0.047206596 -0.16113023 -0.01843945
0000b0 29 ee fc bc b3 c3 bd 3e 3e f2 34 3d cd ba 23 be
       -0.030875282 0.3706337 0.044176333 -0.15989228
0000c0 8f 6c 63 3e 45 a8 94 3d 99 81 71 3d 2f 39 08 3d
       0.2220938 0.07258657 0.058961485 0.03325766
0000d0 1a ac 1c be 33 07 a0 3d 8c c0 86 3c 5b 71 69 3e
       -0.15300027 0.07813873 0.016449235 0.22797148
0000e0 a3 8a 95 bd 4b 6b eb 3b f4 9d 35 be 48 ab 35 3e
       -0.073018335 0.007184421 -0.17736036 0.1774112
0000f0 0b 10 c7 bc b2 42 c8 bc 98 ea fe bd 2c 03 d7 3e
       -0.024299642 -0.024445865 -0.12447089 0.41994607

fc3.weight f4 [1, 64]
000000 d0 4d bf 3e 80 8a 9e 3c 49 d1 71 bd e6 af f0 3e
       0.37364054 0.019353151 -0.05903748 0.470092
000010 00 e2 fa bb 49 e1 65 3d 36 e8 fc 3e ea 2d dd 3f
       -0.007656336 0.05612305 0.49395913 1.7279637
000020 ff bc 09 be 66 e7 e7 3e 5c 74 4e bf ca d9 1e 3f
       -0.13451003 0.4529373 -0.806463 0.6205107
000030 9d a4 1c be f5 bb 3f 3d 9a 54 ee bd 6e 62 3a bf
       -0.1529717 0.04681011 -0.1163723 -0.7280644
000040 5a c0 a3 bf 82 18 7c bd 83 f6 91 3d bd 6a 95 3d
       -1.2793076 -0.06154681 0.071270965 0.07295749
000050 56 52 11 bf a2 db 7e bb d9 4a b1 bc 89 cb 09 3f
       -0.5676626 -0.0038888236 -0.021642135 0.53826195
000060 d8 d2 77 be c6 ae 89 bf 24 70 72 bf 67 f2 2b bd
       -0.24201524 -1.0756462 -0.94702363 -0.04197922
000070 ce 54 90 bf 7d 2d f9 bc f8 57 73 3f 4f c8 61 be
       -1.127588 -0.030417198 0.95056105 -0.22049068
000080 4f 1d 64 3f 5e 06 8b be 4b 82 23 3f 25 d1 03 3f
       0.8910722 -0.27153295 0.63870686 0.51491004
000090 22 1c 89 3d f5 97 c1 be 9a ad 6d be 58 30 ab 3e
       0.06694819 -0.37811247 -0.23210755 0.3343532
0000a0 d9 5e 48 3f 64 82 e4 bd 51 eb 14 bb 0f 9c 35 3f
       0.78269726 -0.111576825 -0.0022723267 0.7094125
0000b0 68 ab 4f 3f ed f1 39 bf d0 09 82 3f 5a 5a 8f bd
       0.8112092 -0.72634774 1.0159245 -0.06999655
0000c0 da 46 16 be be ad 9a bf 87 90 98 3e 06 36 36 ba
       -0.14675465 -1.2084272 0.29797766 -0.0006950799
0000d0 61 37 94 3f 17 8e 10 bf b3 bd 4b 3f e8 3e 77 bd
       1.15794 -0.5646681 0.79586333 -0.060362726
0000e0 02 9f 8b bd bd 2f 53 3f 87 a0 8b bf 58 65 48 be
       -0.06817438 0.8249472 -1.0908364 -0.1956991
0000f0 2c dd 2c bf 40 9d a1 3e 83 80 2c 3d 00 44 8f bf
       -0.6752498 0.31565285 0.042114746 -1.1192627
