5_PPO/ppo_gae/save_model/model.pth (torch_old, 18931 bytes, 5 tensors)

fc1.weight f4 [64, 3]
0	0x3eb72cc6	0.35776347
1	0xbf198c16	-0.5997938
2	0x3e3a30c0	0.18182659
3	0xbf179c3b	-0.59222764
4	0x3ee02df5	0.43785062
5	0x3e50edc2	0.20403197
6	0xbeaf8db8	-0.3428781
7	0x3f8e875c	1.1135058
8	0x3eaeef53	0.34166965
9	0x3e84974f	0.2589669
10	0x3e8199be	0.25312608
11	0x3f2af700	0.6678314
12	0xbee12136	-0.4397065
13	0x3ed82b7c	0.42220676
14	0xbee3c144	-0.44483387
15	0xbee900f7	-0.4550855
16	0x3ee3e95a	0.4451397
17	0x3de928ab	0.1138471
18	0x3a70eff4	0.0009191029
19	0x3d979399	0.07401199
20	0x3e6658e9	0.22494854
21	0x3f05125c	0.5198114
22	0x3f0cfb2f	0.55070776
23	0xbe9df006	-0.30847186
24	0xbf4cc226	-0.79983747
25	0x3eb1ab08	0.347008
26	0x3e558ff8	0.20855701
27	0xbdb6f51a	-0.08933468
28	0xbf1326cc	-0.57481074
29	0x3e9637be	0.29339403
30	0xbf2c252a	-0.6724421
31	0x3e19aa3c	0.15006346
32	0x3e09ea1b	0.1346821
33	0x3f3f3dac	0.7470348
34	0xbf1777f1	-0.5916739
35	0x3dd114a6	0.102090165
36	0x3f33539d	0.7004946
37	0x3d86e02d	0.06585727
38	0xbe0370e5	-0.12836035
39	0xbf263731	-0.64927965
40	0xbf28bd6c	-0.65914035
41	0xbe1fbde3	-0.1559978
42	0x3f132522	0.57478535
43	0xbf3751b2	-0.7160903
44	0x3e5baf5e	0.21453616
45	0x3e663155	0.22479756
46	0x3f56fe7a	0.8398205
47	0xbe847c73	-0.25876197
48	0xbea90ca4	-0.33017457
49	0x3ea467b5	0.32110372
50	0xbdd025f0	-0.10163486
51	0xbe88204f	-0.2658715
52	0x3f3d4aab	0.7394206
53	0x3e64b7e3	0.22335772
54	0xbba224a0	-0.0049482137
55	0x3f1964c9	0.5991941
56	0xbe25680a	-0.16152969
57	0xbee5fe65	-0.4492065
58	0x3ea83f89	0.32860973
59	0x3f0f5b77	0.5599894
60	0x3f1588fb	0.5841214
61	0xbd93147f	-0.07181644
62	0xbdf90e35	-0.12160913
63	0xbea667a2	-0.3250094
64	0xbd1210a2	-0.035660394
65	0x3e47205d	0.1944594
66	0x3f498695	0.7872098
67	0xbe99d58f	-0.30045745
68	0x3e2637c5	0.16232212
69	0xbf171295	-0.5901273
70	0x3eaeaf5c	0.34118164
71	0xbec3d87f	-0.3825111
72	0x3f418856	0.7559866
73	0xbea262ec	-0.31716096
74	0xbe511ce0	-0.20421171
75	0xbe43f3b2	-0.19135931
76	0xbf3e7222	-0.743929
77	0x3e3b42ee	0.1828725
78	0x3f463ca8	0.77436304
79	0xbe8a2cba	-0.2698725
80	0xbe54f220	-0.20795488
81	0x3f406387	0.75151867
82	0x3f1d4b28	0.61442804
83	0x3e62d9cf	0.221534
84	0x3e94b4d4	0.2904421
85	0xbf086c3c	-0.5329015
86	0x3e5bda52	0.21470001
87	0x3f4c26ad	0.79746515
88	0x3e948dcc	0.29014432
89	0x3df3656d	0.1188458
90	0xbe2e9206	-0.17047891
91	0xbf6c4875	-0.9229806
92	0x3ea8d34d	0.3297371
93	0x3db78ccf	0.08962404
94	0x3f335a19	0.70059353
95	0xbe8fd814	-0.28094542
96	0x3f5d722d	0.86502343
97	0xbea9c003	-0.33154306
98	0x3d874748	0.06605393
99	0xbe7b443a	-0.24537745
100	0x3ec52758	0.3850658
101	0x3d2e6cd1	0.042584244
102	0x3cc29592	0.023752961
103	0x3f641ef4	0.8910973
104	0xbeb82e7d	-0.35972968
105	0x3eb73f16	0.35790318
106	0x3f100c0c	0.5626838
107	0xbdc617f5	-0.09672538
108	0x3e9751cb	0.2955459
109	0xbe854b54	-0.26034033
110	0xbea04823	-0.31305036
111	0x3ea0a2f5	0.31374326
112	0xbebcb59b	-0.36857304
113	0xbf8c890e	-1.0979326
114	0x3c8b6c75	0.01701949
115	0x3f7f7676	0.9979013
116	0xbe396f68	-0.18108904
117	0x3eef0f83	0.46691522
118	0x3ea094f7	0.3136365
119	0x3e8fb4df	0.2806768
120	0xbe12b8f8	-0.14328372
121	0xbf424c70	-0.75897884
122	0xbe09cdc6	-0.13457403
123	0xbe9f7d66	-0.3115036
124	0x3f09395b	0.5360314
125	0x3f9863ef	1.1905497
126	0x3f6db784	0.9285815
127	0x3daafef4	0.0834941
128	0xbe082157	-0.13293968
129	0xbac26894	-0.0014832192
130	0xbf014cab	-0.5050761
131	0x3e8631f6	0.26209992
132	0xbe637378	-0.22212017
133	0x3f64aede	0.89329326
134	0xbed4a92d	-0.4153532
135	0x3f262214	0.6489575
136	0x3d9063ed	0.07050309
137	0xbe263664	-0.16231686
138	0x3e4a22df	0.19739865
139	0xbead1fbf	-0.33813283
140	0x3e0c6cc7	0.1371337
141	0x3c14ec55	0.009089549
142	0x3f308fec	0.6896961
143	0x3e68717b	0.2269954
144	0x3eba697e	0.3640861
145	0xbf3e7f30	-0.7441282
146	0x3ecbb7d1	0.39788678
147	0xbca94783	-0.020663982
148	0xbede3c05	-0.43405166
149	0x3e0dec33	0.13859634
150	0x3e88304a	0.26599342
151	0x3f4f41ea	0.8095995
152	0xbe980ea9	-0.29698685
153	0x3eb8ed06	0.36118335
154	0xbf412b6a	-0.7545687
155	0xbea1d0ad	-0.3160452
156	0x3ebed8b8	0.37274718
157	0x3f3526e1	0.7076245
158	0x3ae7c55d	0.001768272
159	0xbecf277e	-0.40459818
160	0x3f99e63c	1.2023387
161	0x3ed336e8	0.41252828
162	0x3d4f0912	0.05054576
163	0x3eac55ac	0.33659112
164	0xbe1943f0	-0.14967322
165	0xbde1ade0	-0.11019492
166	0xbf4222b7	-0.7583422
167	0x3e922827	0.2854626
168	0x3ee1cd28	0.44101834
169	0x3edce758	0.4314525
170	0x3dcd2aa4	0.10017899
171	0xbe855898	-0.26044154
172	0xbe74a5a9	-0.2389132
173	0x3e936887	0.28790686
174	0x3f0cee7e	0.5505141
175	0xbde8cb1c	-0.11366865
176	0x3d947d67	0.07250481
177	0xbf268abe	-0.65055454
178	0x3eae9a8b	0.34102282
179	0x3e26976a	0.16268697
180	0x3d10fe25	0.03539862
181	0x3fb4d22e	1.4126642
182	0xbefa0141	-0.48829082
183	0x3f15e3c4	0.5855067
184	0x3f762361	0.96147734
185	0x3ebf18e7	0.37323686
186	0x3f473ec1	0.7783013
187	0x3d51939f	0.051166173
188	0xbea9bb77	-0.33150837
189	0xbd20e38b	-0.039279502
190	0xbf0c3897	-0.5477385
191	0x3e3e5a54	0.18589145

fc1.bias f4 [64]
0	0xbf39454f	-0.7237138
1	0x3f0d099c	0.5509279
2	0x3e8ad263	0.27113637
3	0xbde0b17e	-0.10971354
4	0xbebde2f4	-0.37087214
5	0x3e8a566e	0.27019066
6	0x3f1616b5	0.586284
7	0x3f24b409	0.6433721
8	0x3f1888b2	0.5958358
9	0xbedf722f	-0.43641803
10	0x3e17ad5d	0.14812227
11	0x3e7bcf51	0.24590804
12	0xbe245109	-0.16046537
13	0x3ec953f2	0.39321858
14	0xbefbf664	-0.4921142
15	0xbe8390a5	-0.25696293
16	0x3f41dd12	0.7572795
17	0xbdf7b378	-0.12094778
18	0x3f527297	0.822061
19	0xbf0ffb43	-0.5624277
20	0xbe03a891	-0.12857272
21	0x3f4c7659	0.79868084
22	0xbf54def4	-0.831527
23	0xbf0b1d7b	-0.5434186
24	0xbf1e2b4c	-0.61784816
25	0xbebb8f71	-0.36632875
26	0x3d5ce102	0.05392552
27	0xbf42024c	-0.75784755
28	0xbee08e2f	-0.43858477
29	0xbf145bc4	-0.57952523
30	0xbeb39ef6	-0.35082215
31	0x3f21f621	0.6326619
32	0xbea15819	-0.31512526
33	0x3e8d3610	0.2758031
34	0x3e6c8c97	0.23100506
35	0xbe00a2d9	-0.12562121
36	0x3dd725e8	0.10505277
37	0xbec7dfe7	-0.3903801
38	0xbedd239d	-0.43191233
39	0x3e60511e	0.21905944
40	0x3e04e11b	0.12976496
41	0x3edc2190	0.42994356
42	0x3d521e8b	0.05129866
43	0x3f15868b	0.5840842
44	0xbefae0b0	-0.48999548
45	0xbed53914	-0.4164511
46	0xbe18b649	-0.14913286
47	0xbe329242	-0.17438605
48	0x3ea7c9a8	0.3277104
49	0xbe3bbb12	-0.1833308
50	0x3e6ab66c	0.22921151
51	0xbf298a06	-0.6622623
52	0x3f151f01	0.58250433
53	0x3f093627	0.53598255
54	0x3f177d0d	0.5917519
55	0x3ec0312b	0.37537512
56	0xbec66d65	-0.38755336
57	0xbeb6fc98	-0.3573959
58	0xbef186a6	-0.4717304
59	0x3e17f2be	0.14838693
60	0xbede656d	-0.43436757
61	0xbc65af8e	-0.014018906
62	0x3eaabc96	0.33347005
63	0x3e966110	0.29370928

fc2.weight f4 [64, 64]
0	0xbd3bfb76	-0.04589411
1	0x3f82af52	1.0209754
2	0x3f0031a3	0.5007574
3	0xbd806e76	-0.06271069
4	0x3da53163	0.080660604
5	0x3e826e5b	0.2547482
6	0x3e944a1d	0.28962794
7	0x3e0314da	0.12800923
8	0x3f39a00c	0.7250984
9	0xbd857c47	-0.06517845
10	0x3ecc46d0	0.39897776
11	0x3d940582	0.07227613
12	0xbeb276ee	-0.3485636
13	0x3d13eaa1	0.03611243
14	0xbe08abd2	-0.13346794
15	0x3d05431b	0.0325347
16	0x3dea40b3	0.11438122
17	0x3e6754e2	0.22590974
18	0x3dbffd06	0.09374432
19	0xbe541ade	-0.20713374
20	0xbed395ec	-0.4132532
21	0x3eba93ee	0.36440986
22	0xbe7a9d8b	-0.2447416
23	0x3cd2a727	0.02571447
24	0xbf3a390d	-0.727433
25	0x3e0a50bb	0.13507359
26	0xbe4a93ba	-0.19782916
27	0xbd75c031	-0.05999774
28	0xbe1de121	-0.15417911
29	0xbd682e64	-0.056684867
30	0xbd6bc345	-0.05755927
31	0x3e25af33	0.16180114
32	0xbdc57238	-0.09640926
33	0x3e3f661d	0.18691297
34	0x3e509b53	0.20371751
35	0xbd4b2d76	-0.0496039
36	0xbdab723b	-0.08371397
37	0x3d341cb0	0.04397267
38	0xbc92fed8	-0.017943785
39	0xbd893c3d	-0.06700943
40	0xbd04bc36	-0.032406054
41	0xbd590728	-0.05298534
42	0xbe228aba	-0.15873232
43	0x3e64d548	0.22346985
44	0xbc86c86c	-0.01645299
45	0xbeb12d26	-0.34604758
46	0x3ddff946	0.10936217
47	0x3e7130fa	0.2355384
48	0xbce1d686	-0.027568113
49	0x3e4604d2	0.19337776
50	0xbe0be3f4	-0.13661176
51	0xbf01fdec	-0.5077808
52	0xbda504ca	-0.08057554
53	0x3f1b927d	0.607704
54	0x3dfdc0f7	0.12390321
55	0x3d8b7189	0.068087645
56	0x3b75a461	0.003748201
57	0xbd8f959d	-0.07010958
58	0xbe27a475	-0.16371329
59	0x3e40761a	0.18795052
60	0x3e2a9527	0.1665846
61	0x3e3b35bf	0.18282221
62	0x3d60820c	0.054811522
63	0x3cdf67a8	0.027271107
64	0xbe042a41	-0.12906744
65	0xbdf9f9a0	-0.12205815
66	0x3de4888d	0.111588575
67	0x3d1870fd	0.03721713
68	0x3d11a3ea	0.03555671
69	0x3b20197c	0.0024429252
70	0x3d04d70b	0.032431643
71	0xbdc21f00	-0.09478569
72	0xbd78ad4e	-0.06071215
73	0x3d8321c0	0.06402922
74	0xbd7df579	-0.06200168
75	0xbdf843d3	-0.121223114
76	0x3dc73dbf	0.09728574
77	0xbdc0af60	-0.0940845
78	0xbcb81a18	-0.02247338
79	0xbca478cd	-0.020077134
80	0xbddeb466	-0.10874252
81	0x3c6b71df	0.014370411
82	0xbd953c15	-0.0728685
83	0xbdeaf948	-0.11473328
84	0x3d40a742	0.04703451
85	0x3b8a8c4c	0.0042281505
86	0xbdc9fbe0	-0.098624945
87	0x3db49bb9	0.08818764
88	0xbbbba5ac	-0.0057265367
89	0xbd7ed85a	-0.062218048
90	0xbe093fce	-0.13403246
91	0x3d6f09a2	0.058358796
92	0xbd11665a	-0.035498
93	0xbd440804	-0.047859207
94	0x3daaeb10	0.08345616
95	0x3d11581a	0.03548441
96	0xbd938bb5	-0.072043814
97	0xbbcbb944	-0.0062171537
98	0xb9977dd8	-0.00028894725
99	0xbdd76dd5	-0.10518996
100	0xbc6fa385	-0.014626388
101	0xbc86166c	-0.016368113
102	0xbcc12b01	-0.023580076
103	0xbd82af5a	-0.06381102
104	0x3d573c67	0.05254784
105	0x3d9dc7ec	0.07704148
106	0x3db1550e	0.08658801
107	0xbdda7f7f	-0.10668849
108	0xbd8161f4	-0.06317511
109	0x3dde63d7	0.10858887
110	0xbda4fd1b	-0.080560885
111	0x3d22ca7a	0.039743878
112	0x3dbb0ddc	0.09133503
113	0xbd7de360	-0.06198442
114	0x3d257737	0.040396895
115	0xbb71363c	-0.0036806008
116	0x3e3821e2	0.17981675
117	0xbd3bbcc5	-0.04583432
118	0x3d62b184	0.055345073
119	0x3bdb5d8a	0.0066945003
120	0x3e1763c0	0.14784145
121	0x3dc082dd	0.0939996
122	0xbd1312e8	-0.035906702
123	0xbbca8ab5	-0.006181086
124	0xbdc31b59	-0.095267005
125	0x3dfc371c	0.12315199
126	0xbde7f03f	-0.1132512
127	0xbca2a5cd	-0.01985445
128	0x3dec9f6a	0.11553843
129	0x3e0f7158	0.14008081
130	0x3db277c1	0.087142475
131	0xbe27b69e	-0.16378257
132	0xbd3fe629	-0.046850357
133	0xbcf94c8a	-0.030432004
134	0x3e18b395	0.14912255
135	0xbd53c3a4	-0.05170025
136	0x3def0b99	0.11672134
137	0x3da0e9a5	0.07857064
138	0xbd510e22	-0.05103887
139	0x3e875f0a	0.26439697
140	0xbcc85799	-0.024455832
141	0x3d3cb00a	0.04606632
142	0x3d46f037	0.04856893
143	0x3bdae376	0.0066799475
144	0xbd41b507	-0.04729178
145	0xbe23011d	-0.15918393
146	0xbdcdfc29	-0.10057861
147	0xbca5d101	-0.020241262
148	0xbe1819cf	-0.14853595
149	0xbd67f81d	-0.056633104
150	0xbc082e7d	-0.008311865
151	0xbe0d8906	-0.13821802
152	0xbdcb1a6c	-0.09917149
153	0xbd25b702	-0.040457733
154	0x3da625ad	0.08112655
155	0x3cd68d41	0.026190402
156	0xbc0e38b0	-0.008680508
157	0x3e08558c	0.13313884
158	0xbe2269e7	-0.15860711
159	0xbd0702a9	-0.03296152
160	0x3c9bbdc0	0.019011378
161	0x3c9624ba	0.01832806
162	0xbc5dc225	-0.013535057
163	0xbdc836b1	-0.097760566
164	0x3e293aa5	0.16526277
165	0x3dcf0d34	0.1010994
166	0xbd938a95	-0.07204167
167	0x3cdc5ec4	0.026900657
168	0x3e55c4e8	0.20875895
169	0xbe3a0227	-0.18164884
170	0xbde0f4d0	-0.10984194
171	0x3e1eba80	0.15500832
172	0x3d09d990	0.03365475
173	0xbd98c428	-0.07459289
174	0x3d90305e	0.07040475
175	0x3bc337ce	0.00595758
176	0xbd5600a1	-0.052246694
177	0x3b960814	0.0045785997
178	0x3c65f22f	0.014034792
179	0xbdc70fb0	-0.09719789
180	0xbdb802f4	-0.08984938
181	0x3d5c0061	0.0537113
182	0xbd7a7218	-0.061143965
183	0xbccdc567	-0.025118543
184	0xbdea1234	-0.11429253
185	0xbe2c378e	-0.16818067
186	0x3e032ac5	0.12809284
187	0x3d31d676	0.043417417
188	0x3d53939d	0.051654447
189	0xbd8c67e5	-0.06855754
190	0x3e18e390	0.14930558
191	0x3e7f7c19	0.24949683
192	0xbddddcc8	-0.10833126
193	0xbdac6277	-0.08417218
194	0x3c85c499	0.016329097
195	0x3d3bbd30	0.04583472
196	0xbde052f7	-0.10953324
197	0x3d5dc2db	0.054140907
198	0xbdf6ce99	-0.12051124
199	0x3da5fd75	0.08104984
200	0xbd43d7c2	-0.047813185
201	0x3db8bb44	0.09020093
202	0x3d387133	0.04502983
203	0x3c517795	0.012784858
204	0x3d96e7c5	0.07368425
205	0xbdbd0b87	-0.09230714
206	0xbdebda3d	-0.11516235
207	0xbc34981a	-0.011022592
208	0x3d971bd4	0.07378355
209	0x3debe283	0.11517813
210	0xbd825ec4	-0.06365731
211	0x3d468b0a	0.04847244
212	0x3d70fa95	0.058832724
213	0xbc8f6d20	-0.01750809
214	0x3b3236cb	0.0027193304
215	0x3e09f381	0.13471796
216	0x3c81ecbc	0.015859954
217	0xbd4e6d37	-0.050397124
218	0x3d4cc6c9	0.049994264
219	0xbe013e34	-0.12621385
220	0x3d459379	0.048236344
221	0xbd155118	-0.03645429
222	0x3e0835c1	0.13301755
223	0x3e0731b2	0.13202551
224	0xbe0af228	-0.13568938
225	0x3d9a71b7	0.07541221
226	0xbd106d9f	-0.035260793
227	0x3cbda366	0.023149204
228	0xbc479628	-0.012181796
229	0x3cffdd15	0.03123335
230	0xbd570027	-0.05249038
231	0x3dc851fb	0.097812615
232	0x3d73ec28	0.059551388
233	0x3d96e8b3	0.073686026
234	0x3e0cd758	0.13754022
235	0xbd0f404f	-0.03497344
236	0xbd2bca4e	-0.04194098
237	0x3ddf08c1	0.108903416
238	0xbd2fb6a0	-0.042898774
239	0xbb0af8ad	-0.0021205351
240	0xbd889b60	-0.066702604
241	0x3df162ca	0.11786421
242	0xbb68eac4	-0.0035540322
243	0x3d9d063f	0.07667207
244	0xbde6d0f7	-0.11270326
245	0x3e0a16d6	0.13485274
246	0xbd33aa31	-0.04386348
247	0xba3795ee	-0.0007003237
248	0x3db35a22	0.08757426
249	0x3db50d14	0.08840385
250	0xbd7c0564	-0.06152858
251	0x3ce44343	0.027864104
252	0x3ca00e2a	0.019538004
253	0x3da5c1b8	0.080935895
254	0x3d861ceb	0.065484844
255	0x3db4f3c7	0.08835559

fc2.bias f4 [64]
0	0x3d4d5bd1	0.05013639
1	0xbcaee492	-0.021349225
2	0x3d930cc7	0.071801715
3	0xbd1178c8	-0.035515577
4	0xbd24eca4	-0.04026474
5	0x3e8e7844	0.2782613
6	0x3dba1b41	0.090872295
7	0xbe2c61cb	-0.1683418
8	0x3db07aa0	0.08617139
9	0xbe0aeeca	-0.13567653
10	0x3e14521f	0.14484452
11	0xbc481287	-0.0122114485
12	0x3e0c5190	0.13702989
13	0x3e00e7b5	0.12588389
14	0xbc5666da	-0.013086045
15	0xbdab9d56	-0.08379619
16	0xbea2e62d	-0.31816235
17	0xbe141466	-0.14460906
18	0x3db0ca10	0.0863229
19	0x3e212f4e	0.15740702
20	0xbc81cce6	-0.015844774
21	0x3c72185b	0.014776315
22	0x3e983563	0.2972823
23	0x3e061523	0.13094
24	0xbc467dc1	-0.012114943
25	0x3e73341c	0.23750347
26	0x3dfd1ed8	0.123593986
27	0xbca70bb0	-0.020391315
28	0xbe822d69	-0.2542527
29	0xbc6e5901	-0.014547587
30	0xbd0d235c	-0.03445755
31	0xbd722267	-0.05911484
32	0xbccd4369	-0.025056558
33	0x3ebffd21	0.3749781
34	0x3e9651c6	0.29359263
35	0x3e109869	0.1412064
36	0x3de9260b	0.11384209
37	0x3dfe687e	0.12422274
38	0xbbb2db32	-0.005458259
39	0xbc59587a	-0.013265723
40	0x3cacbdb2	0.021086548
41	0x3d0caded	0.034345556
42	0xbd1f9980	-0.03896475
43	0xbded95ed	-0.11600862
44	0xbcb6ae8a	-0.022300024
45	0x3dab8e65	0.08376769
46	0xbd3c9412	-0.04603965
47	0x3b5c861e	0.0033649276
48	0x3d19b78f	0.03752857
49	0xbe3edf66	-0.18639907
50	0x3da9c6a7	0.08289843
51	0x3cc3ee7e	0.023917433
52	0xbdc6a58d	-0.09699545
53	0x3de645b8	0.112437665
54	0xbb45e6af	-0.0030197313
55	0x3e616a5e	0.22013232
56	0x3e1d635c	0.15369934
57	0xbcfdad5b	-0.030966451
58	0xbe1c3714	-0.15255386
59	0x3ddb4fb8	0.107085645
60	0xbc1b7735	-0.00948887
61	0x3e24c7a6	0.16091785
62	0xbdf64b48	-0.120260775
63	0x3dabe439	0.083931394

fc3.weight f4 [1, 64]
0	0xbdc8fa89	-0.09813411
1	0x3b4009f9	0.002930282
2	0xbd086837	-0.033302512
3	0x39a405d0	0.00031284848
4	0x38cdde5a	9.816578e-05
5	0xbebf1618	-0.37321544
6	0x3a80c528	0.0009824382
7	0x3eb7c11c	0.35889518
8	0xba9453e9	-0.0011316511
9	0x3c5f7c3b	0.013640459
10	0x3e17c516	0.14821276
11	0x3bbdb3e0	0.005789265
12	0x3dfe55a9	0.12418682
13	0xbe711f82	-0.23547176
14	0x399d2bd2	0.00029978022
15	0x3d0d21fa	0.03445623
16	0xbe1c9d13	-0.15294294
17	0xbda55909	-0.08073623
18	0x3d75c4dd	0.060002197
19	0x3e507e1b	0.20360605
20	0xbcf5ea31	-0.030018898
21	0xb9c0241d	-0.00036648
22	0xbe30210d	-0.17200108
23	0x3e484018	0.195557
24	0x3a965ff2	0.0011472686
25	0xbe8f0f0e	-0.27941173
26	0xbb2aae30	-0.0026043765
27	0x3a758e03	0.00093671697
28	0x3e9f9fb1	0.31176522
29	0x38a4a8ac	7.851547e-05
30	0xbb6065f7	-0.0034240463
31	0xbc404d85	-0.011737232
32	0xbeda39ff	-0.42622373
33	0xbe71a1db	-0.23596899
34	0x3e3c4305	0.18384941
35	0x3be7570f	0.0070599387
36	0xbe982f60	-0.29723644
37	0xbb8b21cc	-0.0042459723
38	0x3a3a393a	0.00071038643
39	0x3b04cc42	0.0020263349
40	0xbcd26ea0	-0.025687516
41	0xb9f23fa8	-0.00046205265
42	0xbc04c21a	-0.008102918
43	0xbca15474	-0.01969359
44	0x39db7a5f	0.0004186211
45	0x3aaca64e	0.0013172121
46	0xbc67bcb4	-0.014144111
47	0x3b30416b	0.002689446
48	0xba37d3df	-0.0007012467
49	0xbeaae765	-0.33379665
50	0x3ae28f12	0.001728507
51	0xb93b51d8	-0.00017864199
52	0x3a85373c	0.0010163556
53	0xbcb7fb37	-0.022458656
54	0xba38cc75	-0.00070495094
55	0xbd0c3b57	-0.03423628
56	0xbe940fda	-0.28918344
57	0xba356817	-0.00069201126
58	0x3b16cb83	0.0023009486
59	0x3ca12ba1	0.019674124
60	0xba20acce	-0.00061292655
61	0x3e9fd839	0.31219652
62	0xbc67f2c3	-0.014157
63	0xbcf43581	-0.029810669
