DAY 1/2_DQN_DDQN/ddqn/save_model/model.pth (torch_old, 2575 bytes, 4 tensors)

fc1.weight f4 [64, 4]
-3.138662 -0.8826427 3.070627 -0.6823148 0.2932536 1.0724143 4.305271 1.7513355
0.47794333 1.5163397 4.3687515 1.4171532 -0.57829386 -1.4117197 -4.380957 -1.261908
0.6730276 1.2272863 2.4599779 1.0487857 0.2410917 -1.1616702 -4.487111 -0.75468856
-0.6514677 -1.2691582 -2.55541 -1.0673035 0.49056816 -0.4065033 -5.8051434 -1.1391567
2.7090056 0.34500882 -3.3596644 -0.25549078 1.5769528 -0.2695557 -6.6871595 -1.1299982
0.7765683 -1.4089648 -4.021028 -1.5993245 2.8770907 -0.09160848 -2.0729167 -0.3161135
-0.47287664 -1.3491886 -4.9601197 -1.2236232 0.48762706 1.3542593 4.6843143 1.403286
-1.323901 1.1231548 5.8302135 1.1436743 0.63020706 1.222189 4.161593 1.1664943
-0.5637259 -1.6291116 -3.7623298 -1.3657919 1.1232204 -1.6579115 -4.699593 -1.8721538
0.48964313 -2.0007832 -6.5466223 -1.9014404 -0.6620193 -1.0911512 -4.123359 -1.232737
-1.0009375 1.5364107 4.8718843 1.8062083 0.49466896 1.6959659 4.153727 1.4217083
1.1470588 -0.98049504 -5.971168 -1.3197906 1.2572621 -0.813231 -2.048061 -1.0513556
0.62736917 0.91800976 4.8999476 1.0194834 0.47618634 1.3968056 4.686358 1.355609
-1.4473491 1.529038 4.3582253 1.2746048 1.8664719 -0.15835612 -1.7925216 -0.41078418
-2.5719454 -0.23410171 4.058617 -0.5997874 -1.1973052 0.82536554 2.5583243 0.47952256
-1.5563585 -0.0191806 1.5248259 -0.113124326 -1.1557603 0.98799044 5.9062877 1.2864889
-1.2012767 0.70448136 2.652788 0.50294447 -1.123929 0.88263446 2.690874 0.6201369
2.9396799 1.107665 -2.1786773 0.035196353 -0.56952953 0.64369375 6.1200123 1.0441538
-1.7245163 -0.39508945 2.9132957 -0.016163155 -1.5365345 0.8387979 4.227087 0.5623644
-0.6077286 -1.6179656 -2.9450908 -1.1352348 3.4794898 1.0290974 -2.237805 0.028401453
1.4242526 -1.3958348 -2.7736506 -1.1964025 0.84686214 -0.7806741 -4.8111653 -0.92530715
0.87194514 -1.2740364 -2.8371644 -1.4504997 -4.3543773 -2.484195 0.3468768 -0.9677684
0.06826205 1.623539 4.391424 1.1052583 -1.195713 1.0371909 4.6709456 1.121538
0.7645495 0.71580774 4.1602354 0.76895565 -5.0537086 -1.2202665 2.528189 -0.6479588
-0.57041866 -1.4738864 -2.7203412 -1.0544626 -1.581214 0.8608119 3.917076 0.41842866
-0.14377338 1.5265288 4.3832736 1.0452697 -0.3271995 -1.4811223 -4.696455 -1.3624735
1.4691406 -0.7098849 -2.0268927 -0.95270723 1.0763628 -1.4222009 -4.671121 -1.5385656
-0.65670955 -1.7184893 -2.5228477 -1.2474501 -2.7066355 0.27083507 4.131908 0.76690245
-0.10380204 -1.4048347 -3.1839156 -0.9244603 0.5343382 1.5145491 2.185833 1.1297739
0.34971568 1.6513462 4.7306113 1.4724314 -2.8365629 -0.76405543 2.1311715 0.18848814
1.4772838 -1.4550647 -3.9683263 -1.136061 -0.9573541 1.0311555 5.790681 1.5636419
-1.2013532 1.1836743 2.718572 1.076026 -3.253988 -0.16528344 2.1627107 0.32654476
00000000: d7df 48c0 dff4 61bf 2785 4440 2fac 2ebf
00000010: 5625 963e df44 893f c8c4 8940 c32b e03f
00000020: fdb4 f43e 6b17 c23f d0cc 8b40 4765 b53f
00000030: 110b 14bf 3bb3 b4bf cd30 8cc0 3486 a1bf
00000040: 894b 2c3f b817 9d3f 4770 1d40 9c3e 863f
00000050: bee0 763e 9cb1 94bf 6a96 8fc0 4533 41bf
00000060: 96c6 26bf c773 a2bf d68b 23c0 679d 88bf
00000070: c02b fb3e 3321 d0be bcc3 b9c0 e3cf 91bf
00000080: 5960 2d40 ffa4 b03e be04 57c0 b0cf 82be
00000090: 97d9 c93f 3403 8abe 36fd d5c0 c8a3 90bf
000000a0: 2ecd 463f f558 b4bf 43ac 80c0 aab6 ccbf
000000b0: 4122 3840 3a9d bbbd abaa 04c0 a1d9 a1be
000000c0: e31c f2be 36b2 acbf 4db9 9ec0 af9f 9cbf
000000d0: 41aa f93e 5e58 ad3f e7e5 9540 e09e b33f
000000e0: 9775 a9bf 89c3 8f3f 1c91 ba40 eb63 923f
000000f0: 4055 213f b070 9c3f c52b 8540 af4f 953f
00000100: 5750 10bf bb86 d0bf 03ca 70c0 45d2 aebf
00000110: b0c5 8f3f 7236 d4bf 1163 96c0 bca2 efbf
00000120: 81b2 fa3e d50c 00c0 ee7d d1c0 6662 f3bf
00000130: 197a 29bf d8aa 8bbf 8ff2 83c0 53ca 9dbf
00000140: b81e 80bf 1ba9 c43f 7ae6 9b40 d531 e73f
00000150: 4045 fd3e 6915 d93f 55eb 8440 8afa b53f
00000160: d3d2 923f b901 7bbf cf13 bfc0 e6ee a8bf
00000170: f7ed a03f e82f 50bf 6e13 03c0 d292 86bf
00000180: 449b 203f b002 6b3f 5fcc 9c40 6f7e 823f
00000190: b2ce f33e 87ca b23f a5f6 9540 9984 ad3f
000001a0: bc42 b9bf 84b7 c33f 9576 8b40 4026 a33f
000001b0: 8de8 ee3f 1b28 22be 5971 e5bf 4e52 d2be
000001c0: c19a 24c0 5cb8 6fbe 31e0 8140 ab8b 19bf
000001d0: 4c41 99bf 284b 533f 96bb 2340 fb83 f53e
000001e0: c136 c7bf a220 9dbc 7f2d c33f baad e7bd
000001f0: f4ef 93bf f1ec 7c3f 4f00 bd40 abab a43f
00000200: 6fc3 99bf e458 343f 47c7 2940 f8c0 003f
00000210: e8dc 8fbf 55f4 613f 4837 2c40 4bc1 1e3f
00000220: b723 3c40 f7c7 8d3f 736f 0bc0 0d2a 103d
00000230: b0cc 11bf 1dc9 243f 24d7 c340 d5a6 853f
00000240: f3bc dcbf 2a49 cabe 7073 3a40 9868 84bc
00000250: 2aad c4bf 76bb 563f 4c44 8740 1df7 0f3f
00000260: 1a94 1bbf 7f19 cfbf 5e7c 3cc0 604f 91bf
00000270: f6af 5e40 77b9 833f 3238 0fc0 2aaa e83c
00000280: e94d b63f b7aa b2bf 7e83 31c0 b823 99bf
00000290: f5cb 583f 42da 47bf 11f5 99c0 eee0 6cbf
000002a0: cc37 5f3f a013 a3bf 1a94 35c0 f9a9 b9bf
000002b0: 0f57 8bc0 0dfd 1ec0 d699 b13e abbf 77bf
000002c0: f9cc 8b3d 20d0 cf3f 8c86 8c40 1b79 8d3f
000002d0: 200d 99bf acc2 843f 6378 9540 8f8e 8f3f
000002e0: 84b9 433f 2d3f 373f a620 8540 47da 443f
000002f0: fbb7 a1c0 b131 9cbf d9cd 2140 a1e0 25bf
00000300: f506 12bf 4fa8 bcbf 121a 2ec0 a1f8 86bf
00000310: 3865 cabf 2b5e 5c3f 60b1 7a40 483c d63e
00000320: 5439 13be 4c65 c33f c743 8c40 66cb 853f
00000330: b186 a7be 6a95 bdbf 5c49 96c0 8865 aebf
00000340: cd0c bc3f 04bb 35bf 9cb8 01c0 9fe4 73bf
00000350: 42c6 893f ae0a b6bf d379 95c0 b8ef c4bf
00000360: 1e1e 28bf 75f7 dbbf 5676 21c0 72ac 9fbf
00000370: 8439 2dc0 e5aa 8a3e 9738 8440 b853 443f
00000380: 2a96 d4bd a0d1 b3bf 46c5 4bc0 6ea9 6cbf
00000390: 63ca 083f bfdc c13f b0e4 0b40 6e9c 903f
000003a0: ef0d b33e 505f d33f 2b61 9740 a278 bc3f
000003b0: 3f8a 35c0 2399 43bf 1d65 0840 0903 413e
000003c0: a317 bd3f 8f3f babf 0ff9 7dc0 726a 91bf
000003d0: 2915 75bf e7fc 833f 424d b940 6b25 c83f
000003e0: f1c5 99bf a482 973f 15fd 2d40 38bb 893f
000003f0: 5741 50c0 1040 29be da69 0a40 e030 a73e

fc1.bias f4 [64]
-1.3131522 -0.6195047 1.5316939 -0.73614013 -1.066313 2.2159925 1.0274065 -3.09209
0.24220298 -1.8963454 1.2153895 0.78272563 -1.4041256 1.7007627 1.3496768 1.5201069
-1.1093364 1.395321 1.1187723 -1.8143194 -1.3877349 0.8320868 -1.1672958 0.6557442
1.6306903 1.572512 -1.6888788 1.1997944 0.0220623 0.39863884 -1.0728248 1.1768988
1.1497383 0.7462997 0.2223233 2.989534 -0.5702546 2.0255105 1.2669888 1.1995963
1.427881 -0.43884203 0.7023342 -0.7606836 -1.0724521 1.1984342 1.5522982 -0.055226505
1.1232547 2.0741074 -1.1246758 -1.290433 0.44486746 1.3098276 1.3275926 0.021325696
0.39106 -1.0536565 1.4314846 -0.25407103 1.705986 0.9720344 -1.0009433 -0.6021067
00000000: 5f15 a8bf dc97 1ebf 8c0e c43f ae73 3cbf
00000010: f27c 88bf d2d2 0d40 0e82 833f cde4 45c0
00000020: 0f04 783e 72bb f2bf e291 9b3f b560 483f
00000030: 63ba b3bf 98b2 d93f 36c2 ac3f dd92 c23f
00000040: bcfe 8dbf e199 b23f ee33 8f3f 9e3b e8bf
00000050: 4ca1 b1bf a403 553f f369 95bf dade 273f
00000060: 76ba d03f 1348 c93f 2e2d d8bf dd92 993f
00000070: ffbb b43c 641a cc3e 5352 89bf 9fa4 963f
00000080: a02a 933f 7f0d 3f3f b8a8 633e 8654 3f40
00000090: 35fc 11bf f7a1 0140 b02c a23f 5f8c 993f
000000a0: cec4 b63f e7af e0be 2dcc 333f 29bc 42bf
000000b0: 1c46 89bf 4b66 993f b5b1 c63f 3035 62bd
000000c0: cfc6 8f3f 2dbe 0440 60f5 8fbf e92c a5bf
000000d0: abc5 e33e 6ea8 a73f 8eee a93f 3ab3 ae3c
000000e0: 0439 c83e 37de 86bf e33a b73f 9915 82be
000000f0: c05d da3f 3fd7 783f e91e 80bf aa23 1abf

fc2.weight f4 [2, 64]
2.9131634 1.9022781 3.4509869 -2.107554 -3.231708 -3.6203852 3.4245842 4.843213
2.13009 4.482506 3.593352 2.363746 -3.1671865 3.7623503 3.999448 2.9329684
-2.5984228 3.5981102 3.1474876 -3.526561 -3.0977793 2.0527587 -3.874783 3.2928214
3.6606853 3.3007097 -4.033608 2.0434828 -3.501294 3.5502608 -1.5960456 3.6746018
3.3912878 3.4765759 3.4914699 -4.915874 -2.9545903 4.207289 3.5535872 -3.8750925
3.3404584 -2.9546878 3.3885798 3.1818104 -3.0846593 3.3392448 3.1294055 3.234898
2.8783317 4.1914454 -2.241638 -3.0195231 3.1599145 2.9359574 3.676335 -2.7057428
3.5655699 -2.9233086 3.3093932 -1.9641564 3.6612246 3.257493 -3.5331984 -2.5562322
3.5759952 3.7499392 3.085 -3.9741228 -4.0220094 -3.5993543 4.08259 3.4133203
2.1032815 1.2057858 3.608877 2.878895 -3.1285703 2.984284 3.5005367 2.6466053
-3.3186185 4.5120726 -4.9438167 -2.414509 -4.548242 3.158793 -3.4329662 1.8121284
3.006193 2.8563366 -5.0241656 2.7995124 -2.6283474 4.0420384 -2.0915487 3.1911268
3.4131513 3.815371 3.5644448 -4.06426 -2.8872797 3.6951401 4.031616 -3.2842062
1.9840354 -3.0934196 2.3031454 2.8775594 -3.7830615 2.6767526 2.4959745 3.7439907
3.3187046 3.8125422 -3.6261535 -2.9212894 2.1186426 4.0595512 4.0471587 -2.3762233
3.4836912 -3.4175627 3.1469028 -2.0550697 4.2718906 2.7884722 -3.2458415 -3.0098503
00000000: 4571 3a40 d97d f33f f8dc 5c40 2ae2 06c0
00000010: 4ed4 4ec0 64b4 67c0 632c 5b40 9afb 9a40
00000020: 6553 0840 b070 8f40 7bf9 6540 9d47 1740
00000030: 2fb3 4ac0 59ca 7040 f5f6 7f40 c1b5 3b40
00000040: 8f4c 26c0 7047 6640 7070 4940 2db3 61c0
00000050: 0442 46c0 6660 0340 72fc 77c0 96bd 5240
00000060: ab48 6a40 d43e 5340 5113 81c0 6cc8 0240
00000070: 3315 60c0 7937 6340 394b ccbf ad2c 6b40
00000080: dc0a 5940 3880 5e40 3e74 5f40 d74e 9dc0
00000090: 0218 3dc0 1da2 8640 f96d 6340 8401 78c0
000000a0: 12ca 5540 9b19 3dc0 7ede 5840 c8a2 4b40
000000b0: 0f6b 45c0 30b6 5540 2e48 4840 9208 4f40
000000c0: 9636 3840 5220 8640 ff76 0fc0 de3f 41c0
000000d0: 0a3c 4a40 bae6 3b40 1349 6b40 e42a 2dc0
000000e0: 4c32 6440 7d17 3bc0 19cd 5340 7a69 fbbf
000000f0: 8151 6a40 c47a 5040 ec1f 62c0 4f99 23c0
00000100: 1bdd 6440 01ff 6f40 a470 4540 0758 7ec0
00000110: 4db4 80c0 d25b 66c0 94a4 8240 d773 5a40
00000120: 2a9c 0640 3057 9a3f d7f7 6640 d13f 3840
00000130: 7f3a 48c0 82fe 3e40 cb08 6040 fb61 2940
00000140: 3f64 54c0 e662 9040 bf33 9ec0 5187 1ac0
00000150: 338b 91c0 aa29 4a40 b8b5 5bc0 d3f3 e73f
00000160: 7765 4040 38ce 3640 f7c5 a0c0 362b 3340
00000170: d836 28c0 6158 8140 efdb 05c0 6c3b 4c40
00000180: 1271 5a40 0a2f 7440 dd1f 6440 6b0e 82c0
00000190: 31c9 38c0 2d7d 6c40 0003 8140 6f30 52c0
000001a0: dff4 fd3f 96fa 45c0 bc66 1340 ef29 3840
000001b0: ae1d 72c0 ea4f 2b40 0cbe 1f40 8b9d 6f40
000001c0: a865 5440 b100 7440 e612 68c0 68f6 3ac0
000001d0: d797 0740 d8e7 8140 5382 8140 0b14 18c0
000001e0: ccf4 5e40 59b9 5ac0 db66 4940 4386 03c0
000001f0: 54b3 8840 5476 3240 debb 4fc0 63a1 40c0

fc2.bias f4 [2]
0.5953286 0.27678835
00000000: 7567 183f 34b7 8d3e
