3_A2C_DDPG/a2c/save_model/model.pth.tar (torch_old, 19448 bytes, 6 tensors)

fc1.weight f4 [64, 4]
0	0x3d8b1db3	0.06792774
1	0xbed7a194	-0.42115462
2	0x3db28d32	0.08718337
3	0xbeb5ffa2	-0.35546595
4	0x3e386c7c	0.18010134
5	0x3e3a00d8	0.18164384
6	0xbe051dda	-0.12999669
7	0x3eb0737e	0.34463114
8	0x3e8f5881	0.2799721
9	0x3eac4a6e	0.33650535
10	0x3e453c59	0.19261302
11	0x3f1708ad	0.58997613
12	0xbe828fa8	-0.25500226
13	0x3d181519	0.037129495
14	0xbf192211	-0.59817606
15	0xbb926f85	-0.0044688606
16	0x3e1981af	0.14990877
17	0x3caafdbd	0.020872945
18	0x3ea61a08	0.32441735
19	0x3ed244a5	0.41067997
20	0x3e9ba0d8	0.30396152
21	0x3eb402f9	0.35158518
22	0x3e6c10fb	0.23053353
23	0xbe79ca40	-0.24393559
24	0xbf006756	-0.5015768
25	0x3db1861f	0.0866816
26	0xbdb9be2c	-0.090694755
27	0xbef8ecf0	-0.4861827
28	0xbdc17118	-0.09445399
29	0x3eaa612d	0.33277264
30	0xbe826bf9	-0.25473002
31	0xbe0d3d34	-0.13792878
32	0x3e96f9c9	0.29487446
33	0x3ef69e58	0.48167682
34	0xbec9b0d1	-0.39392713
35	0x3df06b66	0.117392346
36	0x3ec0880c	0.37603796
37	0x3d51b986	0.05120232
38	0xbd9b6a08	-0.07588583
39	0xbf25f1c1	-0.6482201
40	0xbdc78b8c	-0.09743413
41	0xbe94b5c2	-0.2904492
42	0x3ddac6ef	0.10682475
43	0xbf26cb36	-0.65153825
44	0x3e2ec95e	0.17069003
45	0x3e859ed3	0.26097736
46	0x3e74937d	0.23884387
47	0xbefaeb43	-0.49007615
48	0xbe1a4628	-0.15065825
49	0x3de35d7f	0.11101817
50	0xbf10dfc2	-0.5659143
51	0xbe796877	-0.24356256
52	0x3ecdab69	0.40169838
53	0x3e44335c	0.19160217
54	0x3eb69e7f	0.35667798
55	0x3f1dfc27	0.6171288
56	0xbe22bf94	-0.15893394
57	0xbce8d298	-0.028420731
58	0x3eff8acf	0.4991059
59	0x3f2ff674	0.6873543
60	0x3e218f2e	0.15777275
61	0x3e115d6f	0.14195798
62	0xbc7c3773	-0.0153940795
63	0x3e4334ee	0.1906316
64	0xbdb9df7d	-0.0907583
65	0xbc4df7ca	-0.012571285
66	0x3e1ec9b4	0.15506631
67	0xbf0a3ff6	-0.54003847
68	0x3ea71bb0	0.3263831
69	0xbecde013	-0.40210018
70	0xbed1758c	-0.40909994
71	0xbf19cb16	-0.6007551
72	0x3eb99e31	0.36253503
73	0xbde3525d	-0.11099694
74	0xbe859148	-0.26087403
75	0xbee50f9a	-0.44738466
76	0xbeb8485d	-0.3599271
77	0x3d6c546d	0.057697702
78	0x3e644369	0.2229134
79	0xbed64f23	-0.41857252
80	0xbe4f1f49	-0.20226778
81	0x3ed8d95d	0.42353335
82	0x3ebec34d	0.37258378
83	0x3f1a28a7	0.6021828
84	0x3d41557b	0.04720066
85	0xbe8aab8d	-0.27084008
86	0x3f1ce4d9	0.61286694
87	0x3f28fae6	0.6600784
88	0x3b588712	0.0033039493
89	0x3d64a023	0.05581678
90	0xbf0c5d51	-0.5482989
91	0xbf1f3c0d	-0.62201005
92	0x3ea10d81	0.31455615
93	0x3eb25408	0.34829736
94	0x3eb74d4f	0.3580117
95	0xbe95123a	-0.29115468
96	0x3ef99657	0.48747513
97	0xbe8194f4	-0.25308955
98	0x3f0e9618	0.55697775
99	0x3e4a6016	0.19763216
100	0x3e5388d5	0.20657666
101	0xbc33b5c1	-0.0109686265
102	0x3ee0c3f7	0.4389951
103	0x3f0e0c28	0.554873
104	0xbed52d6c	-0.41636217
105	0x3eb73743	0.3578435
106	0x3f293cde	0.661085
107	0x3eef6c01	0.46762088
108	0x3e428e6d	0.18999644
109	0xbe46eec1	-0.19427015
110	0xbf165055	-0.58716327
111	0xbe6cdff9	-0.23132314
112	0xbdcf47b4	-0.10121098
113	0xbedc6303	-0.4304429
114	0x3bf9bb86	0.0076212315
115	0x3efb1062	0.49035937
116	0xbe62b8e1	-0.22140838
117	0x3ed37366	0.4129898
118	0x3ed33440	0.412508
119	0x3eee4769	0.46538857
120	0xbdb01f4c	-0.085997194
121	0xbe04785c	-0.12936538
122	0x3cae315b	0.021263769
123	0x3e870d2a	0.2637723
124	0x3dbe79aa	0.09300549
125	0x3f096ffb	0.53686494
126	0x3f19d129	0.6008478
127	0x3e2c40e7	0.16821633
128	0xbd703852	-0.05864746
129	0xbc80ecbd	-0.015737886
130	0x3d9a2012	0.07525648
131	0x3ed8d1c5	0.4234754
132	0xbd823c04	-0.06359103
133	0x3ed2ef4b	0.4119819
134	0xbd2f50bb	-0.0428016
135	0x3eeebc3b	0.46627983
136	0x3e7c2d1f	0.24626587
137	0xbe869811	-0.26287892
138	0xbe50ce7d	-0.20391269
139	0xbebb2107	-0.36548635
140	0x3e9a645f	0.30154702
141	0x3d3de470	0.046360433
142	0x3ee01331	0.43764642
143	0x3eccbf20	0.39989567
144	0x3e2dc3f0	0.16969275
145	0xbeb83da5	-0.3598453
146	0x3e0ad7be	0.13558862
147	0xbe833e98	-0.25633693
148	0xbde1a678	-0.110180795
149	0x3db8a2e2	0.090154424
150	0x3f119dfa	0.5688168
151	0x3f07a338	0.5298343
152	0xbe426d29	-0.18986954
153	0xbd0046e4	-0.031317607
154	0xbf2fe9cc	-0.6871612
155	0xbede4058	-0.43408465
156	0x3ec34519	0.38138655
157	0x3ee98af5	0.45613828
158	0xbd2beca5	-0.04197373
159	0xbe46d673	-0.19417743
160	0x3ef80762	0.48443133
161	0x3eb0577d	0.34441748
162	0xbd186183	-0.03720237
163	0xbd8d422c	-0.06897387
164	0x3e8fc758	0.28081775
165	0xbd310737	-0.04321977
166	0xbdf6f3a5	-0.1205819
167	0x3ea44e57	0.3209102
168	0x3e703eab	0.23461406
169	0x3e9a8813	0.3018194
170	0x3e31cf41	0.17364217
171	0xbe60fcc0	-0.21971416
172	0xbdfb1a36	-0.12260859
173	0x3eb31615	0.34977785
174	0x3ec807f1	0.3906856
175	0x3c94769d	0.018122965
176	0x3e7c03b7	0.24610792
177	0xbed3bac4	-0.41353428
178	0x3e8ad85b	0.2711819
179	0x3f06d669	0.52670914
180	0x3e62a694	0.22133857
181	0x3f02329f	0.5085849
182	0xbe433a5f	-0.19065236
183	0x3f13048a	0.574288
184	0x3ed0e664	0.40800774
185	0x3ea7db43	0.3278447
186	0x3f2e8d9d	0.68184835
187	0x3e3bf894	0.18356544
188	0xbecbb3c9	-0.39785603
189	0x3dacb038	0.084320486
190	0xbe8a6649	-0.27031162
191	0x3e8300b1	0.25586465
192	0xbeb368ab	-0.35040793
193	0x3e7e702c	0.24847478
194	0x3e0ec4d4	0.13942271
195	0xbe661be6	-0.2247158
196	0xbe8d156e	-0.27555412
197	0xbe7a2370	-0.24427581
198	0x3f2649e5	0.64956504
199	0x3f1522d4	0.5825627
200	0x3ec38047	0.38183805
201	0xbda295ce	-0.07938729
202	0x3a194b98	0.0005847751
203	0x3ec67ef4	0.38768733
204	0xbdaac595	-0.08338467
205	0x3c4e010d	0.012573493
206	0xbf04f3f3	-0.51934737
207	0xbf1290b2	-0.5725204
208	0x3eea4da0	0.45762348
209	0xbe81f677	-0.2538335
210	0x3e63b44a	0.22236744
211	0xbf192c8f	-0.59833616
212	0x3dbaf97b	0.09129616
213	0x3ec97bf7	0.3935239
214	0xbf32a42c	-0.69781756
215	0xbf13531e	-0.575487
216	0xbebdf9d3	-0.37104663
217	0xbdef05e6	-0.11671047
218	0xbdada8b9	-0.08479447
219	0xbf223578	-0.63362837
220	0xbe914592	-0.2837339
221	0xbe9e6855	-0.30938974
222	0x3d9c29ba	0.07625146
223	0x3f091556	0.5354818
224	0xbe101b97	-0.14073025
225	0xbb32b64c	-0.0027269302
226	0xbe6780b5	-0.22607692
227	0xbd89b2d5	-0.06723563
228	0x3d396485	0.04526188
229	0xbe0583e1	-0.13038589
230	0xbe4c1e1d	-0.19933362
231	0x3f0c4f73	0.5480873
232	0x3d91f152	0.07126106
233	0x3eb3303d	0.3499774
234	0x3f0a03d9	0.5391212
235	0x3f1ef42e	0.6209134
236	0xbed4c2dd	-0.4155492
237	0xbe97b113	-0.29627284
238	0xbca6c29c	-0.020356469
239	0xbe4f2c1f	-0.20231675
240	0x3e778421	0.24171497
241	0xbddf22df	-0.10895323
242	0xbe449d73	-0.19200687
243	0xbf245e77	-0.6420664
244	0x3ea2fc83	0.31833276
245	0x3eab449e	0.33450788
246	0x3f290137	0.6601748
247	0x3f091570	0.53548336
248	0xbe86845c	-0.26272857
249	0xbdd27ded	-0.10277925
250	0x3dfb8ca6	0.12282686
251	0x3eaf009a	0.34180146
252	0xbee30863	-0.44342336
253	0x3ec530af	0.38513705
254	0x3e9b31a7	0.3031132
255	0x3e6f7857	0.2338575

fc1.bias f4 [64]
0	0x3e6a50bb	0.22882359
1	0x3e7132ae	0.23554489
2	0x3e09fb38	0.13474739
3	0x3d7575a7	0.059926655
4	0xbd8cef87	-0.06881624
5	0xbec1bd39	-0.37839678
6	0x3ed0b490	0.40762758
7	0x3e8e9992	0.2785154
8	0x3cd5944f	0.026071696
9	0xbdb06d0a	-0.086145476
10	0x3ee5b6ea	0.44866115
11	0x3ec07bdc	0.37594497
12	0xbe342866	-0.17593536
13	0x3db9ff1f	0.090818636
14	0x3d83a30f	0.06427585
15	0x3eb4e644	0.3533193
16	0x3c68b298	0.014202736
17	0x3ec0f656	0.3768794
18	0x3dfc0da6	0.12307291
19	0xbea8a980	-0.32941818
20	0xbec11d6a	-0.37717754
21	0x3dadcb4c	0.084860414
22	0xbed1047f	-0.40823743
23	0x3e0a797e	0.13522908
24	0x3e85c0a8	0.26123548
25	0x3e2f05a2	0.17091992
26	0xbecc8895	-0.39947954
27	0x3d648ec5	0.055800218
28	0xbda6f610	-0.081524014
29	0x3da1f903	0.07908823
30	0x3c4fd28a	0.012684474
31	0x3ebeae02	0.37242132
32	0x3e8350af	0.25647494
33	0x3eb76c7e	0.3582496
34	0x3ef7a112	0.48365074
35	0x3b869bcf	0.0041079293
36	0xbec91b0c	-0.39278448
37	0x3e95e1b8	0.29273772
38	0x3df141d9	0.117801376
39	0xbeb98640	-0.36235237
40	0xbd759752	-0.059958763
41	0xbed76b86	-0.4207422
42	0x3db16e0b	0.08663567
43	0x3ea7f534	0.32804263
44	0xbec3834e	-0.38186115
45	0x3e827e36	0.25486916
46	0x3ef1539e	0.47134107
47	0x3f016283	0.5054094
48	0x3eb20ad6	0.34773892
49	0x3ebb3a00	0.36567688
50	0xbee4b4ee	-0.44669288
51	0xbe6544c4	-0.22389513
52	0x3db6d9d1	0.08928264
53	0x3ea8017b	0.3281363
54	0x3ec41d65	0.38303676
55	0xbe2c2b74	-0.16813451
56	0x3e6881ea	0.22705808
57	0xbcb507e1	-0.022098484
58	0x3c210d63	0.009829852
59	0xbce469b2	-0.02788243
60	0x3e575653	0.21029024
61	0x3ebf31e8	0.37342763
62	0xbd0439bd	-0.032281626
63	0xbee2e810	-0.44317675

fc2.weight f4 [64, 64]
0	0xbc688e7a	-0.014194125
1	0xbe1a7312	-0.15082958
2	0xbc82cee9	-0.015967803
3	0x3bc56d76	0.0060250117
4	0xbcd344ab	-0.02578958
5	0xbbf053e6	-0.00733422
6	0x3de3f543	0.11130764
7	0xbdc941f3	-0.09827032
8	0xbd988aa6	-0.0744832
9	0x3dfa512e	0.12222515
10	0xbab86ad8	-0.0014069928
11	0xbd62a623	-0.05533422
12	0x3debd6b4	0.11515561
13	0xbe05939f	-0.13044594
14	0xbd4c761a	-0.049917318
15	0xbd3e0b5a	-0.046397544
16	0x3c6f2d70	0.0145982355
17	0x3d89b617	0.06724184
18	0xbd950553	-0.07276406
19	0xbd95b9e2	-0.07310845
20	0xbd19a76b	-0.037513178
21	0xbd5078ac	-0.05089633
22	0xbd03a013	-0.03213508
23	0x3d6c6d82	0.057721622
24	0xbd564497	-0.052311506
25	0xbe09bad8	-0.13450181
26	0xbe37c626	-0.17946681
27	0x3d9d32df	0.076757185
28	0xbc70b60c	-0.014691841
29	0xbe356e5e	-0.17717883
30	0x3de98f7d	0.11404321
31	0xbd42ee12	-0.047590323
32	0xbd9ab66c	-0.075543255
33	0xbda8d463	-0.082436346
34	0xbbde3d1e	-0.006782188
35	0xbe437d72	-0.19090822
36	0x3d57e929	0.052712593
37	0xbc83db46	-0.016095769
38	0x3dc6b39e	0.09702228
39	0xbdacc263	-0.08435514
40	0x3dd8bf83	0.10583403
41	0xbcd9bdaa	-0.026579697
42	0x3d8f951a	0.07010861
43	0xbe0fe7b6	-0.14053234
44	0xbc2d3acf	-0.010573103
45	0x3d192cb5	0.03739615
46	0xbda9c081	-0.0828867
47	0xbd1bf0e6	-0.038071536
48	0x3ce0e76e	0.027454104
49	0xbda94b7d	-0.08266351
50	0x3cbb91db	0.022896698
51	0x3dc709ac	0.09718642
52	0x3e2d5fd9	0.16931094
53	0xbcca4bee	-0.02469441
54	0x3d914c02	0.070945755
55	0xbd455784	-0.048179165
56	0x3dc5e4b8	0.09662765
57	0x3c66cc5b	0.014086808
58	0xbe3c7cdf	-0.1840701
59	0x3bcfa2c6	0.006336543
60	0x3d49f4c8	0.049305707
61	0xbc86ab0d	-0.016438985
62	0xbdb4076a	-0.087904766
63	0xbc096edf	-0.00838825
64	0x3e1a4323	0.15064673
65	0x3d25786e	0.040398054
66	0x3c6e169a	0.014531756
67	0xbd966352	-0.073431626
68	0xbe23fcae	-0.16014358
69	0x3c52800d	0.0128479125
70	0x3dd2af51	0.10287345
71	0xbdd3ece5	-0.103479184
72	0xbcbb60b8	-0.022873268
73	0x3e2dd2ba	0.16974917
74	0xbd69226c	-0.056917593
75	0x3ddad1ff	0.10684585
76	0x3da31c64	0.079643995
77	0xbdd94b8f	-0.10610115
78	0xbde34f31	-0.11099089
79	0xbd0f2633	-0.03494854
80	0x3db8223f	0.08990907
81	0x3c8f170a	0.01746704
82	0xbcf73a4f	-0.03017917
83	0x3dc504eb	0.09620079
84	0xbe4e3688	-0.2013799
85	0xbe45af1e	-0.19305083
86	0x39d5f0b8	0.00040805875
87	0xbd507b47	-0.050898816
88	0xbd700c21	-0.058605317
89	0xbe4785b6	-0.194846
90	0xbc2d6b1b	-0.010584618
91	0x3e428021	0.1899419
92	0xbb844ed5	-0.004037718
93	0xbd95bb54	-0.07311121
94	0xbdced11f	-0.100984804
95	0xbda66aa1	-0.081258066
96	0xbe17566a	-0.14779058
97	0x3d856602	0.06513597
98	0xbd142275	-0.036165673
99	0xbe0c232d	-0.13685293
100	0x3e0f197d	0.13974567
101	0xbde2f5fa	-0.110820726
102	0x3df81347	0.12113052
103	0xbb739eff	-0.0037173626
104	0x3d936263	0.071965
105	0xbd416b36	-0.047221385
106	0xbdb3b902	-0.08775522
107	0x3d09bfb2	0.03363008
108	0xbc9f764c	-0.019465588
109	0xbd8c4de4	-0.06850794
110	0xbd9b2830	-0.075760245
111	0x3dde3eaf	0.108518
112	0xbd8abc25	-0.06774167
113	0xbdcd7a82	-0.10033132
114	0xbd64e32b	-0.055880707
115	0x3c70991c	0.014684942
116	0x3d736e56	0.059431396
117	0x3dbe29fa	0.0928535
118	0x3c5f5e96	0.013633391
119	0xbdb037b6	-0.08604376
120	0xbdd93601	-0.106060036
121	0xbe2ec5ac	-0.17067593
122	0xbdb1b8e5	-0.08677844
123	0x3d574268	0.052553564
124	0x3d86f423	0.06589534
125	0xbcc58529	-0.024111347
126	0x3d919a50	0.07109511
127	0x3d65e0dd	0.05612265
128	0x3a8998f9	0.001049786
129	0xbda7313a	-0.08163686
130	0xbde511b2	-0.11185016
131	0x3dcf1339	0.10111088
132	0xbe5f7332	-0.21821287
133	0x3d6e53c7	0.058185365
134	0xbd991dea	-0.07476409
135	0x3daffdce	0.08593331
136	0xbcfb97df	-0.030712066
137	0x3e04c832	0.12966993
138	0x3e118205	0.14209755
139	0x3d8acd82	0.06777479
140	0x3d98cc06	0.074607894
141	0xbe5b8347	-0.21436797
142	0xbe2fc45e	-0.17164752
143	0xbc8bcc4a	-0.017065186
144	0x3e2cf632	0.16890791
145	0x3e3c0853	0.1836255
146	0xbcc9e05a	-0.024643112
147	0x3e0be0ef	0.13660024
148	0xbd81e56d	-0.063425876
149	0xbd1f0266	-0.038820647
150	0x3dcbf403	0.09958651
151	0x3dadda40	0.084888935
152	0xbd966bc6	-0.07344775
153	0xbe3becda	-0.1835207
154	0xbda39961	-0.07988239
155	0xbc26fcde	-0.010192124
156	0x3dab8266	0.08374481
157	0xbe13f9c6	-0.1445075
158	0x3e057cca	0.13035884
159	0x3d80ee10	0.06295407
160	0xbe08a6bf	-0.13344859
161	0x3d194744	0.03742148
162	0xbc1cd6e9	-0.009572723
163	0xbd8b2b42	-0.0679536
164	0x3b3df2e7	0.0028983892
165	0xbd499670	-0.049215734
166	0x3dabead6	0.08394401
167	0x3dd00142	0.1015649
168	0x3d29700b	0.041366618
169	0x3d45de3c	0.048307642
170	0x3dc6cfc2	0.097075954
171	0xbd8fd43e	-0.07022904
172	0xbc8746fc	-0.01651334
173	0xbc3e7ad5	-0.011625965
174	0xbd82e093	-0.063904904
175	0xbca3aefa	-0.019980896
176	0xbdc8cba8	-0.09804469
177	0x3ca14d8d	0.0196903
178	0x3c5dade1	0.0135302255
179	0x3e2dc05a	0.16967908
180	0xbd4775e6	-0.04869642
181	0x3e18cd14	0.14921981
182	0x3c75a904	0.01499391
183	0xbc9b3b64	-0.018949218
184	0x3d99bbff	0.075065605
185	0x3d957d05	0.07299236
186	0xbe447132	-0.19183806
187	0x3dd99ed8	0.10626
188	0x3e119540	0.1421709
189	0xbc66d1f7	-0.014088145
190	0x3c432b94	0.011912245
191	0x3d7260ff	0.059174534
192	0x3cb96de1	0.022635402
193	0x3e125458	0.14289987
194	0x3e1f503b	0.15557949
195	0xbc9baafc	-0.01900243
196	0xbbaa35df	-0.00519441
197	0xbde27e9e	-0.110593066
198	0x3d83ab67	0.06429177
199	0xbe021aad	-0.12705489
200	0x3c62f15b	0.013851489
201	0x3d88581e	0.06657432
202	0xbe0c9546	-0.13728818
203	0xbad8c685	-0.0016538656
204	0xbcb404b5	-0.0219749
205	0x3db6f4a7	0.089333825
206	0x3e281e6a	0.16417852
207	0x3e147b1c	0.14500087
208	0xbe336688	-0.17519581
209	0xbe1ba1db	-0.15198462
210	0xbdfce883	-0.123490356
211	0x3d8318aa	0.06401189
212	0x3e290029	0.16503967
213	0xbcfbaa92	-0.030720983
214	0xbda4538a	-0.08023746
215	0x3d09cf4f	0.03364497
216	0x3d39ba9a	0.045343973
217	0x3e0f381f	0.13986252
218	0x3c104dd7	0.008807621
219	0xbd93b992	-0.07213129
220	0x3cb08381	0.021547081
221	0x3e6a3822	0.22872975
222	0xbcc2ad69	-0.023764329
223	0xbcbd0b2d	-0.023076618
224	0xbd367421	-0.044544343
225	0xbcbee61a	-0.02330308
226	0x3ceaaa07	0.028645528
227	0xbc11de23	-0.008903059
228	0xbde9b850	-0.11412108
229	0x3e0edc9e	0.13951346
230	0xbe594a01	-0.21219636
231	0x3d2516d9	0.040304992
232	0x3dcf5019	0.10122699
233	0x3dba03a4	0.09082726
234	0x3cd15180	0.025551558
235	0x3baa54fe	0.00519812
236	0xbdb054b5	-0.086099066
237	0xbd6602c8	-0.056154996
238	0x3d8f8649	0.07008035
239	0x3d933734	0.071882635
240	0xbddbc925	-0.10731725
241	0x3d63c388	0.055606395
242	0x3e07fabc	0.13279241
243	0xbd71c921	-0.059029702
244	0xbe2860b3	-0.16443138
245	0xbe135125	-0.14386423
246	0xbdc381a5	-0.09546212
247	0xbd0149d5	-0.031564552
248	0x3d029d72	0.031888433
249	0x3d6f4c5c	0.05842243
250	0x3d3c63bf	0.045993563
251	0x3cb098c1	0.021557214
252	0xbbe5d465	-0.007013845
253	0x3d7a7eb9	0.06115601
254	0xbd11a771	-0.035560075
255	0xbd167709	-0.036734615

fc2.bias f4 [64]
0	0x3d7761b0	0.060395896
1	0xbc4c53e0	-0.012471169
2	0xbde8966e	-0.11356817
3	0x3de57dae	0.11205612
4	0xbd1948a8	-0.037422806
5	0x3d9a1678	0.07523817
6	0x3caef649	0.021357672
7	0x3d5f1441	0.054462675
8	0x3c9ad5ca	0.01890077
9	0x3d898c10	0.06716168
10	0xbde799a0	-0.113085985
11	0x3d3dd2ad	0.046343494
12	0xbd5663d3	-0.052341294
13	0x3daca91a	0.08430691
14	0xbdccba27	-0.09996443
15	0xbd25e7b2	-0.040504165
16	0xbd2276b2	-0.039663978
17	0xbddd05fb	-0.10792156
18	0x3ddd999e	0.10820316
19	0x3dd6f1ff	0.10495376
20	0xbcfed9b2	-0.031109665
21	0x3d46d953	0.0485471
22	0xbd5bad88	-0.05363229
23	0x3db9dd84	0.09075454
24	0xbcbf10ae	-0.023323383
25	0xbdd338a2	-0.10313536
26	0xbd8d24fe	-0.06891821
27	0xbd7e13f5	-0.06203075
28	0xbd7d006b	-0.061767977
29	0xbc2c5a94	-0.010519642
30	0x3d37373c	0.04473041
31	0xbc57bce2	-0.013167592
32	0x3ddd28e7	0.10798817
33	0xbdf65e35	-0.12029687
34	0x3dca7bc5	0.098868884
35	0x3dceac6e	0.10091482
36	0x3de0f921	0.109850176
37	0xbda4d595	-0.0804855
38	0xbced294e	-0.02895036
39	0x3db51b60	0.08843112
40	0x3d13b10b	0.036057513
41	0xbce76029	-0.028244095
42	0x3bcae6b8	0.0061920546
43	0x3b95b3f0	0.0045685694
44	0x3d60940e	0.054828696
45	0xbcbd165a	-0.023081947
46	0x3dcc948c	0.099892706
47	0xbd8e43dc	-0.06946537
48	0x3ccee9eb	0.025258025
49	0xbdc21f10	-0.09478581
50	0x3dee0aad	0.1162313
51	0xbd92dd05	-0.071710624
52	0x3af2b96e	0.0018518397
53	0xbe04fdf6	-0.12987503
54	0x3dea4ca5	0.114404
55	0xbcf4f4da	-0.02990191
56	0xbd9bddf1	-0.07610691
57	0x3d9c1876	0.07621853
58	0xbddef20a	-0.10886009
59	0xbd2ef8a7	-0.042717602
60	0xbd739ab0	-0.059473693
61	0x3dbbe9fd	0.09175489
62	0x3d83df7d	0.064391114
63	0xbd9d83cd	-0.07691155

fc3.weight f4 [2, 64]
0	0x3e6cb69a	0.23116532
1	0x3e6077b5	0.21920665
2	0x3e29628b	0.16541497
3	0xbea33f98	-0.31884456
4	0xbe2fedb1	-0.17180516
5	0x3dc2e15d	0.09515641
6	0x3daae96e	0.083453044
7	0x3e8f4905	0.27985397
8	0xbe10e17b	-0.14148514
9	0xbe458b31	-0.19291379
10	0x3e1ecf1c	0.15508693
11	0x3e5ae043	0.21374612
12	0x3e3ad587	0.18245517
13	0xbea5405e	-0.3227567
14	0x3e1a8b11	0.15092112
15	0xbe258fcf	-0.1616814
16	0xbe818610	-0.25297594
17	0x3db64b43	0.08901074
18	0x3e852bc2	0.26009947
19	0xbe06a783	-0.13149838
20	0x3db46ddd	0.08810017
21	0xbeaf349b	-0.34219822
22	0x3e8c5045	0.2740499
23	0xbeb2b127	-0.34900782
24	0xbe096b04	-0.1341973
25	0x3dcd0a82	0.1001177
26	0x3ea6238d	0.32448998
27	0x3e870f7c	0.26379
28	0x3e2bf98d	0.16794415
29	0xbecea1ae	-0.40357727
30	0xbe3f9bcd	-0.18711777
31	0x3e528e93	0.205622
32	0x3e37e9bb	0.17960255
33	0x3e0627f8	0.13101184
34	0x3e037ee0	0.12841368
35	0x3e828071	0.25488618
36	0xbd6b7cbe	-0.05749201
37	0x3ea42b7f	0.32064435
38	0xbe6b7d6d	-0.22997065
39	0xbe8c801d	-0.27441493
40	0x3e1067a0	0.1410203
41	0x3e6e05e4	0.23244435
42	0xbe5410dc	-0.20709556
43	0x3eb891e4	0.36048806
44	0x3e253ead	0.1613719
45	0xbdb405a9	-0.08790142
46	0x3e9feacc	0.31233823
47	0x3e8eea2d	0.27913037
48	0xbe33d3b2	-0.17561224
49	0xbe88dc09	-0.26730374
50	0x3ed54e8a	0.41661483
51	0x3ea28618	0.3174293
52	0xbe8dcdd6	-0.27696103
53	0x3d085c36	0.033291064
54	0xbd4ccb94	-0.049998835
55	0xbe9fa754	-0.3118235
56	0xbe45c49e	-0.19313285
57	0x3e4488bf	0.1919279
58	0xbd93771d	-0.072004534
59	0x3e7f9ebf	0.249629
60	0xbe8305f1	-0.2559047
61	0xbd534903	-0.0515833
62	0xbd0ab8d6	-0.03386768
63	0x3dca6779	0.09883017
64	0xbe4896c8	-0.19588768
65	0xbdd625e4	-0.10456446
66	0xbd9f8c36	-0.07790415
67	0x3ecc4bab	0.3990148
68	0x3ea303d8	0.3183887
69	0xbe3db6b7	-0.18526731
70	0xbe9275e5	-0.2860557
71	0xbdf2a40c	-0.11847696
72	0x3e9207c9	0.28521565
73	0x3e75927a	0.23981658
74	0xbdae5379	-0.08512015
75	0xbe9883ae	-0.29787964
76	0xbe8d02a9	-0.27541092
77	0x3ebda7d5	0.37042108
78	0xbd43c16c	-0.047791883
79	0x3e2a5274	0.16633016
80	0x3e9ac7e1	0.3023062
81	0xbe5639d8	-0.20920503
82	0xbe53eab5	-0.20695002
83	0x3d9dc4b7	0.07703536
84	0xbe759dc7	-0.23985969
85	0x3eacd342	0.33754927
86	0xbe6c3914	-0.23068649
87	0x3e9d50c6	0.30725688
88	0x3e59f1ae	0.212836
89	0xbe4c8e39	-0.19976129
90	0xbea9e329	-0.33181122
91	0xbe891c6d	-0.267795
92	0xbe15dd92	-0.14635304
93	0x3e7f23cd	0.24916
94	0x3e4a4085	0.19751175
95	0xbe0321a7	-0.12805806
96	0xbec063ce	-0.37576145
97	0xbea0fafa	-0.3144148
98	0xbd597db3	-0.05309839
99	0xbe0274ec	-0.12739915
100	0x3e8a8375	0.2705342
101	0xbe6e1c23	-0.23252921
102	0x3e4fc2ea	0.20289198
103	0x3de9894c	0.114031404
104	0xbe447292	-0.1918433
105	0xbe799440	-0.24372959
106	0x3e0cedd4	0.13762599
107	0xbeba673e	-0.36406893
108	0xbe492ed2	-0.19646767
109	0x3e7f4a7f	0.24930762
110	0xbea9aac2	-0.3313809
111	0xbe9a611b	-0.3015221
112	0x3e0437e0	0.1291194
113	0x3e8e8eca	0.27843314
114	0xbec47edf	-0.38378045
115	0xbebcae44	-0.36851704
116	0x3e873d6a	0.26414043
117	0xbe24db64	-0.16099316
118	0x3e2e4cb0	0.17021441
119	0x3e8e0fa0	0.27746296
120	0x3e539272	0.20661333
121	0xbe5917a5	-0.21200426
122	0x3e9b31de	0.30311483
123	0xbe82eaae	-0.2556967
124	0x3e798ca3	0.24370055
125	0x3e17fc4a	0.14842334
126	0x3e477af7	0.19480501
127	0xbe72245e	-0.23646685

fc3.bias f4 [2]
0	0x3d5944b0	0.05304402
1	0x3dd4d3dd	0.10391972
