5_PPO/ppo/save_model/model.pth (torch_old, 18931 bytes, 5 tensors)

fc1.weight f4 [64, 3]
0	0x3ac8847f	0.0015298276
1	0xbf12e1bf	-0.5737571
2	0x3f025188	0.50905657
3	0xbeb2ad0b	-0.34897646
4	0x3f1ebf0f	0.6201028
5	0x3df8abb4	0.12142125
6	0xbf0f8b6c	-0.56072116
7	0x3f43ba7b	0.7645642
8	0x3e817914	0.25287688
9	0x3f4f4d8e	0.80977714
10	0x3dd51ecd	0.104062654
11	0x3d7f13fb	0.062274914
12	0xbf0f4fa9	-0.55980927
13	0xbe062f36	-0.13103947
14	0xbf1ccf29	-0.612536
15	0xbe2acb35	-0.1667908
16	0x3dc29c43	0.09502461
17	0x3c167973	0.009184229
18	0x3ee26484	0.44217312
19	0x3eddea2f	0.4334273
20	0x3edcd5f3	0.4313198
21	0x3ee97208	0.4559481
22	0x3f2682c8	0.65043306
23	0xbe68590c	-0.22690219
24	0xbf58b938	-0.8465762
25	0x3edc06c6	0.42973918
26	0x3e571b8a	0.21006599
27	0x3b5157d2	0.0031943214
28	0x3f042fb5	0.51635295
29	0x3f6f4985	0.93471557
30	0x3d179959	0.037011478
31	0x3ea3729d	0.3192338
32	0x3e045c7e	0.12925908
33	0x3f616cef	0.88056844
34	0xbf5247fb	-0.82141083
35	0xbd7cb90e	-0.06169992
36	0x3f8aa88f	1.083269
37	0xbdc8aafe	-0.09798239
38	0x3ce41052	0.027839813
39	0xbf30a6b7	-0.69004387
40	0xbe73a6fc	-0.23794168
41	0xbe79b35f	-0.24384831
42	0x3f04a1a2	0.5180913
43	0xbf90bce3	-1.1307644
44	0x3dbd511c	0.09243986
45	0x3f3e9ba0	0.74456215
46	0x3e29ed6c	0.16594476
47	0xbe515354	-0.20441943
48	0xbf4cf280	-0.80057526
49	0x3f1c95f1	0.6116629
50	0xbdb05c4b	-0.086113535
51	0xb9eb014c	-0.0004482366
52	0x3f71bd3e	0.94429386
53	0x3e3efe0e	0.18651602
54	0x3da5d660	0.080975294
55	0x3f622fa5	0.8835395
56	0xbe744c4e	-0.23857233
57	0x3d6755bd	0.05647825
58	0x3eda17ee	0.42596382
59	0x3f926996	1.1438472
60	0x3f25bdb4	0.6474259
61	0xbe202bc7	-0.156417
62	0xbd3b5742	-0.045737512
63	0x3d8d4903	0.068986915
64	0xbe2b6586	-0.16737947
65	0x3d5ab04e	0.053390794
66	0x3f9d79a7	1.230275
67	0xbef31ae1	-0.47481444
68	0x3e106684	0.14101607
69	0xbf413acb	-0.75480336
70	0xbeadb5b1	-0.33927682
71	0xbf130481	-0.5742875
72	0x3f040e66	0.5158447
73	0xbeddd065	-0.43323055
74	0xbe131e53	-0.14367037
75	0xbf0a7b97	-0.54094833
76	0xbed32be6	-0.4124443
77	0x3b04ee82	0.0020283763
78	0x3f27d4b2	0.6555892
79	0xbf1f48a0	-0.6222019
80	0xbde3bbe8	-0.11119825
81	0x3f38ed3c	0.7223699
82	0x3f9983ea	1.1993382
83	0x3e9ac93d	0.30231658
84	0xbdf0ad4b	-0.11751803
85	0xbe83eae6	-0.2576515
86	0x3f7516bc	0.95737815
87	0x3fa08bb4	1.2542634
88	0x3c9e90f6	0.019356232
89	0x3e062bcb	0.13102643
90	0xbeb0cdd2	-0.34532028
91	0xbf26fd21	-0.65229994
92	0x3eb24576	0.3481862
93	0x3f2026d1	0.6255923
94	0x3f0bc365	0.54595023
95	0xbe0776c5	-0.132289
96	0x3ef86a28	0.4851849
97	0xbe0c4564	-0.13698345
98	0x3f401ce4	0.75044084
99	0x3dc9fa2f	0.09862172
100	0x3f075674	0.5286629
101	0x3db3bbf4	0.087760836
102	0x3ecb0a41	0.3965626
103	0x3e8f8195	0.2802855
104	0xbf547d20	-0.83003426
105	0x3ee297c0	0.442564
106	0x3f9e38ac	1.2361045
107	0x3ea3a937	0.31965038
108	0x3df41dd4	0.11919752
109	0xbf702419	-0.9380508
110	0xbed4a716	-0.41533726
111	0xbe5ce7c5	-0.21572788
112	0xbebf1d5d	-0.3732709
113	0xbf4a7424	-0.79083467
114	0xbe9b0597	-0.30277702
115	0x3f5d0ede	0.8635081
116	0x3d56ddae	0.052457504
117	0x3f1fb931	0.62391955
118	0x3ebeb3af	0.37246463
119	0x3ecc7294	0.39931166
120	0x3c1d39c4	0.009596292
121	0xbf0d0e85	-0.5510028
122	0xbdd65b75	-0.10466663
123	0x3e9e40f0	0.30908918
124	0x3e50c21f	0.20386551
125	0x3f1719a8	0.59023523
126	0x3f789365	0.97099906
127	0x3e00bb84	0.12571532
128	0xbcc72a32	-0.024312112
129	0xbdaacad8	-0.083394706
130	0xbd9bd1e9	-0.076083966
131	0x3e431656	0.19051489
132	0xbe3846de	-0.17995784
133	0xbdeb7ba9	-0.11498196
134	0xbeca19eb	-0.394729
135	0x3ea85d92	0.32883888
136	0x3d3fdcf2	0.04684157
137	0xba9f582e	-0.0012157017
138	0x3e812103	0.25220498
139	0xbd095c8b	-0.03353552
140	0x3e5b31f4	0.21405774
141	0x3e2c9c6b	0.16856544
142	0x3f5c5942	0.86073697
143	0x3e7be138	0.24597633
144	0x3ed28954	0.41120398
145	0xbe85c09d	-0.26123515
146	0x3ef2c4b0	0.47415686
147	0x3e97efe4	0.2967521
148	0xbe8e73c1	-0.27822688
149	0x3ad5dfd2	0.0016317314
150	0x3f0e3b28	0.55559015
151	0x3d9a4177	0.07532018
152	0xbda9caf2	-0.08290662
153	0x3e24491b	0.16043513
154	0xbf9bf971	-1.2185498
155	0xbeb4961a	-0.35270768
156	0x3eb160b8	0.34644103
157	0x3f7d35a7	0.9890999
158	0xbe0bd185	-0.13654144
159	0xbe5fc121	-0.21851017
160	0x3fb0f227	1.3823899
161	0x3edc0a70	0.42976713
162	0x3e26225d	0.16224046
163	0xbd8f21fd	-0.069889046
164	0x3e1c70cc	0.15277404
165	0xbef2cbf1	-0.4742122
166	0x3ce561fa	0.02800082
167	0x3e43ff6d	0.19140406
168	0x3f12a5eb	0.5728442
169	0x3f76e50e	0.9644326
170	0x3e6ac666	0.22927245
171	0xbea1e6fb	-0.31621537
172	0xbdb29152	-0.08719124
173	0x3f481800	0.7816162
174	0x3f578037	0.84180015
175	0xbea770ab	-0.32703146
176	0x3da3b1d7	0.07992905
177	0xbf5d66b7	-0.86484855
178	0x3ef796a6	0.48357123
179	0x3e52c02d	0.20581122
180	0x3f1424d0	0.5786867
181	0x3eea1ed9	0.4572666
182	0xbe2a8247	-0.1665126
183	0x3f3db2db	0.74101037
184	0x3f358bd8	0.7091651
185	0x3ecf0ad7	0.40437958
186	0x3f4f632e	0.8101071
187	0xbebac3ed	-0.36477605
188	0xbe14f42b	-0.14546268
189	0x3eab3105	0.33435836
190	0xbf6b0f23	-0.9181997
191	0xbe1e4af0	-0.15458274

fc1.bias f4 [64]
0	0xbeb53a6a	-0.3539613
1	0x3e24f753	0.16109972
2	0x3f07715c	0.5290735
3	0xbdee56b9	-0.11637635
4	0xbea49b1e	-0.32149595
5	0xbee451f0	-0.44593763
6	0x3f04aa8d	0.5182274
7	0x3f1775f5	0.59164363
8	0x3f2c9cbf	0.67426676
9	0xbe00ed56	-0.12590536
10	0xbd3adcc2	-0.045620687
11	0x3eadfdaf	0.33982608
12	0xbd0847b1	-0.033271495
13	0xbdc62f39	-0.09676976
14	0xbe87d88f	-0.2653241
15	0xbf5782e5	-0.84184104
16	0x3f0f2e89	0.5593038
17	0xbe8640eb	-0.26221403
18	0x3f0c6b3a	0.54851115
19	0xbef75b31	-0.4831176
20	0x3de369a0	0.11104131
21	0x3f464c0d	0.77459794
22	0xbf297cef	-0.6620626
23	0xbf11891f	-0.56849855
24	0xbece8014	-0.4033209
25	0xbceb87d3	-0.02875129
26	0x3ad7f356	0.0016475718
27	0xbf2fdc4c	-0.6869552
28	0xbefe5cfc	-0.49680316
29	0xbf1438bb	-0.57899064
30	0xbea61bed	-0.3244318
31	0x3eb4d19b	0.35316166
32	0xbe0c87c5	-0.13723667
33	0xbd99dee8	-0.07513219
34	0x3dc27e88	0.0949679
35	0xbdcbbe29	-0.099483795
36	0x3de86b4b	0.113485895
37	0x3d4ba0ef	0.049714025
38	0xbf102534	-0.5630677
39	0x3f0176cd	0.505719
40	0x3e6d89eb	0.23197143
41	0x3e8121f2	0.2522121
42	0x3e90dce8	0.28293538
43	0x3f517648	0.8182111
44	0xbea12b2e	-0.31478256
45	0xbe8947c0	-0.26812553
46	0x3e4a0ca0	0.19731379
47	0xbdac95d6	-0.084270164
48	0x3e7da743	0.24770837
49	0xbe850af4	-0.2598492
50	0xbe414c23	-0.188767
51	0xbe95c363	-0.2925063
52	0x3eba5b30	0.36397696
53	0x3eb86eb8	0.36021972
54	0x3f442212	0.7661449
55	0x3f2a8234	0.66604924
56	0xbeb30004	-0.3496095
57	0xbe7d7e3f	-0.2475519
58	0xbe5f508b	-0.21808068
59	0x3f1a47d1	0.60265833
60	0xbf60bc62	-0.8778745
61	0x3f09b82c	0.5379665
62	0xbe922cc6	-0.28549784
63	0x3e2158fa	0.15756598

fc2.weight f4 [64, 64]
0	0x3de6e6cc	0.1127449
1	0x3e20ab61	0.15690376
2	0x3c81e7fd	0.015857691
3	0x3ea7d5d5	0.32780328
4	0xbdf89104	-0.121370345
5	0xbe146151	-0.14490248
6	0x3e8e167f	0.27751538
7	0x3db3ce1b	0.08779546
8	0xbe4c47e7	-0.19949304
9	0x3df044cb	0.11731871
10	0x3e8aef9d	0.27135935
11	0x3e9e05c5	0.30863777
12	0x3e192f32	0.1495941
13	0xbe9736a8	-0.29533887
14	0xbe13e727	-0.14443646
15	0x3ec99f90	0.3937955
16	0x3e1637d4	0.14669734
17	0x3e59a13b	0.21252911
18	0x3e26eaf6	0.16300568
19	0x3e0dc3a8	0.13844168
20	0xbce0bb1d	-0.027432973
21	0x3d9c870f	0.07642948
22	0xbdbcc016	-0.09216325
23	0xbe39bac0	-0.18137646
24	0x3dcc663c	0.09980437
25	0xbe5ee1ca	-0.21765819
26	0xbcfd19f5	-0.030896166
27	0x3e8e4983	0.2779046
28	0x3e42ae3e	0.1901178
29	0x3eb22066	0.34790343
30	0xbd382af1	-0.044962827
31	0x3e11e4b4	0.142474
32	0x3e42c8db	0.19021933
33	0x3e9e0111	0.3086019
34	0x3db8a6de	0.090162024
35	0x3ef68404	0.48147595
36	0xbe86b1d1	-0.26307538
37	0xbe14a364	-0.14515454
38	0xbc7d4940	-0.015459359
39	0x3e81581f	0.25262544
40	0xbe306e67	-0.17229615
41	0xbb5ae298	-0.003339922
42	0x3e5437ed	0.20724459
43	0x3d978d27	0.073999695
44	0xbd8dfde8	-0.069331944
45	0xbac92e1f	-0.0015348828
46	0x3de141bb	0.10998865
47	0x3ece29fc	0.40266407
48	0x3dd7e0f1	0.10540951
49	0xbe333fd3	-0.17504816
50	0xbd66f561	-0.056386355
51	0xbea5dd9a	-0.3239563
52	0x3eb24fbc	0.34826458
53	0x3e62c6fc	0.22146219
54	0x3e286b6d	0.1644723
55	0xbe5c4755	-0.21511586
56	0x3ed4401d	0.41455165
57	0x3dbcc386	0.09216981
58	0x3df5a6b4	0.11994687
59	0xbe3aa081	-0.1822529
60	0x3e8ec742	0.27886397
61	0x3f1739d1	0.59072596
62	0x3d97b311	0.07407201
63	0xbdc6e2aa	-0.097112015
64	0xbe96b771	-0.2943683
65	0xbe45ea35	-0.19327624
66	0x3d1d7e24	0.038450375
67	0x3da1e286	0.07904534
68	0x3e81ba8a	0.2533763
69	0xbe10b5ae	-0.14131805
70	0x3b514f27	0.0031938048
71	0x3dc1cff9	0.09463496
72	0xbd9b3304	-0.0757809
73	0xbe2db0ad	-0.16961928
74	0xbe3939ea	-0.18088499
75	0x3e53ed6b	0.20696037
76	0x3eaa3fa6	0.33251685
77	0xbd826fd9	-0.063689895
78	0x3dbd9067	0.09256058
79	0x3d3e6a08	0.046487838
80	0xbe23a48c	-0.15980738
81	0xbdfca6f2	-0.1233653
82	0x3c9506f2	0.018191788
83	0xbedd879d	-0.43267527
84	0x3e4ff8c3	0.20309739
85	0x3e229667	0.15877686
86	0x3d9fbb9b	0.07799455
87	0x3e43182b	0.19052188
88	0x3d9e193e	0.07719658
89	0xbdf5fd95	-0.120112576
90	0x3d9b8a1b	0.07594701
91	0xbccb69ac	-0.024830662
92	0xbec3e44e	-0.3826012
93	0x3e562401	0.20912172
94	0xbe05e495	-0.13075478
95	0x3e3e3bad	0.18577452
96	0xbe500e8e	-0.20318052
97	0xbda2c440	-0.07947588
98	0x3eb461d7	0.35230896
99	0xbc6dbe8e	-0.014510764
100	0x3e8dadf3	0.27671775
101	0x3e91e7d0	0.2849717
102	0xbe6ca9a3	-0.23111586
103	0xbe020721	-0.12698032
104	0x3e6d56a8	0.23177588
105	0xbe50517c	-0.20343584
106	0x3ea5da3a	0.32393056
107	0xbe0a812f	-0.13525842
108	0x3e191d69	0.14952625
109	0x3e848485	0.25882354
110	0xbe240b83	-0.16020016
111	0xbd8c7ea4	-0.06860092
112	0xbdbbf746	-0.09178023
113	0xbdd796b6	-0.10526793
114	0x3e76be13	0.24095945
115	0x3c4faccf	0.012675478
116	0x3e8fbaed	0.280723
117	0xbe003c96	-0.12523112
118	0x3d99b04e	0.075043306
119	0xbd648286	-0.05578854
120	0x3e65953d	0.22420211
121	0xbe9abbae	-0.30221313
122	0x3d5081f3	0.05090518
123	0xbdb57784	-0.088606864
124	0x3bfa563a	0.0076396735
125	0x3d147e27	0.03625312
126	0x3d2e150c	0.04250054
127	0x3e516775	0.20449622
128	0x3d59ab90	0.05314213
129	0x3d94e102	0.07269479
130	0x3de2043a	0.110359624
131	0xbd86b5eb	-0.06577667
132	0xbcec7222	-0.028863017
133	0x3d706cda	0.05869756
134	0x3d371637	0.04469892
135	0xbd91e099	-0.07122917
136	0x3d16372b	0.036673706
137	0x3dbef151	0.09323371
138	0xbdcb32ea	-0.099218205
139	0x3d8faf8b	0.07015904
140	0x3cf94a2d	0.030430878
141	0xbcb84eaf	-0.022498457
142	0xbc40ef91	-0.011775867
143	0xbd723ab1	-0.059138004
144	0xbcc8ba98	-0.024503037
145	0xbd92cff8	-0.07168573
146	0xbd75a20c	-0.059968993
147	0x3cf1f57e	0.029536005
148	0xbe007454	-0.12544376
149	0xbdfe7fa3	-0.124266885
150	0xbd6c8bb7	-0.05775043
151	0xbc1b7348	-0.009487934
152	0xbcbd0394	-0.023072995
153	0xbdb1d9c2	-0.08684112
154	0x3d91bdb1	0.07116259
155	0x3e39d96f	0.1814935
156	0xbd261536	-0.040547572
157	0x3dd811a3	0.10550239
158	0xbe06b4c2	-0.13154891
159	0xba96e16f	-0.0011511276
160	0xbdd40eaf	-0.10354363
161	0x3de3a1ed	0.11114869
162	0xbd23e9d9	-0.040017936
163	0xbd1a24f3	-0.037632894
164	0x3dfc28e0	0.12312484
165	0x3c0e9869	0.00870333
166	0x3cd50ea0	0.02600795
167	0xbcbc1c4c	-0.022962712
168	0x3db2478a	0.08705051
169	0xbd87c3f0	-0.06629169
170	0xbd7a3e90	-0.06109482
171	0x3d6e91b8	0.058244437
172	0x3cbaaf03	0.02278853
173	0x3c9692b4	0.0183805
174	0xbd1ce2fa	-0.0383024
175	0x3dccda8b	0.10002621
176	0xbd3eee81	-0.046614174
177	0xbdb1b949	-0.086779185
178	0xbc8f6172	-0.01750252
179	0xbd4b6195	-0.04965361
180	0xbc248886	-0.010042315
181	0x3c6f220b	0.014595519
182	0xbd66c485	-0.05633976
183	0xbd9e9d79	-0.07744879
184	0xbd84f15c	-0.06491348
185	0xbe1d2087	-0.1534444
186	0x3dc33564	0.09531668
187	0x3d200439	0.039066527
188	0xbd87a28c	-0.066228
189	0x3c074b76	0.008257737
190	0x3db8e023	0.09027126
191	0x3d30c713	0.043158602
192	0x3c6ab984	0.014326457
193	0x3d209550	0.039204895
194	0xbc180b3b	-0.009280021
195	0x3eb79ce3	0.35861883
196	0xbeb3c44d	-0.35110703
197	0xbde414eb	-0.11136802
198	0x3eab4af7	0.3345563
199	0x3e053753	0.13009386
200	0xbddac550	-0.106821656
201	0x3e28a393	0.16468649
202	0x3e3a19f2	0.1817396
203	0x3ed608fa	0.41803724
204	0x3e53e82e	0.20694038
205	0xbf065cfb	-0.52485627
206	0xbe0bc57d	-0.13649555
207	0x3e1810fd	0.1485023
208	0x3e1d5235	0.1536339
209	0x3d878c27	0.06618529
210	0x3ae72c4f	0.0017637106
211	0x3e5ac630	0.21364665
212	0x3ddceb2d	0.10787044
213	0x3e6b7c0d	0.2299654
214	0x3d74c91b	0.0597621
215	0xbebdf6e6	-0.3710243
216	0xbd9a7b3e	-0.07543038
217	0xbe92623c	-0.28590572
218	0x3e03fa32	0.1288841
219	0x3c04f6a9	0.008115449
220	0x3e6f5c0c	0.23374957
221	0x3eb62def	0.3558192
222	0x3e002f1f	0.12517975
223	0x3e565760	0.20931768
224	0x3e065b49	0.1312076
225	0x3e456f25	0.1928068
226	0xbddcfe52	-0.10790695
227	0x3ea084b1	0.31351236
228	0xbdb416cf	-0.08793413
229	0xbdfc492c	-0.12318644
230	0xbe5180d2	-0.20459297
231	0x3f1a3465	0.602362
232	0x3d838a50	0.064228654
233	0x3e6d164f	0.23153041
234	0x3eaef342	0.34169966
235	0x3de645c6	0.11243777
236	0xbe095f7a	-0.13415328
237	0xbd1c33cf	-0.038135346
238	0x3df60a6f	0.12013709
239	0x3df303aa	0.11865933
240	0x3db654db	0.08902904
241	0xbe3a1a85	-0.18174179
242	0x3d2f9d91	0.042874876
243	0xbdbc1baa	-0.09184964
244	0x3dbd2331	0.09235228
245	0x3e382f6e	0.17986843
246	0x3e262aa7	0.16227208
247	0x3cd2142b	0.025644382
248	0x3e84a06f	0.2590365
249	0x3e549206	0.20758829
250	0x3de25943	0.110521816
251	0xbd6baed9	-0.057539795
252	0x3e0b3dd0	0.13597798
253	0x3f1c075a	0.6094872
254	0x3dc143aa	0.09436734
255	0x3e8a2076	0.2697789

fc2.bias f4 [64]
0	0xbda7abc3	-0.08187058
1	0x3db60188	0.08887011
2	0x3d809ce5	0.06279925
3	0x3df5dd6c	0.120051235
4	0xbce80fc7	-0.028327836
5	0x3d384feb	0.04499809
6	0x3df18986	0.11793809
7	0x3d04260b	0.032262843
8	0x3da80269	0.08203585
9	0xbdbbf2fa	-0.091772035
10	0x3d8ae7c0	0.06782484
11	0xbbc9ce2c	-0.006158611
12	0x3dd17592	0.10227503
13	0xbd2403ca	-0.040042676
14	0x3d2418f8	0.040062875
15	0xbd4361d0	-0.047700703
16	0xbdeb3b1c	-0.114858836
17	0x3dfc9488	0.123330176
18	0x3d5607b1	0.05225343
19	0xbe17f000	-0.14837646
20	0x3c23a6c6	0.009988492
21	0x3d0db43a	0.034595706
22	0x3e2a12c4	0.16608721
23	0xbcb7bf93	-0.022430217
24	0xbd449055	-0.04798921
25	0x3ca91bb4	0.020643093
26	0x3c0fd7cf	0.00877948
27	0xbc9d56b9	-0.019206392
28	0xbc77acdd	-0.015116897
29	0xbbd8f248	-0.006620679
30	0x3d41f01e	0.047348134
31	0xbe526484	-0.20546156
32	0x3df112be	0.11771153
33	0x3dbf8d0d	0.09353075
34	0x3e505141	0.20343496
35	0xbe5d60c3	-0.21618943
36	0xbeb5d980	-0.35517502
37	0xbe9a3370	-0.3011737
38	0x3e8868b8	0.26642394
39	0x3ceac752	0.028659496
40	0xbc449ee8	-0.012000777
41	0x3d3b9e63	0.045805346
42	0x3e2154de	0.1575503
43	0x3dae8173	0.08520784
44	0xbe3c8efd	-0.1841392
45	0x3d9b8881	0.075943954
46	0xbd7b0db2	-0.061292358
47	0x3d2eabfe	0.042644493
48	0x3d472837	0.048622336
49	0x3d53d026	0.051712178
50	0x3de6be16	0.11266725
51	0x3e8b7261	0.27235702
52	0xbe3d4381	-0.18482782
53	0x3c814acc	0.015782736
54	0x3e061948	0.13095582
55	0x3daa996d	0.08330045
56	0xbdd4eead	-0.10397086
57	0xbd8b918d	-0.06814871
58	0xbe0f4c2a	-0.13993898
59	0x3e130559	0.14357509
60	0xbd85a968	-0.06526452
61	0xbd132bb9	-0.03593037
62	0xbd437dd4	-0.04772742
63	0x3c8a20ce	0.016861346

fc3.weight f4 [1, 64]
0	0x3e12360e	0.14278433
1	0xbe5c7ccf	-0.21531986
2	0x3a084405	0.0005198124
3	0x3e0da64d	0.1383297
4	0x3b0815b2	0.0020764885
5	0xbc00ecc2	-0.007868947
6	0x3a694fcd	0.0008900136
7	0x3b0a160e	0.0021070275
8	0xba5ee143	-0.00085021945
9	0x3cc36219	0.023850488
10	0xba6ac0c6	-0.0008955117
11	0xbac057b5	-0.0014674576
12	0x3e7ebd5c	0.24876922
13	0x3ae1cf64	0.0017227945
14	0x3e0e5176	0.13898262
15	0xbbbd8d1c	-0.005784644
16	0xbd0694df	-0.03285682
17	0x3b27c0cd	0.0025597096
18	0x3a9bf506	0.0011898584
19	0x3aaadc00	0.0013035536
20	0xbb1221c0	-0.0022297949
21	0x3a1d6ea0	0.0006005559
22	0xb7ef0c46	-2.8496735e-05
23	0x3a13adc4	0.0005633498
24	0xba1b677a	-0.00059282
25	0x3adc2c15	0.0016797805
26	0xbeca7feb	-0.3955072
27	0x3a05a0b2	0.0005097493
28	0xbb4d723e	-0.0031348611
29	0x3af9c3a6	0.00190555
30	0x3c6979aa	0.014250198
31	0xbe539996	-0.20664057
32	0x3e01eaa7	0.12687169
33	0xbe0cc7f7	-0.13748156
34	0x3e094269	0.1340424
35	0x3eb8b099	0.36072233
36	0x3eeeaf81	0.46618274
37	0xbe6ee94b	-0.23331182
38	0xbe3d46c0	-0.1848402
39	0xb951c27b	-0.00020004243
40	0xb9049b82	-0.00012646432
41	0xbb575d72	-0.0032862094
42	0xbe93f4ee	-0.28897804
43	0x3e7b45ae	0.245383
44	0x3e7b3279	0.24530973
45	0xb9e6cc12	-0.00044021063
46	0xbca40195	-0.020020286
47	0x3b83f31e	0.0040267846
48	0x3b20b28b	0.0024520482
49	0xbe48205d	-0.19543596
50	0xb943f915	-0.0001868944
51	0xbeb3bbf6	-0.3510434
52	0x3db66d65	0.08907584
53	0xbf051390	-0.51982975
54	0x3e2ce7e3	0.16885333
55	0xbac68d3c	-0.0015148292
56	0xbe454b50	-0.1926701
57	0xbe3b7233	-0.18305282
58	0x387b47a4	5.9909784e-05
59	0x3947fd96	0.00019072587
60	0xbab8bcbf	-0.0014094337
61	0x3ac9b27e	0.0015388278
62	0x3af121f1	0.0018396956
63	0x3a17ac59	0.00057858747
