5_PPO/ppo/save_model/model.pth (torch_old, 18931 bytes, 5 tensors)

fc1.weight f4 [64, 3]
000000 33 0e ae be 0a ca 37 bf 4c dd 57 3e 93 8e f4 3d
       -0.33995208 -0.7179266 0.21080512 0.119412564
000010 67 fd 40 3e 8b 5f d2 3d a8 5c 19 be 9c ef 98 3f
       0.18846665 0.102721296 -0.14976752 1.1948123
000020 59 bb e6 3e 69 77 fa 3d 4b 55 25 bf 29 d2 cd 3c
       0.4506481 0.12229807 -0.6458327 0.025124626
000030 04 7c fc be bf 07 00 be 8f 6b dd be b6 6d 21 3d
       -0.49313366 -0.12502955 -0.43246123 0.03941127
000040 0b d0 1d 3f e4 a4 67 bd ac be de 3e de 64 ae 3e
       0.61645573 -0.056553736 0.43504846 0.3406133
000050 2b 56 24 3e 23 8c 76 3f af f7 96 3e e7 1d b5 bd
       0.16048495 0.9630758 0.29485843 -0.08843594
000060 ba 68 f3 be 7e de 85 3e f6 b0 05 3e 8d 0a ac be
       -0.47540838 0.2614631 0.13055786 -0.336018
000070 a8 ce d9 3e ee 75 d8 3e 65 94 75 be fa cf 9a 3c
       0.4254048 0.42277473 -0.2398239 0.018898
000080 8e c1 48 3e 3e 8e f2 3e f1 1e 5a bf 6e c0 d3 3d
       0.19605085 0.47374147 -0.8520346 0.103394374
000090 75 77 30 3f 13 e6 d3 3a 88 83 67 3c b7 f9 55 bf
       0.68932277 0.001616659 0.014130481 -0.8358416
0000a0 0f 86 18 3c 99 2f 5d bd 04 d5 e8 3e a5 81 93 bf
       0.009309306 -0.05400047 0.45475018 -1.1523939
0000b0 dd 6f 92 bd b9 e2 97 3e cf b0 70 3e b6 90 ae bf
       -0.071502425 0.29665163 0.23504947 -1.3637912
0000c0 26 2e 73 3e db 3f 01 3f 1c 0c a7 be 0d 8f 25 3c
       0.23748073 0.5048806 -0.32626426 0.010104907
0000d0 40 36 75 3f 07 e3 76 3e 57 b2 5c 3f f8 4c a8 3e
       0.95785904 0.24110042 0.86209625 0.32871222
0000e0 6d c6 45 3d 37 e3 da 3c 6d 78 76 3f 50 0e e8 3e
       0.048284937 0.026719673 0.96277505 0.4532342
0000f0 7d 25 37 3f a4 71 e0 3e bb 4b d7 bd fb 5f 83 3e
       0.7154158 0.438367 -0.10512491 0.25659165
000100 77 98 41 be a9 b5 ab 3d d3 56 4a 3f a1 c9 60 be
       -0.18905817 0.08384258 0.79038733 -0.21951915
000110 87 39 49 3e 4d 8b 50 bf 9c b6 f0 be 1f 6f b8 bd
       0.19650851 -0.81462556 -0.4701432 -0.0900557
000120 fc 8d d2 be 64 cb 1d be b8 90 ab bd 3a 70 45 bf
       -0.4112395 -0.15409619 -0.08377212 -0.7712437
000130 64 99 00 bf 03 8d b4 3d 6e c1 79 3e c7 a7 63 bf
       -0.50234056 0.08815958 0.24390194 -0.8892788
000140 09 d1 b5 be 0c 1c 64 3f 54 38 3d 3f 45 cf 95 3e
       -0.35511044 0.89105296 0.73914075 0.29259697
000150 22 25 36 be e4 60 25 bf ed 28 a5 3e 79 07 c6 be
       -0.17787603 -0.6460097 0.32257786 -0.38677576
000160 66 8d 68 3d e0 99 74 3c 0f 0c 39 bf a9 3b 34 bf
       0.056775473 0.014929265 -0.72284025 -0.70403534
000170 a0 30 b9 3d 5a c7 51 3f 99 de 03 3e d0 ff 11 be
       0.090424776 0.8194481 0.12877883 -0.14257741
000180 02 0a 08 3f 77 24 f2 be 9d df 29 3e c0 d0 cb 3e
       0.5314027 -0.47293445 0.16589208 0.398077
000190 20 b2 3e 3f a4 c1 75 bd 6c 5f 80 3e f1 53 1d 3f
       0.7449055 -0.059999123 0.250728 0.6145621
0001a0 a6 95 07 bf 11 53 1d 3f 33 b8 4f 3f 21 dd ed 3b
       -0.5296272 0.61454874 0.8114044 0.0072590266
0001b0 e6 7d 48 3e 28 72 59 bf e5 2b 10 bf a2 9e b6 ba
       0.19579276 -0.84939814 -0.5631698 -0.0013932774
0001c0 04 b4 91 bf 64 f0 e7 be ad 18 4f be c4 4b 2b 3f
       -1.1383061 -0.4530059 -0.20224257 0.66912484
0001d0 41 e4 93 be 19 dd 4c 3f dd 9b b9 3e b0 ef 83 3d
       -0.2888508 0.8002487 0.36251727 0.06442201
0001e0 11 15 51 3d cb f0 0d bf 7c d5 f5 bd c5 0e 5a 3c
       0.05104548 -0.55445546 -0.120036095 0.013309185
0001f0 5f ad 87 3f d6 53 42 3f 87 3f 6b 3f c3 dd a9 bd
       1.0599784 0.75909173 0.9189381 -0.08294251
000200 7b 5e a4 bd 8c 51 70 3e fc a5 77 bd 2a 53 5a 3e
       -0.08025833 0.23468608 -0.06046103 0.21320787
000210 41 72 5f be fa 75 2a 3f 47 8d af be 41 af 88 3e
       -0.21820928 0.6658627 -0.34287474 0.26696208
000220 42 fa 27 3f 36 ab 86 be f3 3a 8d 3e ee fe 6f bf
       0.6561624 -0.263025 0.27584037 -0.93748367
000230 97 33 ca bc 82 ed 6d 3e ec 1d 5d 3f e3 38 7c 3e
       -0.024682803 0.23235133 0.8637378 0.24631076
000240 be a9 c2 3e 26 35 07 bf 86 85 b3 3e de 8e 17 bf
       0.38020128 -0.52815473 0.35062808 -0.59202373
000250 f4 2f b1 be 78 75 c8 3d 85 13 44 3f 56 d4 19 3f
       -0.34606898 0.097880304 0.76592284 0.60089624
000260 3f 44 08 be f4 f7 d2 3d 19 c1 7d bf b8 cf 61 be
       -0.13307284 0.103011996 -0.9912277 -0.22051895
000270 90 dc 65 3f 89 80 e5 3e 3a 29 57 3d 06 70 d9 3b
       0.89789677 0.44824627 0.05252955 0.0066356687
000280 d5 58 da 3f f7 65 03 3f 08 d6 9d 3e 95 d8 30 bd
       1.7058359 0.5132746 0.30827355 -0.0431753
000290 2c fe c9 3d 75 51 e5 3d a0 ac 10 bf f8 44 76 3e
       0.098629326 0.11197177 -0.56513405 0.24049747
0002a0 fd ee 97 3e 9b ea 63 3f 92 b8 54 bd e6 ba 88 be
       0.2967452 0.89029855 -0.051933832 -0.26705092
0002b0 4f ab 8e 3e de 7f a6 3e 2d ac 38 3d 78 37 45 bf
       0.27865073 0.3251943 0.045086075 -0.77037764
0002c0 50 f7 01 3c b5 36 b1 be db 60 53 3f 36 36 3e 3f
       0.007932499 -0.3461205 0.82569665 0.7430147
0002d0 30 63 9c 3e 1c c8 87 3f 61 8e b0 be 47 8c 75 3f
       0.30544424 1.0607944 -0.34483626 0.9591717
0002e0 fd a5 18 3f 81 06 a6 3d 58 fb ec 3e f1 f8 49 be
       0.5962828 0.08106709 0.4628551 -0.1972387
0002f0 8b cc aa be b1 a3 67 3e 64 f9 90 bf fa af 20 bd
       -0.3335918 0.22621037 -1.1326108 -0.039230324

fc1.bias f4 [64]
000000 c2 38 08 be 04 6f 9a 3e 7d f2 7c bc 4b 87 21 3e
       -0.13302901 0.30162823 -0.015438673 0.15774266
000010 d1 bd 0c bf ab 98 6f be 27 3e 06 3f 6e 7f da 3e
       -0.54977137 -0.23398082 0.52438587 0.42675346
000020 b6 2a f8 3e f0 eb 9c be 78 4d 25 be f1 ad d4 3e
       0.48470086 -0.30648756 -0.16142833 0.41538957
000030 b3 38 94 3e 89 02 26 3d d3 35 71 be 6f 51 5c be
       0.28949508 0.04052976 -0.23555689 -0.2151544
000040 94 dc b1 3e 0b 1b 6a be f1 ef de 3e 64 70 ed be
       0.347386 -0.22861879 0.43542436 -0.4637481
000050 c4 db 63 bc b8 77 33 3f 0f 2f 5c bf ac 2a 00 bf
       -0.013907377 0.7010455 -0.86009306 -0.5006511
000060 27 83 ec 3d d8 8e 72 bd cd 76 81 3e fd f0 44 bf
       0.11548453 -0.059218258 0.2528595 -0.7693022
000070 74 27 44 be d9 89 7d bd 41 33 88 bd 79 7b 05 3f
       -0.19155675 -0.06189904 -0.06650401 0.5214153
000080 36 8b 49 3e 9b 70 5b bd 52 34 bb bd 96 f5 c2 bd
       0.19682011 -0.053574186 -0.09140839 -0.09519498
000090 82 04 57 3e df 90 2e 3d dd 24 dd be 24 2f ea 3e
       0.20997813 0.04261863 -0.43192187 0.4573909
0000a0 82 21 9a be d6 00 7e 3d c1 2c bc 3e 9f 5c fc 3e
       -0.3010369 0.062012516 0.36752895 0.49289414
0000b0 19 d3 c9 be 8e 6d c4 bd 5b be 73 3d 63 4d 87 be
       -0.39418867 -0.095912084 0.05950771 -0.2642623
0000c0 c9 6f c3 3e b0 61 80 3d 98 bb 09 be 77 77 11 bf
       0.38171223 0.062686324 -0.13450468 -0.56822914
0000d0 74 6d bb 3e 35 fd a8 3d c3 01 06 3f e3 09 89 3e
       0.36606944 0.082514204 0.5234644 0.26765355
0000e0 48 82 77 be 37 e6 97 be c3 f1 6d 3d d4 68 3e be
       -0.24170792 -0.29667827 0.05809189 -0.18594676
0000f0 a7 fe ee be 5e d1 dc 3e 0c 23 a6 3e 9f 9f a7 3d
       -0.4667866 0.43128484 0.32448614 0.08184742

fc2.weight f4 [64, 64]
000000 7a c7 a8 3d aa 22 8a 3b 30 41 01 3d 1c 4c 97 bc
       0.08241172 0.004215558 0.03155631 -0.018468909
000010 63 5e 01 3d b2 da 9b bd d0 ba 65 3d fb 3b 84 3d
       0.031584155 -0.07610072 0.05608636 0.06456753
000020 39 0f 74 3b 95 89 56 bd aa 30 f4 3d 69 d0 dc 3d
       0.0037240519 -0.052377302 0.119233444 0.107819386
000030 36 6e 62 bd 1f 9b 71 3c 22 1b 3a 3c d1 d6 64 3d
       -0.055280887 0.014746456 0.011359008 0.055868927
000040 30 11 4b bc 97 d2 2d 3d 07 09 4a bd 3f db ee bd
       -0.012394235 0.042437162 -0.049325015 -0.116629116
000050 a9 69 b7 bd 58 47 48 bb 76 ef 0c bc b9 cb df 3d
       -0.089557 -0.0030560102 -0.008602014 0.10927529
000060 49 cc dc 3d 76 2f 8b 3d 0c 2c 00 bc e2 33 d0 3d
       0.10781152 0.06796162 -0.007823002 0.10166146
000070 04 d0 1a 3a 87 ec 8d bc dd 25 43 3c 46 e6 f4 3d
       0.00059056305 -0.0173247 0.011910883 0.11957984
000080 25 df a3 3d da 6b c5 3d a6 de d7 3d 0d 8b 98 3b
       0.08001546 0.09639712 0.10540514 0.004655248
000090 d5 73 b4 bd 0c e9 55 3d ab 86 3f 3d 0a 24 fb bd
       -0.08811156 0.052224204 0.04675929 -0.12262733
0000a0 0d 52 54 3d ae 4f b1 bd 8e fe 74 3d c1 b3 8e 3c
       0.051836062 -0.08657776 0.059813075 0.017419698
0000b0 50 41 ca bd c6 7e 6d 3d cc dd d6 3d aa 13 e5 3d
       -0.098757386 0.05798223 0.10491523 0.11185391
0000c0 45 a9 95 3d 2a a2 f0 3d 3c 3d 13 be 01 a9 18 bd
       0.07307676 0.1174968 -0.14378828 -0.03727055
0000d0 0f 34 98 3d 3a 80 b7 3d 9d 7e 90 3d cd 95 20 bd
       0.074318044 0.08960004 0.070553996 -0.03920536
0000e0 51 92 bb 3d 82 00 59 bd fe 0e 2c bd 32 35 bb bc
       0.09158767 -0.052979 -0.042006485 -0.022852514
0000f0 a0 87 9c 3d 3e 8b d6 3d 0d ca 55 3d 3d 5b dd bd
       0.07643056 0.10475777 0.052194644 -0.10808418
000100 c0 db d4 bd 44 67 bc bd b8 83 b8 3d 52 78 d1 bc
       -0.103934765 -0.09199384 0.09009498 -0.025570069
000110 4c 2e 34 3c ff 6c 33 bc af b5 cb 3d d6 f5 da bd
       0.010997366 -0.01095128 0.09946763 -0.10691421
000120 bc b0 05 bd eb c3 db 3d 49 13 2e bd c2 cc 74 bd
       -0.03263925 0.10730728 -0.04249886 -0.059765585
000130 eb 69 82 3b 4d 08 41 3c f8 0c 55 3d 17 e9 cc bc
       0.0039799116 0.011781764 0.05201432 -0.02501349
000140 79 2f ed bd 41 a0 ee 3c a7 8e 09 be 75 3b d4 bc
       -0.1158132 0.02912915 -0.13433324 -0.025907258
000150 7e c6 49 3d f3 7f 46 3d 5e ac cc bd 28 03 a4 3c
       0.049261563 0.048461866 -0.09993814 0.020021036
000160 14 19 0f 3b 59 ee f6 bc e5 44 1f be 0b 9f 1a bc
       0.0021835016 -0.03014295 -0.15553625 -0.009437333
000170 0c 67 82 bc e3 5e 64 3d 64 f9 c1 3d ca dd ab bb
       -0.015918277 0.055754554 0.094713956 -0.005244945
000180 20 59 04 bc 8f a4 a3 bc c7 6b 6b bd 97 26 16 be
       -0.00807789 -0.019975929 -0.05747583 -0.14663158
000190 40 96 33 bc 17 fd 39 3d 31 73 d1 bc 6f 42 4c bd
       -0.010961115 0.04540738 -0.025567623 -0.049868044
0001a0 bf 28 19 3e bc d8 6b 3b bb 1a c2 3d 3b 5b db bd
       0.1495695 0.0035987338 0.09477755 -0.1071076
0001b0 34 cf 0b 3c a6 3f f1 3d 85 1f ca bc 93 9e f0 3b
       0.008533288 0.11779718 -0.024673233 0.0073431223
0001c0 70 9a 8e 3d 4d 30 6d bd 80 1a 43 3d 91 fb cf 3c
       0.0696305 -0.05790739 0.047632694 0.02538851
0001d0 ed c4 00 3e f4 75 d3 bd e6 1c e9 3c 42 d0 24 bd
       0.12575121 -0.10325232 0.028456163 -0.040237673
0001e0 3f c2 8f 3d ac 55 de 3d 9c 12 71 3b 22 84 c4 bc
       0.070194714 0.10856184 0.0036784774 -0.023988787
0001f0 94 e0 51 bc ab ba b5 3d 31 fe cd bd ad 18 5c 3d
       -0.012809891 0.08873495 -0.10058249 0.05373447
000200 dd 10 8d 3d 0d 3b c3 3d 08 fe da 3d d5 d5 99 bd
       0.06887982 0.095327474 0.10692984 -0.07511488
000210 f2 ab 0d b9 02 b4 91 3b fd 6f 41 3d ff 86 ac bd
       -0.00013510862 0.0044465074 0.04722594 -0.08424186
000220 a2 0a ce 3c 4e f2 04 3e c4 8d f3 bd f4 b7 b7 3d
       0.025151554 0.12983057 -0.11892274 0.08970633
000230 a9 20 7d 3d c2 e2 71 3c 29 4f 46 bc 0c 03 14 3c
       0.061798725 0.014763536 -0.012103834 0.00903393
000240 35 99 0d bd dc 7e c8 bd 29 f3 a7 bc 13 85 c2 3d
       -0.034569938 -0.097898215 -0.02050169 0.09498038
000250 b6 b2 e2 bd 04 22 ef bd a4 92 82 bd ad 4b 19 bd
       -0.11069243 -0.1167641 -0.06375626 -0.037425686
000260 3c e7 51 bd 2d 3f cc bd 44 68 1b 3d 33 7f c5 3d
       -0.051245913 -0.09972987 0.037941232 0.09643402
000270 2f 44 a7 bc 4d 74 34 3d b9 94 f3 bd de 3c aa bc
       -0.020418255 0.044056226 -0.11893601 -0.020780977
000280 6f 04 f5 bd 03 36 ab 3d 68 50 48 bd b4 70 c8 bd
       -0.11963736 0.08359911 -0.048904806 -0.097871214
000290 68 3e b1 3d c2 9e b1 3b 93 2b 83 bb e4 20 6d bc
       0.08654481 0.0054205367 -0.004002997 -0.014473174
0002a0 76 61 b0 3d 12 14 ae bd 9e 2c 94 bd 73 1e 95 3d
       0.08612339 -0.08499922 -0.072350726 0.07281198
0002b0 ff 29 d3 3c b9 48 99 bc 4b 14 49 bd 7e 35 a9 3d
       0.025776861 -0.018711435 -0.04909162 0.08262156
0002c0 9f d3 9e bd 96 d1 c8 bd 6f 09 0a bd 06 27 84 bd
       -0.07755207 -0.098056 -0.033700403 -0.06452756
0002d0 bd ce 76 bc e7 f2 cf 3c 46 4d 43 bd 4a 74 9b bd
       -0.015063939 0.02538438 -0.047681116 -0.0759054
0002e0 e4 e0 38 be e0 a2 c1 bd 22 a7 8e 3d 21 b4 07 3d
       -0.18054539 -0.09454894 0.06965472 0.03313077
0002f0 a8 cc 70 bd ef 37 92 3c 6d 8e 5d 3d 76 ad d7 3d
       -0.058788925 0.017848937 0.054090906 0.10531132
000300 3d bf 55 bd cd b2 cd bc 02 81 65 bd 88 e7 92 3d
       -0.052184332 -0.025109673 -0.056031235 0.07173067
000310 37 11 00 be 5a 19 89 3d 6c d6 cc bd 97 64 11 3d
       -0.12506567 0.066942886 -0.10001835 0.03549632
000320 6e 26 a3 39 b7 4c d7 3d b6 f3 0f 3e f2 c3 aa 3d
       0.00031118415 0.10512679 0.14057812 0.08338155
000330 f4 66 72 3c 1d ee 00 be 19 e1 08 be bc a2 3c 3d
       0.014795054 -0.12590833 -0.13367118 0.046053633
000340 bd 81 21 3c f7 c8 eb 3d 28 b7 78 bd d8 60 a7 3d
       0.009857592 0.115129404 -0.060721546 0.08172768
000350 df 69 39 b9 6f 4a 5f 3c ad 4c 07 3e 77 47 ca 3d
       -0.00017682415 0.013628586 0.13212843 0.09876912
000360 31 fa c1 bd bb e4 8b bd 16 85 9a 3c 51 3f d3 bd
       -0.09471548 -0.06830736 0.018862288 -0.10314811
000370 1f 6d e7 3d 57 70 27 3d 43 7f 15 3e 2f 0e 7f 3d
       0.1130011 0.04087862 0.14599328 0.062269386
000380 f6 7b 64 bd 36 33 a2 3d 17 71 23 bd 1f f6 da 3b
       -0.05578228 0.07919924 -0.039902773 0.006682172
000390 b9 16 e4 3a 43 73 9f 3d ae 2d 03 bd e6 fa f5 3d
       0.0017401791 0.07785656 -0.032025985 0.12010746
0003a0 de 0b 8c 3d b7 de 16 bb 85 83 cd 3d 55 fd 32 bd
       0.06838201 -0.0023020932 0.10034851 -0.043698628
0003b0 23 40 79 bc 08 d8 30 3d 01 c3 35 bd da a8 ab bc
       -0.015213045 0.043174773 -0.044375423 -0.020954538
0003c0 a0 cc 89 bd e8 c3 b4 3d 7a 06 98 3b 03 52 03 3e
       -0.06728482 0.08826429 0.004639444 0.12824254
0003d0 86 a2 8e bd 6f f4 8d 3c 44 3d 10 bd 8e c7 aa bb
       -0.06964593 0.01732847 -0.035214677 -0.005211777
0003e0 0e 5b a8 3d a9 58 0e 3e 95 d1 92 bc 94 ff 96 3c
       0.08220492 0.13901009 -0.017922202 0.018432416
0003f0 66 a8 e6 3d 91 4a 6b 3d 52 f3 51 ba 31 a8 28 3d
       0.11262588 0.05744416 -0.0008008975 0.041176025

fc2.bias f4 [64]
000000 f3 bf 8d bd 42 06 98 3b 95 1b a6 3c e0 03 41 bc
       -0.06921377 0.004639418 0.020276824 -0.011780709
000010 a3 53 d6 be 4a dd e1 3d 04 29 95 3d 7a 6e 2e 3d
       -0.41860685 0.11028536 0.07283214 0.042585827
000020 ba fb 24 3d cf 20 d7 be 5c 9b 41 be 11 b7 13 bd
       0.040279128 -0.42017218 -0.18906921 -0.036063258
000030 4d 04 33 be d0 7a f3 bc 7f 01 95 3c 4e 93 01 3b
       -0.1748211 -0.029721648 0.01818919 0.0019771638
000040 70 4d c2 be 53 6d 43 be bf 37 c8 3e d4 ff d6 3d
       -0.37949705 -0.19084673 0.3910503 0.10498014
000050 c3 fd 40 3e 24 14 ab bc 6f 1d d0 3e 4b 0b ab bc
       0.18846802 -0.020883627 0.40647456 -0.020879408
000060 88 7d eb 3a 19 3f 0e 3d 6e cf dc 3d da 76 b4 be
       0.0017966488 0.034728143 0.107817516 -0.35246927
000070 53 5f bd 3b 1c 56 29 3d f3 5c 88 3d 50 5e 37 bd
       0.005779186 0.041341886 0.06658354 -0.044767678
000080 8a a2 78 3b 11 77 14 3d 8e ed 72 be b4 7e 51 bb
       0.0037938678 0.036246363 -0.23723432 -0.003196639
000090 c9 ff a5 3e 23 d8 00 be 68 26 30 bc e2 d4 8d bc
       0.3242171 -0.1258245 -0.010751344 -0.017313424
0000a0 d8 87 ad 3e a8 b0 3f 3d 49 85 c0 bc 5b 84 5b bc
       0.33892703 0.046799332 -0.023501055 -0.013398255
0000b0 d8 bd 92 3d 24 ed e8 3d 0a b1 bd 3e a8 8f b0 3c
       0.07165116 0.11373356 0.37049133 0.021552876
0000c0 81 2b 39 3e 1b 57 00 3d e1 fc 5c 3e ad ab bb 3d
       0.18083002 0.03133307 0.2158084 0.09163604
0000d0 7b 26 db bd 23 82 25 be 2e 70 19 bd 0a 7c ce 3d
       -0.10700699 -0.16162924 -0.0374605 0.10082252
0000e0 dd b4 24 bc a6 ff bf 3b b3 e7 1a be 48 76 e1 3d
       -0.010052887 0.005859333 -0.15127449 0.110088885
0000f0 10 27 db bc e8 1e 46 3e a7 93 a3 bc e2 86 b1 3e
       -0.026752025 0.19347727 -0.019967867 0.3467322

fc3.weight f4 [1, 64]
000000 22 10 ae 39 c2 53 04 3c f5 02 3e 3b fc 4f 56 3b
       0.00033199886 0.00807661 0.0028993462 0.0032701483
000010 4f d4 a4 3e 96 41 b1 3d e5 ff ab 3a 83 a9 27 be
       0.3219323 0.08655088 0.0013122527 -0.16373257
000020 36 2c cb 3b 15 1a b4 3e ee 70 3a be d4 0d 97 bb
       0.0062003387 0.3517615 -0.18207142 -0.0046098027
000030 a0 ce 19 be 9c a1 55 3b f4 01 05 3c 70 e2 e2 3a
       -0.15020227 0.0032597547 0.008118141 0.0017309915
000040 a1 12 5d be 17 67 10 be 4d a6 56 3f 53 c8 44 3e
       -0.21589138 -0.14101826 0.83847505 0.19217043
000050 aa dd c5 3d 2a 62 8b bb 9a e9 10 be f4 39 98 b8
       0.0966142 -0.0042536454 -0.14151612 -7.2587194e-05
000060 17 60 eb 3b 28 33 ab bb 4e b8 5d be 4b 4e 83 bd
       0.0071830857 -0.005224604 -0.21652338 -0.064114176
000070 58 3c c6 3b 82 90 97 ba d6 be 9d 3a 54 0a 2f bb
       0.006049674 -0.0011563452 0.0012035023 -0.0026709037
000080 43 7d dc 3d bd 2a 10 bc 8e 71 43 3e 40 77 e8 3d
       0.10766079 -0.008799252 0.19086286 0.1135087
000090 7b 26 a7 3d 5d 62 31 be 62 ca 36 3e 4a 96 2f ba
       0.081616364 -0.17322679 0.1785064 -0.0006698115
0000a0 bf 39 51 be 7f b2 20 3c e9 1f 05 3a 6a 89 d6 39
       -0.20432185 0.009808182 0.00050783023 0.00040919642
0000b0 44 bb 8d 3b 77 58 f0 3b ed e6 29 3e 5b 46 be 3b
       0.0043253023 0.0073347646 0.16591997 0.005806727
0000c0 c6 fb f1 bc 4b a9 0d bb 2d 17 cd 3d 89 14 9d 3b
       -0.029539 -0.00216158 0.10014186 0.0047937077
0000d0 2c 1b 99 3b af 56 ad bd 38 50 c9 3b e1 dc 05 3c
       0.0046724286 -0.08463799 0.006143596 0.008170337
0000e0 3e 8e 53 be 17 95 0e bc e5 71 4a ba f8 40 01 3b
       -0.2065973 -0.008702538 -0.000772266 0.0019722562
0000f0 be 92 bc bb d7 a6 3c 3f d6 bd 92 3b e9 ab 77 be
       -0.0057547977 0.7369208 0.0044781966 -0.24186672
