4_TRPO_PPO/trpo_gae/save_model/model.pth.tar (torch_old, 18931 bytes, 5 tensors)

fc1.weight f4 [64, 3]
00000000: 0674 ca3d 1dd7 04bf 4909 503e b729 9dbe
00000010: 69ff 413e 0b3d 1e3e b20b ddbe 2632 eb3e
00000020: 9a50 693e d711 963e 2f02 f43c 9f02 c63e
00000030: 0dd7 9fbe 07a4 893d 5454 14bf a7a0 3a3e
00000040: 2b29 743e da50 98bd d235 8f3e acce 6d3e
00000050: 9e00 9e3e 930c 3b3f 6eff 003e b2c6 b2bd
00000060: 2f5e 64bf aa0f f53e b144 983e a3b4 22bf
00000070: 65cc ae3d 67d7 cd3e 54ad 8dbe 325b 313c
00000080: c04c 943e baa6 033f e906 f6be 0da8 aa3e
00000090: bc50 d53e 2c5d cf3d 96b2 883d 46d1 d6be
000000a0: cfac 26be a385 acbe 94b2 af3e 4bc2 23bf
000000b0: 4839 213e 583a ad3e 5bc6 a53e 125f 01bf
000000c0: b55c 21be f148 3b3e 4509 96be 289b e0bb
000000d0: 84ca 023f 0622 a8bc 1521 1d3e b7f5 e83e
000000e0: 8383 75be aeff 1c3d 1c31 da3e 750a 013f
000000f0: a655 913e 7722 943d d64a 98be a987 503e
00000100: 1b33 1bbd 1c52 5b3e c3f0 9e3e 25b2 f7be
00000110: 227a 943e dd66 ddbe fc9c 7ebe 1fa6 0bbf
00000120: 8b10 f53e 6088 eebd e4fb 04be 7f8e 92be
00000130: 17a8 f7be 1ea2 0b3e 30bf 723f a06d 0bbf
00000140: 383e a3be e3bc 513f 8f78 873f 58b0 ad3e
00000150: b430 543d 0e9b abbe 5b13 e33e 00bb 123f
00000160: 212d 40bd f16e eb3c dd66 2cbf c892 65be
00000170: 3934 193d 0afc 393f e793 c53d ba76 c6bd
00000180: 0867 023f d346 a2be ee0c d13e 42d1 1dbc
00000190: 27ba 9a3e cc05 a8bd d264 4a3e 4b81 e03e
000001a0: 548b 1ebf e60b 583e 14bf 2f3f e404 ba3e
000001b0: 8c16 9d3e 7518 f3bd 7498 f1be 347e efbd
000001c0: 8f01 0fbe 5115 02bf 90a5 c7bd 11f4 003f
000001d0: ac98 a0be 7c2b ed3e 6254 3c3e 6f31 cd3e
000001e0: 5d50 c2bd cc08 76be 95bf 0ebd 3119 363e
000001f0: 9ed1 033e e341 0f3f 46d7 493f 5c30 7f3e
00000200: 3ec8 ff3d 162c b3bd 1701 31be aa2a 823e
00000210: 8667 c6bd 60b2 d23e c61d 9dbe 4e3a d33e
00000220: 65d6 be3e d7ba 7fbd 1a93 73bb 13e9 70be
00000230: e4e4 bf3e 228a 893d e18f 063f daf3 b03e
00000240: f3fc 5d3e 2a00 c0be 9c76 133f 2817 14be
00000250: 2816 78be 3a75 8f3d bf61 bb3e eafb 063f
00000260: 829c 1dbe c086 c53e 2c0d 84bf 09f1 b2be
00000270: ab46 4d3f 36d3 183f dcf1 663e 4b8d 97be
00000280: d76e 953f 0d49 e63e a652 333d 167d cf3c
00000290: ea4a 953e 7aa6 85be de9a b8be 98ea 933d
000002a0: 3b47 bc3e 7f2e 9a3e 3d41 833e d3d0 dbbe
000002b0: 6de8 2abd c5a8 e13e 2a71 643e 5920 16be
000002c0: bd8f 2b3e e864 0fbf 9510 033e aa4f b63e
000002d0: b15e 743e c30e 0d3f 00bf b7be 10e1 203f
000002e0: 7b6c eb3e 1470 c93e 1080 553f c649 85be
000002f0: 1c52 dabe a324 f7bb a6ef 22bf 60db a93d
0.09885411 -0.51890737 0.20316042 -0.30695888 0.18945087 0.15452974 -0.43172985 0.45936698
0.22784653 0.29310486 0.029786197 0.38673875 -0.31218758 0.06720739 -0.57941175 0.18225347
0.2384383 -0.07437296 0.2797075 0.2322337 0.30859846 0.7306606 0.12597439 -0.087293044
-0.8920621 0.47863513 0.29739907 -0.6355688 0.08535079 0.402034 -0.276713 0.010824965
0.28964806 0.5142628 -0.48052147 0.33331338 0.41663158 0.10125193 0.066746876 -0.41956538
-0.16276859 -0.33695707 0.34315932 -0.6396834 0.15744507 0.33833575 0.32377896 -0.5053569
-0.15758021 0.18289544 -0.29303947 -0.0068544336 0.51090264 -0.020524036 0.15344651 0.45499966
-0.23975949 0.038329773 0.42615592 0.5040658 0.28385657 0.07233136 -0.29744595 0.2036425
-0.037890535 0.21418041 0.31043062 -0.483781 0.2899943 -0.4324254 -0.24864572 -0.54550356
0.47864184 -0.11647105 -0.12986714 -0.2862434 -0.4837043 0.13636062 0.9482298 -0.5446415
-0.31883407 0.81928843 1.0583667 0.33923602 0.05180426 -0.33516735 0.44350705 0.5731659
-0.04691804 0.028739424 -0.67344457 -0.22419274 0.03740332 0.72650206 0.09647351 -0.09690614
0.50938463 -0.3169466 0.40830177 -0.0096324105 0.30220148 -0.08204231 0.19765022 0.43848643
-0.6193135 0.21098289 0.6865094 0.36331856 0.30681264 -0.11869899 -0.47186625 -0.11693993
-0.13965438 -0.50813776 -0.097483754 0.50372416 -0.3136648 0.46322238 0.18391564 0.40076777
-0.09487984 -0.24026793 -0.034850676 0.17783047 0.12872931 0.5595991 0.78844106 0.24920791
0.12489365 -0.08748643 -0.17285572 0.25423175 -0.09687714 0.41151714 -0.30686778 0.4125542
0.37272945 -0.062434044 -0.0037166537 -0.23526411 0.37479317 0.067158 0.5256329 0.34561044
0.21678524 -0.37500125 0.5760286 -0.14461958 -0.24227202 0.07004781 0.36598012 0.5272814
-0.15391734 0.3857937 -1.031652 -0.3494952 0.80185956 0.5969728 0.225532 -0.29599985
1.1674451 0.44977608 0.04377999 0.0253282 0.29158717 -0.26103574 -0.36055654 0.072224796
0.36773095 0.301136 0.2563571 -0.42932758 -0.041725565 0.44074073 0.22308794 -0.14660777
0.1675405 -0.56013346 0.12799294 0.35607654 0.23864247 0.5510065 -0.3588791 0.6284342
0.45981202 0.3934332 0.8339853 -0.26032847 -0.4264077 -0.0075422092 -0.63646924 0.082937956

fc1.bias f4 [64]
00000000: e032 e2be f098 e33e 091a 123f 54fb 4ebe
00000010: b41c 80be 64db afbe 3826 033f f9d8 113f
00000020: d20c 9c3f dd0d 49be 076f 2dbe 20a3 c63e
00000030: b821 c9bd 53f0 683e 2d3d e7be 0255 d1be
00000040: c4d3 1a3f db59 6fbe 2002 023f 42f3 e9be
00000050: f450 0e3e 506e 073f 9e11 29bf eae3 d1be
00000060: 774e 12bf 525f 5dbd 5edc 9d3e 8fb8 4dbf
00000070: 7fc5 92be f87b 2abf 3bee d3be 0181 fc3e
00000080: 7113 41be 7547 ca3d cf25 4dbe 7316 a6bd
00000090: a9be 9f3d 630a efbd 56a0 fbbe 5abd c43e
000000a0: 4fe8 1b3d 94d5 853e d0ae dd3e b842 053f
000000b0: b6e5 ebbe 82de a4be cf94 173e b7b2 b0bd
000000c0: 5413 993e 3dd2 cabc 5bff 88bb 3d4b 09bf
000000d0: 2974 043f c5e7 cf3e 72f5 ed3e 1ed0 cf3e
000000e0: c304 5cbe 19b2 31be d10e 6ebe cf7c 163e
000000f0: cd94 05bf e42e c23e 37c6 663e f05e 853d
-0.4417944 0.4445262 0.57070976 -0.20213062 -0.250219 -0.3434707 0.5123019 0.569717
1.2191412 -0.19634195 -0.16936885 0.3879633 -0.098208845 0.22747926 -0.4516386 -0.40885168
0.6047938 -0.23374121 0.5078449 -0.45693403 0.13898069 0.529027 -0.66042507 -0.40994197
-0.5715098 -0.054045983 0.3083219 -0.8035974 -0.28666303 -0.6659541 -0.41392693 0.49317172
-0.18855073 0.098769106 -0.20033954 -0.081097506 0.078000374 -0.11671903 -0.49145764 0.38425714
0.038063344 0.2613951 0.43297434 0.5205493 -0.46073693 -0.3220101 0.1480286 -0.08627837
0.2989756 -0.024758453 -0.0041808314 -0.5363043 0.51739746 0.40606514 0.46476322 0.40588468
-0.21486191 -0.17353095 -0.2324784 0.14696048 -0.52180177 0.379264 0.2253655 0.065122485

fc2.weight f4 [64, 64]
00000000: 7693 363d 7a5f 0f3d aae0 c83b 368b 46ba
00000010: 4774 89bc 6ef6 b0bd c27e c33d 020c 3f3d
00000020: 2ef2 2cbd 22a5 cbbb 1ebd f33d 0697 c43d
00000030: a0cf 42bd b3b3 173d 8a8c 08bc b217 9e3d
00000040: 444f 9a3c c7bb db3d 7b13 303d 9684 bdbd
00000050: fef6 d2bd 1fcb 813c 5ace febd 7260 1c3d
00000060: 9bfb a43d 0e9b 0a3d 3a4a fcbd 2c82 f9bc
00000070: a471 cabc 0ec6 953b f959 8c3c f5da 9d3d
00000080: e079 4d3d 5610 d13d ef8f df3d 1839 b4bc
00000090: 2c38 d3bd d5e4 ac3d 956b 063d cc59 b7bd
000000a0: c959 99bc 7078 edbd 1d97 2d3d 78dc 983d
000000b0: 02f3 d5bd 59c9 963d 8b9d ee3d 2efb d73d
000000c0: f1a2 c53d 5ce7 b43d 7e8b edbd 8a6c 5abc
000000d0: 6b9d 583d ff10 f73c d64f b83d c7ef 60bd
000000e0: b5b9 7e3d 1093 99b7 213a cabb b7da aebc
000000f0: 9a2b 513d 8d19 d03d 0ebc 00bd fcbb 04be
00000100: 74ca 0bbe 519b 18be ffb4 4e3c 63ef 113c
00000110: 2e95 993c 9baa d63c 021a f63d 8dc9 37be
00000120: 75e6 76be 533e 0d3e 4b83 cdbc 326b d13c
00000130: 2359 653d 9124 42bd f5f8 57bd 5c94 54bd
00000140: 5325 b5bd 90ce a6ba 9377 92bd 570f 12be
00000150: bb46 033d 55e3 7d3d 7415 efbd 6994 69bc
00000160: a00f 683d 1fa1 b0bd 566b 7bbe a279 43be
00000170: 36ad a5bb 76ae f6bd 87c3 013e a060 79bd
00000180: 5206 233d 58df 733c b26f 99bd 2841 21be
00000190: 04ff a2bc f8ca 153d 4e50 20bd 8443 dc3b
000001a0: d094 eb3d 413a f73c 3538 473e 6361 cebd
000001b0: ab2d 40bc 4280 1f3e 9c1b bcbc 05ca 97bd
000001c0: de64 ab3d 6211 a0bd 5d36 d23d 0c77 fb3d
000001d0: be42 7f3e d11f 68be b2a8 293d 3467 a2bd
000001e0: a075 b43d dd9b ec3d 9100 d4bc 3746 743c
000001f0: 557f fcbc 1d39 223e 8023 39be 04ea 29bd
00000200: ffcb 0f3e 054e 143e ae4b 543e 0c10 b7bd
00000210: d452 8e3c d1d7 92bc 7ad5 0a3d 592d b1bc
00000220: fcc1 6b3e 45c8 193d 70ee 0cbe 690b 1a3d
00000230: 3e31 0f3d 3ebb 1c3c b0eb 973d 5a42 133d
00000240: f502 b6bd cb05 d5bd 5390 f9bd 5376 cb3d
00000250: 8654 b0bd 0e5c 00be c6db eeba 1d59 873c
00000260: e1ca ddbd 32f0 51bd eb5d 5c3e e2b6 8a3e
00000270: 7e9d 59bb 5005 073e 00f0 22be 4a8f 813d
00000280: 7d58 e7bd 469d 973d f256 813b ad89 ed3c
00000290: 65b6 073e dc5f 863a 3220 b03c ed90 95bd
000002a0: 4d63 d33d 1bb4 a0bd c465 44be e597 513d
000002b0: 4fc0 673d 6502 66bd 4a6d 95bd f0bb 143e
000002c0: b914 e3bd f5b7 12bd c8a6 afbd ad1c 52be
000002d0: 3bb3 19be 5187 5d3e f2d6 62bd 2775 e2bc
000002e0: 66bb d7bd 9067 2bbe b061 c73d 675f ddbb
000002f0: 81a9 8c3c 88ca 4abd b975 4b3e 30d6 143e
00000300: 82f3 0fbe 9ed0 c1bd 8a92 c2bd 49b8 553d
00000310: 8353 0abe 3a9c f13d 510c b7bd 16ed 7fbc
00000320: cd77 40be 288d 273e 5272 023e 0de9 e63d
00000330: c062 573c cf81 abbd 946e 51be 805d adbc
00000340: 24f2 c23d e605 0d3e db48 debc b8f5 ae3d
00000350: f346 be3b 3c20 113d 0076 e3bc 4cd7 933d
00000360: 6222 bf3c 47bd 0cbe 1277 0ebe abf4 9cbe
00000370: a421 813d d902 b4bd ad1e 313e bf87 e53c
00000380: 11de bebd 020c 153e f555 c4bd 1902 4dbd
00000390: 0e23 8cbd 6cba 273d 8182 21bd 9790 2e3e
000003a0: 40b2 523d 9b4b 693d 360e 5b3e 2b7d 0fbd
000003b0: 0a5a bcbc 2cb3 c53d e773 07bc 89aa 63bd
000003c0: 384c 4fbd b964 843c d3a2 903d 50ea 693e
000003d0: c111 3d3d ca41 8cbd 9696 08bd 955e 8dbd
000003e0: 52b7 9d3d 18a6 2f3e 9fe3 5bbd 7a20 c33d
000003f0: 41d0 683d 7a5f fa3d 8dde cabd 6016 763c
0.044574223 0.035003163 0.0061302977 -0.00075738446 -0.016779078 -0.08640753 0.095456615 0.04664231
-0.042223148 -0.0062147537 0.119013056 0.09599118 -0.047561288 0.03703661 -0.008334288 0.07719363
0.018836625 0.10729175 0.042987328 -0.092538044 -0.10301016 0.015843926 -0.12441702 0.038177915
0.080558024 0.033839278 -0.12318845 -0.030457579 -0.024712391 0.004570729 0.017132746 0.07707778
0.050165057 0.10208194 0.10916125 -0.02199988 -0.10313448 0.08442084 0.032817442 -0.08952674
-0.01871957 -0.11595237 0.04238044 0.07463926 -0.10446741 0.07362623 0.11651143 0.105459556
0.09650219 0.08833191 -0.11598872 -0.013331542 0.0528845 0.030159472 0.089996025 -0.05491617
0.062188823 -1.8307503e-05 -0.0061714803 -0.021344526 0.051066972 0.101611234 -0.031429343 -0.12962335
-0.13651448 -0.14902999 0.012616395 0.008907172 0.018747892 0.026204398 0.12016679 -0.1794798
-0.2411135 0.13793306 -0.02508702 0.02556381 0.05599321 -0.047398154 -0.05272766 -0.0518993
-0.0884501 -0.0012726355 -0.07151713 -0.14263664 0.032049876 0.06198438 -0.11674014 -0.014256575
0.056655526 -0.086244814 -0.24552664 -0.19089368 -0.0050560487 -0.120449945 0.12672244 -0.060883164
0.03980095 0.014884792 -0.07492007 -0.15747511 -0.019896992 0.03657052 -0.039139085 0.0067219157
0.11502993 0.030179145 0.19455035 -0.10077169 -0.011729638 0.1557627 -0.022962384 -0.07411579
0.08368848 -0.078158155 0.10264275 0.12278566 0.24927804 -0.22668387 0.041420646 -0.07929841
0.08811498 0.11553166 -0.025879176 0.014909319 -0.030822435 0.158421 -0.18079948 -0.04148294
0.14042662 0.14482887 0.20731995 -0.089386076 0.01737348 -0.017925175 0.033894993 -0.021628069
0.23023218 0.037544508 -0.13762832 0.037608538 0.03495907 0.009566126 0.07418001 0.03595195
-0.08887283 -0.104014955 -0.12185731 0.09934678 -0.086098716 -0.12535116 -0.0018223457 0.016521985
-0.10829712 -0.05125446 0.21520202 0.27092654 -0.0033205445 0.1318562 -0.15911865 0.06326158
-0.11296175 0.074030444 0.0039471323 0.028996313 0.13253172 0.0010251957 0.021499727 -0.07303033
0.103216745 -0.078468524 -0.19179446 0.05117025 0.056579884 -0.056154627 -0.07296236 0.14524817
-0.11087937 -0.035819966 -0.08576733 -0.20518751 -0.15009777 0.2163365 -0.05538077 -0.027643753
-0.1053379 -0.16738725 0.09735429 -0.0067557576 0.01717067 -0.049509555 0.19869126 0.14534831
-0.14057735 -0.09463619 -0.09500606 0.0521777 -0.1350842 0.11797376 -0.08937896 -0.015620491
-0.187957 0.1636244 0.12738922 0.1127492 0.013146102 -0.083743684 -0.20452338 -0.021162748
0.09518841 0.13771781 -0.02713435 0.08542961 0.0058067976 0.03543113 -0.027766228 0.07218799
0.023331825 -0.13744079 -0.13912609 -0.30655417 0.063052446 -0.08789606 0.17296858 0.02801883
-0.093196996 0.14555362 -0.095867075 -0.05005083 -0.06842624 0.04094927 -0.0394311 0.17047344
0.051439524 0.05695687 0.2139214 -0.03503148 -0.022992153 0.09653315 -0.008267379 -0.055582557
-0.050609797 0.01616131 0.07062306 0.2284329 0.04615951 -0.06848486 -0.033346735 -0.06902806
0.07700981 0.17153203 -0.053683873 0.09527679 0.05683923 0.12225242 -0.099057294 0.015019983

fc2.bias f4 [64]
00000000: 03b3 c4bd f3e9 563d f4af 0abb b696 073d
00000010: 51e3 c3bd b3c6 843d 2f5b 013e d1fa 443d
00000020: f330 c63d a8ca e0bd 6414 793c 9f9f 21bc
00000030: ea93 ea3d ae47 6bbd cf87 4dbd 179c 1ebd
00000040: 54f9 0abe 6966 de3c c586 063e f05a 0ebd
00000050: 2007 50bc 4893 133d 585a ce3d 803b 64bb
00000060: ed2c 32ba 24e3 253d 72a8 103e c130 16be
00000070: 6828 9a3b 11a5 f7bb 99cf 4c3d 5697 acbd
00000080: f8e0 3abd 9de7 803d 0079 203e f0c5 453c
00000090: 927a fd3c 36ea 383d e3ca 12bb 7a53 8d3d
000000a0: 72dc ecbb 4545 783d 740e c4bd a9e4 14bd
000000b0: f2b1 8abc b109 bf3d c290 6f3b 9d3b 4a3d
000000c0: 8670 ad3d c618 99bd 9571 ff3d 8209 ec3c
000000d0: b0b5 c3bd a88a 47bd bb5d f63b a31f f83d
000000e0: c958 a8bd 4a17 36bd 3a8a 3cbe 9fb0 ac3d
000000f0: c164 6fbd 7400 963b abb4 cebd 309d 5a3d
-0.09604456 0.052469205 -0.0021162005 0.033102714 -0.095648415 0.06483211 0.1263244 0.04809076
0.09677305 -0.109761536 0.015202615 -0.009864717 0.114539936 -0.057441406 -0.050178345 -0.038723078
-0.13571674 0.027148442 0.13137348 -0.034754694 -0.012697011 0.03602913 0.100758255 -0.0034825504
-0.00067968556 0.04049982 0.14126757 -0.14667036 0.004704524 -0.0075575192 0.050002668 -0.084273025
-0.045624703 0.06294177 0.15671158 0.012071118 0.030942235 0.045145236 -0.0022398762 0.069006875
-0.0072284276 0.060612936 -0.09573069 -0.03635088 -0.016930554 0.0932802 0.0036554788 0.049373258
0.08468728 -0.07475428 0.12472836 0.028813127 -0.095561385 -0.048716217 0.0075184978 0.12115409
-0.082200594 -0.044455804 -0.18412104 0.08432125 -0.058445696 0.0045776907 -0.100930534 0.053372562

fc3.weight f4 [1, 64]
00000000: fdea c73d 15ef 293f b771 28bf 012e 193f
00000010: 356f 3dbe 5ddc c23c e059 713e 36ec 3e3e
00000020: a5e5 40bd 12ab 8b3e aa85 13be 929b 673c
00000030: e192 16bc f4ce 28bd 861c 94be 3695 163d
00000040: eb6f 82be b4da 69be f844 313f 6404 7d3d
00000050: a2bc f9bc 12ab af3e c7e4 aabe 1fbb db3e
00000060: 1a7c 523d a53c 30be b827 ddbd 5676 f3be
00000070: ae4c 5f3e 981d 74bd 6e79 aa3e d7f6 14bf
00000080: 8989 8c3e c50a f9be 134b 0e3f ee7f e03e
00000090: 9f7e 9e3e 49d0 b8be 16b1 d6bd 2844 093f
000000a0: d5ea 19be bb67 c83b 70b0 e0bd 110f bcbb
000000b0: 3782 e83e a36a 11be b00f 833e 65ef a53e
000000c0: 64a8 3c3e 4ea6 35bf 42ce 253f d576 f0bd
000000d0: 80df 3d3e eae1 30bf 6070 103e 5ca1 a83c
000000e0: aaf7 57be 5f14 5bbd 717c 56bf 1886 c7be
000000f0: 1111 e2be 51fd cebc 06bc 70bd db9b 01bf
0.09761617 0.66380435 -0.65798515 0.5983582 -0.18499453 0.023786718 0.23569441 0.18644795
-0.047094006 0.27278954 -0.14406458 0.014136212 -0.009190292 -0.04121299 -0.28928012 0.036763392
-0.25476012 -0.22837335 0.6924586 0.061771765 -0.030485455 0.34310204 -0.33377668 0.429162
0.051387884 -0.17210634 -0.107985914 -0.4755122 0.21806595 -0.059598535 0.33295768 -0.5818915
0.2744868 -0.4864103 0.55583304 0.43847603 0.3095598 -0.3609641 -0.10482995 0.53619623
-0.15030988 0.0061158813 -0.10971153 -0.0057391007 0.45411846 -0.14200835 0.25597906 0.32409206
0.18423611 -0.70956886 0.6476785 -0.117414154 0.1854229 -0.6909472 0.14105368 0.020584755
-0.2109057 -0.053486224 -0.8378363 -0.38969493 -0.44153646 -0.025267275 -0.058773063 -0.5062844
