2_DDQN/ddqn/save_model/model.pth.tar (torch_old, 2575 bytes, 4 tensors)

fc1.weight f4 [64, 4]
0	0xc01e9089	-2.4775717
1	0x3ee13f89	0.43993786
2	0x4071063f	3.7660062
3	0x3e5f6a6e	0.21817943
4	0x3e32acc0	0.17448711
5	0x3fa9106b	1.3208135
6	0x409097a6	4.518512
7	0x3fbb944a	1.4654629
8	0x3e93e00c	0.28881872
9	0x3f4533c4	0.77032113
10	0x407a9c0b	3.915774
11	0x3f9dd745	1.233132
12	0xbf42c61d	-0.76083547
13	0xbe8a03ce	-0.26956028
14	0x3f38ab99	0.7213684
15	0x3fb52019	1.415042
16	0x3f667e85	0.90036803
17	0x3fbe8f45	1.4887472
18	0x40966917	4.7003284
19	0x3fca3ded	1.5800148
20	0x40216935	2.5220463
21	0xbe2593dc	-0.16169685
22	0xc0511a99	-3.2672484
23	0xbed39bec	-0.41329896
24	0xbfb6863a	-1.4259713
25	0xc01854b0	-2.380169
26	0xc0c0b4fa	-6.022092
27	0xbfba6c0d	-1.4564224
28	0x3f0b816c	0.5449436
29	0xbf061560	-0.52376366
30	0xc0ba993f	-5.831207
31	0xc0033689	-2.0502036
32	0x404ef3da	3.2336335
33	0xbf06f6e7	-0.52720493
34	0xc039429a	-2.89469
35	0xbe4f6fb8	-0.20257461
36	0x3f5baa7a	0.85807
37	0xc04d5093	-3.2080429
38	0xc0f4dc88	-7.6519203
39	0xbfcf7207	-1.6206673
40	0xbd9bd101	-0.07608224
41	0xc03afa86	-2.9215407
42	0xc0bfb7f7	-5.9912066
43	0xc00936bf	-2.1439664
44	0x3fed7115	1.8550135
45	0xbf9c4d76	-1.2211139
46	0xbfc80d34	-1.5629029
47	0xbf8c10ec	-1.0942664
48	0xbf10318e	-0.56325614
49	0xbf243632	-0.64145195
50	0xc09f1aa2	-4.972001
51	0xbf836a59	-1.026683
52	0x3e7f73cb	0.24946515
53	0x3f76d940	0.9642525
54	0x4090867d	4.516417
55	0x3f93c511	1.1544515
56	0xc00343e4	-2.0510187
57	0x3da08f15	0.07839791
58	0x4061f4cb	3.530566
59	0x3f15a92f	0.5846128
60	0x3f4df093	0.8044521
61	0x3f708691	0.9395533
62	0x409c9cfd	4.8941636
63	0x3f820d60	1.0160332
64	0x400ec67b	2.2308643
65	0xbf37a8e9	-0.7174211
66	0xc057b764	-3.3705683
67	0xbf724aad	-0.94645196
68	0x3fcfc9d6	1.623347
69	0xbfa9a456	-1.3253276
70	0xc07d539f	-3.9582288
71	0xbf9800f1	-1.1875287
72	0x3f5d7bb3	0.86516875
73	0xbe658f35	-0.2241791
74	0xbf588862	-0.84583104
75	0x3df8b892	0.12144579
76	0xbf81c925	-1.013951
77	0xbf5c437b	-0.8604047
78	0xc09a6242	-4.8244944
79	0xbf84876d	-1.0353829
80	0xbeaa0ab0	-0.3321128
81	0x4022e8b3	2.5454528
82	0x40ae1188	5.43964
83	0x400908c0	2.141159
84	0xbfcc457b	-1.5958704
85	0x400bf5f6	2.1868873
86	0x40eee266	7.4651365
87	0x3f532acd	0.82487184
88	0x3a93d0e8	0.0011277469
89	0xbfc074cc	-1.5035644
90	0xc0ac909c	-5.3926525
91	0xbfbb0b93	-1.4612907
92	0xbf3a41e3	-0.72756785
93	0xc042a738	-3.0414562
94	0xc0ca90c5	-6.330172
95	0xbfdfa97e	-1.74736
96	0x3f978ab9	1.183921
97	0x3f63f93d	0.8905218
98	0x40b1e7f7	5.559566
99	0x3f8a4a67	1.0803956
100	0x3ec4fbf6	0.3847348
101	0x3f11cbb7	0.5695147
102	0x40872860	4.2236786
103	0x3fa56f6e	1.2924631
104	0xbfa053db	-1.2525591
105	0x3f88f535	1.0699831
106	0x4083ca9c	4.1184826
107	0x3fe898d7	1.8171643
108	0xbf103c90	-0.5634241
109	0xc01c5472	-2.4426541
110	0xc0acac06	-5.395999
111	0xbfb1b4e5	-1.388333
112	0x3f432289	0.7622457
113	0x40211f7a	2.5175462
114	0x40b589b5	5.67306
115	0x3fc40e9a	1.5316956
116	0xc02c4e2f	-2.692272
117	0x3f294c36	0.66131914
118	0x403ec610	2.9808388
119	0x3eac80b1	0.33691934
120	0xbf9005a9	-1.1251727
121	0xbf25ad21	-0.647173
122	0xc032e000	-2.7949219
123	0xbf01bf07	-0.5068211
124	0x40335740	2.8022003
125	0x3e8d4759	0.27593496
126	0xbf6c0f6a	-0.9221102
127	0xbe14836f	-0.14503263
128	0xbd36db91	-0.04464299
129	0x3fb39d30	1.4032345
130	0x40a4f39f	5.154739
131	0x3f9bf42c	1.218389
132	0xc0253b1f	-2.5817335
133	0x3e37283f	0.17886446
134	0x403ba7a6	2.9321074
135	0x3e64ea56	0.22355017
136	0x3fbc91fc	1.4732051
137	0xbf92f152	-1.1479895
138	0xc076c4fb	-3.8557727
139	0xbf86a6ce	-1.0519655
140	0x3faa99c2	1.3328173
141	0x3ffd027c	1.9766383
142	0x40b4685b	5.6377387
143	0x3fc5a1a5	1.5439955
144	0x3fa55d1b	1.2919039
145	0x3ff15b71	1.8856031
146	0x40b6dddb	5.714582
147	0x3f9e7baf	1.2381495
148	0xbfb596ab	-1.4186605
149	0x3e96b922	0.2943812
150	0x40731f3f	3.798782
151	0x3f71b5b7	0.944179
152	0xbf923e4c	-1.1425261
153	0xc01779e1	-2.366814
154	0xc0be6c88	-5.9507484
155	0xbfb4a9e8	-1.4114351
156	0x401b1dd3	2.4236953
157	0xbe055473	-0.13020496
158	0xc05f8999	-3.4927733
159	0xbf03977d	-0.5140303
160	0x3f589178	0.8459697
161	0xbf01834f	-0.50590986
162	0xc0827ba2	-4.077592
163	0xbf18b764	-0.5965483
164	0x3fa1bcb0	1.2635708
165	0x400728b9	2.1118605
166	0x40a74851	5.2275777
167	0x3fab96f0	1.3405437
168	0x3fbfea1a	1.4993317
169	0xbf8245ff	-1.0177611
170	0xc0477d6b	-3.11703
171	0xbf96c769	-1.1779605
172	0x3fe21111	1.7661458
173	0xbee0c3d9	-0.4389942
174	0xbff5839a	-1.9180787
175	0xbf5e2b19	-0.8678451
176	0x3f4a7a61	0.79092985
177	0x401741f0	2.3633995
178	0x40b8631d	5.762099
179	0x3fbc9b48	1.4734888
180	0x3e361b9b	0.17783968
181	0x3f8fd637	1.1237248
182	0x40850f32	4.158105
183	0x3f8df9a8	1.1091814
184	0x40301e40	2.7518463
185	0xbe2721d5	-0.163215
186	0xbe43889c	-0.19095081
187	0xbf0c880c	-0.5489509
188	0xc064080c	-3.5629911
189	0x3f8802ef	1.0625895
190	0x40181f49	2.3769095
191	0x3f0b481a	0.54406893
192	0xbfb70a95	-1.4300104
193	0xc00d280a	-2.2055688
194	0xc0b9950e	-5.799445
195	0xbfb104bf	-1.3829573
196	0xc0252e46	-2.5809493
197	0x3ec7f074	0.3905064
198	0x405f0ab7	3.485029
199	0x3e38a901	0.1803322
200	0x3f88abc1	1.0677415
201	0x4012e992	2.295506
202	0x40aec49e	5.461501
203	0x3fb33394	1.4000115
204	0xbdf3567a	-0.118817285
205	0xbfa9c872	-1.3264296
206	0xc09f02a7	-4.969074
207	0xbf99deac	-1.2021079
208	0x3ee3abf8	0.4446714
209	0xc01d69f9	-2.459593
210	0xc099a49e	-4.801345
211	0xc002f7be	-2.046371
212	0xbe863736	-0.26213998
213	0xc016ef8e	-2.3583713
214	0xc0cc5d26	-6.3863707
215	0xbfed0083	-1.8515781
216	0xbf02470f	-0.50889677
217	0xc0377938	-2.8667736
218	0xc0b8fc78	-5.780819
219	0xbfd7cbb8	-1.6859045
220	0x3e30afdf	0.1725459
221	0x4024a146	2.5723433
222	0x40b8acef	5.77111
223	0x3fe7f8c7	1.8122796
224	0xbf9da120	-1.2314796
225	0xc001d891	-2.0288432
226	0xc0b16e82	-5.5447397
227	0xbfb4fdcd	-1.4139954
228	0x3f147d7f	0.5800399
229	0x3fcccb31	1.5999509
230	0x408108dc	4.0323315
231	0x3fd9abbc	1.7005534
232	0x3dbae997	0.09126585
233	0x3fbcedc2	1.4760058
234	0x40b485d0	5.6413345
235	0x3fc0f9dc	1.5076251
236	0xc03875ea	-2.882197
237	0xbea25a5b	-0.3170956
238	0x3f9317e8	1.1491671
239	0x3e201d3f	0.15636156
240	0x3e0d9425	0.13826044
241	0xc027f8c4	-2.6245584
242	0xc0ba192f	-5.815574
243	0xc00d2d42	-2.2058873
244	0x3e743b8d	0.23850842
245	0x3f830d06	1.023835
246	0x409a1b71	4.81585
247	0x3f88282e	1.0637262
248	0x3e7b95af	0.24568819
249	0x3fe3570d	1.7760941
250	0x408303a7	4.094196
251	0x4011472e	2.2699695
252	0xbfa84dbe	-1.3148725
253	0xbf90ffc3	-1.1328052
254	0xc0893710	-4.2879715
255	0xbf4f129f	-0.8088779

fc1.bias f4 [64]
0	0x3f5ab85e	0.8543757
1	0x3fa63a43	1.298653
2	0x3f9f9360	1.246685
3	0x3f361bcd	0.7113617
4	0xbf7b300d	-0.98120195
5	0xbffe84f4	-1.9884324
6	0x3fa5e221	1.2959634
7	0x4032c959	2.7935393
8	0xbfa4d6c3	-1.287804
9	0x3f87672d	1.0578362
10	0x3f8ab572	1.0836623
11	0x3fb1efe3	1.3901333
12	0xbf46b2af	-0.776164
13	0x3fba7a55	1.4568583
14	0x3fea449e	1.830219
15	0x3ecc5077	0.3990514
16	0xbfc10e81	-1.5082551
17	0x3fd6a218	1.6768217
18	0xbf56500c	-0.8371589
19	0xbeb6e02a	-0.357179
20	0xbf6d4f2d	-0.9269894
21	0x3fbe6498	1.4874449
22	0xbfcc9097	-1.5981625
23	0x3f9c6eb6	1.2221286
24	0x3ea5e052	0.32397705
25	0x3f87e94d	1.0618073
26	0xbfef522c	-1.8696952
27	0x3f81bb8e	1.0135362
28	0xbf89ba71	-1.0760022
29	0x3f8a3565	1.0797545
30	0xbf22b9eb	-0.6356494
31	0x3ecc6098	0.39917445
32	0x3fabf4a7	1.3434037
33	0x3fbbd677	1.4674824
34	0x3fc5f367	1.5464906
35	0xbf93837d	-1.1524502
36	0xbf8d2db4	-1.1029572
37	0x3ff3323b	1.8999704
38	0x3f9a419b	1.2051271
39	0xc0076d48	-2.116045
40	0x40127e6a	2.2889657
41	0xbf91ef30	-1.1401119
42	0x3fe9b0d2	1.8257086
43	0x3f5dfd45	0.86714584
44	0xbf8e22ad	-1.1104332
45	0x3fbdc332	1.4825194
46	0x3f33f71d	0.7029894
47	0x3fa6da25	1.3035322
48	0x3f9c44cc	1.2208495
49	0x3fab1570	1.3365917
50	0xbf95e339	-1.1709968
51	0xbfc916d3	-1.571009
52	0x3f447512	0.76741135
53	0x3f9729f0	1.1809673
54	0x3f907d95	1.1288325
55	0xbf81d248	-1.0142298
56	0x3f8b1fbd	1.0869061
57	0xbf3f69e0	-0.7477093
58	0x3fd7ad43	1.684975
59	0xbebe855c	-0.3721112
60	0x3f7b08be	0.98060215
61	0x3fcbeabb	1.5931009
62	0xbe822d88	-0.25425363
63	0xbdc38261	-0.09546352

fc2.weight f4 [2, 64]
0	0x3ff4624b	1.9092497
1	0x3f8b4468	1.0880251
2	0x4022e91e	2.5454783
3	0xbff959a1	-1.9480478
4	0xc012d1bd	-2.2940514
5	0xc05f6bbb	-3.4909503
6	0x402798e9	2.618708
7	0x3fe3b556	1.7789714
8	0xbffe399e	-1.9861333
9	0x3f45e0be	0.77296054
10	0x40062611	2.0960734
11	0x403c4200	2.9415283
12	0xc0164832	-2.3481565
13	0x40383f9e	2.878883
14	0x403e3264	2.9718256
15	0x3ff73341	1.9312516
16	0x3ef0e5df	0.47050378
17	0x402a9b33	2.6657226
18	0x400cc1b1	2.199322
19	0xc02ae755	-2.6703694
20	0xbff63b25	-1.92368
21	0xc070b4e4	-3.7610407
22	0xc055c7f9	-3.3403304
23	0x400e3529	2.2219946
24	0x4042a2fc	3.0411978
25	0x4005405b	2.082053
26	0xc01a8f19	-2.414984
27	0x3fc24738	1.5177984
28	0xc0145faf	-2.31834
29	0x4035677a	2.8344407
30	0x3ea0568e	0.31316036
31	0x401dcfbd	2.4658043
32	0x4010e1e6	2.2637877
33	0x4025e590	2.5921364
34	0x401387c4	2.3051615
35	0xc03f0b9d	-2.9850838
36	0xc01376f3	-2.304135
37	0x4040e448	3.0139332
38	0x401b95aa	2.4310098
39	0xc05fb497	-3.4953973
40	0x3fd893e7	1.6920136
41	0xc010d0fb	-2.2627552
42	0x404890c9	3.133837
43	0x40198657	2.3988245
44	0xc009c099	-2.1523802
45	0x4031e22f	2.7794302
46	0x40259a2d	2.5875351
47	0x4045690a	3.084536
48	0x40259f7d	2.5878594
49	0x405ddc8d	3.4665864
50	0xc002532e	-2.036327
51	0xc03f3518	-2.9876156
52	0x4009e261	2.154442
53	0x3feeeeb1	1.8666593
54	0x4013568d	2.3021576
55	0xbfe979cb	-1.8240293
56	0x40348f57	2.8212488
57	0xc00f3f7a	-2.2382493
58	0x40001dc7	2.0018175
59	0xc02fef77	-2.7489908
60	0x4000f0ea	2.0147042
61	0x405ec9bf	3.4810636
62	0xc046d90e	-3.106998
63	0xbffed2f2	-1.9908125
64	0x402733b0	2.6125298
65	0x403b3ff7	2.925779
66	0x403fe761	2.9984972
67	0x3f8ee53d	1.1163708
68	0xbff5d7a4	-1.9206433
69	0xc0092d5e	-2.143394
70	0x403fcee9	2.9970038
71	0xc044c7e6	-3.0747008
72	0xc00332dc	-2.0499792
73	0xc07142d7	-3.7697046
74	0x40309e50	2.7596626
75	0x40644387	3.5666215
76	0xc03884d9	-2.8831084
77	0x403d5395	2.9582264
78	0x400f51a1	2.2393572
79	0x401d60ee	2.459041
80	0xc0282147	-2.627031
81	0x406db1ef	3.7139852
82	0xbfac4374	-1.3458085
83	0xc0223ff1	-2.5351527
84	0xc04681ce	-3.1016726
85	0x3fd8e4fe	1.6944883
86	0xc025570a	-2.5834374
87	0x40070199	2.1094725
88	0x403feeb1	2.9989436
89	0x4038870a	2.8832421
90	0xc052e64d	-3.2953064
91	0x3fcdd019	1.6079131
92	0xc02a9c89	-2.6658041
93	0x3fff6b2d	1.9954582
94	0xbfb15f18	-1.3857145
95	0x40105844	2.2553873
96	0x4011ede2	2.2801442
97	0x40107bd5	2.257558
98	0x404c9777	3.1967447
99	0xc005e6fe	-2.0922236
100	0xc0142111	-2.3145182
101	0x400792d0	2.1183357
102	0x404815f4	3.12634
103	0xc0069d54	-2.1033525
104	0xc03eca82	-2.98111
105	0xc01d3395	-2.4562733
106	0x3ebd32b2	0.3695274
107	0x40216bca	2.522204
108	0xc044360d	-3.065799
109	0x40233cb4	2.55058
110	0x402d4edc	2.7079382
111	0x4011c574	2.2776766
112	0x401ea623	2.4788902
113	0x4007c8ca	2.1216302
114	0xc03c62d7	-2.9435327
115	0xc0356002	-2.8339849
116	0x40076d1d	2.1160347
117	0x40491737	3.142042
118	0x4045bfe1	3.0898364
119	0xc011bf0e	-2.277286
120	0x400c3604	2.1907969
121	0xbfe071c7	-1.7534722
122	0x4034d7dd	2.8256752
123	0xc018eae2	-2.389336
124	0x4037442e	2.8635364
125	0x4034a16d	2.8223526
126	0xbfacb46c	-1.349256
127	0xc0204727	-2.5043428

fc2.bias f4 [2]
0	0xbea6243c	-0.3244952
1	0xbef44fe2	-0.47717196
