2_DDQN/ddqn/save_model/model.pth (torch_old, 2575 bytes, 4 tensors)

fc1.weight f4 [64, 4]
0	0xbf3b74d7	-0.7322516
1	0x3f235128	0.6379571
2	0x40c241e1	6.070542
3	0x3f3241cd	0.69631654
4	0xbf219f08	-0.6313329
5	0x3f6e2e75	0.9303964
6	0x407e5957	3.9742029
7	0x4004a870	2.0727806
8	0xbe8e5dd5	-0.27805963
9	0x3fb82cfc	1.4388728
10	0x406170fe	3.5225215
11	0x3fb02468	1.376111
12	0x3f5c6807	0.86096233
13	0xbfb942a1	-1.4473459
14	0xc0b4f5fc	-5.6550274
15	0xbf23f932	-0.64052117
16	0x3efb9965	0.49140468
17	0x3f3d2f28	0.7390008
18	0x408b7a10	4.35865
19	0x3f4f7047	0.81030697
20	0x3fa3f6cc	1.2809691
21	0xbf4aee5d	-0.79269964
22	0xc0cf3a0e	-6.4758368
23	0xbeabffd1	-0.3359361
24	0xbec06699	-0.37578276
25	0xbf778f59	-0.96703106
26	0xc09bd196	-4.869334
27	0xbf88cd31	-1.068762
28	0xbeaedecc	-0.34154356
29	0xbf354eb5	-0.7082322
30	0xc0ae5a14	-5.448496
31	0xbfc0dc69	-1.5067264
32	0x402bc2ee	2.6837726
33	0xbf19c103	-0.6006014
34	0xc059f117	-3.40534
35	0xbf266cd7	-0.65009826
36	0x3f04c437	0.518619
37	0xbfb58624	-1.4181561
38	0x3f83ab40	1.0286636
39	0xbee48c8a	-0.44638473
40	0xbebc0890	-0.36725283
41	0xbf9e1ca8	-1.2352495
42	0xc07a46fb	-3.9105823
43	0xbf8d8148	-1.1055079
44	0x3feea348	1.864358
45	0xbff74dd3	-1.9320625
46	0xbff078b1	-1.8786832
47	0xbf98e340	-1.1944351
48	0xbf1fd09a	-0.62427676
49	0xbf8daf4c	-1.1069121
50	0xc091e70e	-4.559455
51	0xbf8f10eb	-1.1177038
52	0xbe0e8746	-0.1391879
53	0x3fb4d760	1.4128227
54	0x4074f49a	3.8274293
55	0x3fa2f6ce	1.2731569
56	0xbfac1e13	-1.3446678
57	0x3f9bcf44	1.2172627
58	0x401d0145	2.4532025
59	0x3f78f914	0.97255063
60	0xbf152e8e	-0.5827416
61	0x3ef78f88	0.48351693
62	0x40415c5b	3.021262
63	0x3fab0288	1.3360147
64	0x3f4144b5	0.75495464
65	0xbf9c3db8	-1.2206335
66	0xc0941c8a	-4.628484
67	0xbffbbbc3	-1.9666675
68	0xbef06913	-0.46955165
69	0xbfdc5403	-1.7213138
70	0xc0414439	-3.019789
71	0xbfc065dc	-1.5031085
72	0x3f579d64	0.84224534
73	0xc00bbcf8	-2.1834087
74	0xc10d1483	-8.817508
75	0xc0361f96	-2.8456779
76	0x3f086def	0.53292745
77	0xbf23dbaf	-0.64007086
78	0xc03e2894	-2.9712267
79	0xbfb02060	-1.375988
80	0x3edcb5f5	0.43107572
81	0x3fd2d5b1	1.6471463
82	0x40238449	2.554949
83	0x3fc97306	1.5738227
84	0x3ee7ba4d	0.45259324
85	0x3f71fe47	0.9452862
86	0x40a1eb02	5.0599375
87	0x3f7c4b0d	0.9855202
88	0x3f1b541b	0.6067521
89	0xbf713487	-0.94220775
90	0xc0817d4e	-4.046546
91	0xbfe5c139	-1.7949592
92	0x4015376e	2.3315082
93	0xbf8fa91d	-1.1223484
94	0xbfecccde	-1.850002
95	0xbf5e739f	-0.86895174
96	0x3e631c19	0.22178687
97	0x3fabd058	1.3422956
98	0x407bc84c	3.9341002
99	0x3f9a49f2	1.2053816
100	0x3e602bef	0.2189176
101	0x3fa2c2c4	1.2715688
102	0x407acfa4	3.9189234
103	0x3faa6e79	1.3314964
104	0xbfaf3797	-1.368884
105	0x3f877ca1	1.0584909
106	0x40754eb1	3.832928
107	0x3f9e7c5e	1.2381704
108	0x3fed2ac2	1.8528674
109	0xbfb279eb	-1.3943456
110	0xbfda2eb6	-1.7045505
111	0xbf5de3a1	-0.8667546
112	0x3f0495d4	0.5179112
113	0x3f98f8b4	1.1950898
114	0x409ef6fc	4.9676495
115	0x3f8c9cf8	1.0985403
116	0xbf9d4abd	-1.2288433
117	0x3f9e8d05	1.2386786
118	0x4028b2ca	2.6359124
119	0x3f6e3d04	0.9306185
120	0xbfbdd947	-1.4831933
121	0x3f9e06eb	1.2345861
122	0x3f8bd5dc	1.092464
123	0x3f89c297	1.0762509
124	0xbe19ffb3	-0.15038948
125	0x3f8202a3	1.0157055
126	0x4083b1c7	4.1154513
127	0x3fc84151	1.5644933
128	0xbfab0689	-1.3361369
129	0xbe11c8bd	-0.14236732
130	0x4083bac1	4.116547
131	0x3f3b1795	0.7308286
132	0xbfbaab3e	-1.4583509
133	0xbe5c3440	-0.21504307
134	0x408a9553	4.330728
135	0x3ed22258	0.41041827
136	0x4003a293	2.0567977
137	0xbf8d4035	-1.103522
138	0xc03d947c	-2.9621878
139	0xbf48336c	-0.78203464
140	0x3ec363ad	0.38161984
141	0x3f82489e	1.0178411
142	0x409de24d	4.9338746
143	0x3fc2aa4a	1.5208218
144	0x3f13fc3b	0.5780675
145	0x3f54dc17	0.8314833
146	0x40af556a	5.4791765
147	0x3f57fe2a	0.843722
148	0xbfb23eb7	-1.3925389
149	0x3f96f5ac	1.1793723
150	0x401d3044	2.456071
151	0x3f6c0ad2	0.9220401
152	0xbef7b631	-0.4838119
153	0xbf5b0ea5	-0.8556922
154	0xc09709e4	-4.7199574
155	0xbf5c9e84	-0.86179376
156	0x3fd14d5e	1.6351736
157	0xbe85942f	-0.26089618
158	0xc0a65d8c	-5.1989193
159	0xbefbfa41	-0.49214366
160	0x3f9c8190	1.2227039
161	0x3d314764	0.043280974
162	0x40074561	2.1136096
163	0xbf00394a	-0.50087416
164	0x3f96fec0	1.1796494
165	0xbf61c373	-0.88188857
166	0xc066bd5e	-3.605308
167	0xbdb0da62	-0.08635403
168	0xbf056931	-0.52113634
169	0xbf9898cc	-1.192163
170	0xc0a671e4	-5.2014027
171	0xbf693f08	-0.91111803
172	0x3f82b8b5	1.0212618
173	0xbfbaf3d7	-1.4605664
174	0xbfeee608	-1.866395
175	0xbf932407	-1.149537
176	0x3e18a9da	0.14908543
177	0x3f642eec	0.891341
178	0x40315170	2.7705956
179	0x3f70efd7	0.94115967
180	0xbf3c6ad7	-0.73600525
181	0x3f627fde	0.8847636
182	0x4043ff3b	3.062453
183	0x3fed2464	1.852673
184	0x3ef8488e	0.48492855
185	0x3f9ad3a6	1.209584
186	0x40919c50	4.550331
187	0x3f66275a	0.89903796
188	0xc0146682	-2.3187566
189	0x3e793ee7	0.24340402
190	0xc0111ae0	-2.2672653
191	0xbf0829a0	-0.53188515
192	0xbf033a8d	-0.51261216
193	0xbf3915ca	-0.7229887
194	0xc08f2aee	-4.4739904
195	0xbf480ddc	-0.7814615
196	0xbfb3ccbe	-1.4046857
197	0x3fa69973	1.3015579
198	0x4013f87f	2.312042
199	0x3f708cbd	0.9396475
200	0xbe2a63a8	-0.16639578
201	0x3dad7caa	0.084710434
202	0x402b99c8	2.681261
203	0x3fdf4349	1.7442409
204	0xbec3a2aa	-0.3821004
205	0xbfa01fd1	-1.250971
206	0xc0888e46	-4.2673674
207	0xbfa3344d	-1.2750336
208	0x4015b853	2.3393753
209	0xbfa83884	-1.3142247
210	0xbf38cb08	-0.721848
211	0xbf386040	-0.72021866
212	0x3ffbc8eb	1.967069
213	0xbf1bff2e	-0.6093625
214	0xc09eb947	-4.960117
215	0xbf45b4d8	-0.7722907
216	0xbee4d6a1	-0.44695
217	0xbf7afa2b	-0.98037976
218	0xc092fa2e	-4.5930395
219	0xbf8211f1	-1.0161725
220	0xbff1d8ba	-1.8894265
221	0x3fe73bd7	1.8065137
222	0x4015f26d	2.3429215
223	0x3f87c298	1.060626
224	0xbef1fc75	-0.47262922
225	0xbf53fee7	-0.82810825
226	0xc09b77cc	-4.8583736
227	0xbf563ab5	-0.8368333
228	0xbf9664f5	-1.174956
229	0x3f440b9e	0.76580226
230	0x3fd97063	1.6987423
231	0x3f03e05d	0.51514226
232	0xbe71552b	-0.23567645
233	0x3fa3106d	1.2739388
234	0x40732a8e	3.7994723
235	0x3fd505b2	1.6642363
236	0xc0427470	-3.0383568
237	0x3f36c370	0.71391964
238	0x403b998b	2.9312465
239	0x3f4ca2ed	0.79936105
240	0xbef3a9bb	-0.47590432
241	0xbfcbb828	-1.5915575
242	0xc039c94b	-2.902911
243	0xbfb0f5c5	-1.3825003
244	0x3e844e2a	0.25840884
245	0x3f9810a3	1.1880077
246	0x40854654	4.164835
247	0x3fa8b424	1.3179975
248	0x3f06515e	0.52467906
249	0x3f9918c6	1.1960685
250	0x40a458cd	5.13584
251	0x3f6c80d9	0.92384106
252	0xc00abf4e	-2.1679263
253	0x3fcaa1a7	1.5830582
254	0x401c8ec6	2.4462142
255	0x3f6adb32	0.91740716

fc1.bias f4 [64]
0	0xc014c874	-2.3247347
1	0xbfb49f84	-1.411118
2	0x3e68e7ae	0.22744629
3	0x3f8e22ea	1.1104405
4	0xbf986a07	-1.1907357
5	0xbf27cd8a	-0.65548
6	0x3f5c0918	0.85951376
7	0x3d3f3dd3	0.04668982
8	0x3f2bc625	0.6709922
9	0x4021415b	2.519614
10	0x3faf81c4	1.3711476
11	0x3f869b68	1.0516176
12	0xbfc07820	-1.5036659
13	0x3f1cea48	0.61294985
14	0x40156b4d	2.3346741
15	0x3f7c2b11	0.98503214
16	0x3f685ef1	0.9076987
17	0x401eee0b	2.483279
18	0xc05afeee	-3.4218097
19	0xbf721cef	-0.945754
20	0xc01e7022	-2.475594
21	0xbf801e60	-1.000927
22	0xbff89525	-1.9420515
23	0x3ef3657f	0.47538373
24	0x3ec8198d	0.39081994
25	0x3fbbf447	1.4683923
26	0xc032ec6e	-2.7956805
27	0x3f5a9c5e	0.8539485
28	0xc001538d	-2.0207245
29	0x3ffe1f95	1.9853388
30	0x3eac876e	0.33697075
31	0x400210e2	2.0322804
32	0x3e97d23a	0.29652578
33	0x3ecf94ac	0.40543115
34	0x3f8f5e94	1.1200738
35	0xbe8eefda	-0.27917367
36	0xbff65aab	-1.924642
37	0x401d1ce4	2.4548883
38	0x3fafb436	1.3726871
39	0xbf050660	-0.5196285
40	0xbfc06b1b	-1.5032686
41	0xbfb83ad0	-1.4392948
42	0x3fe2b28f	1.7710742
43	0xbc9015e3	-0.017588561
44	0xbfd27d86	-1.6444557
45	0x3f9a3606	1.2047737
46	0x3f663d64	0.89937425
47	0x3f775d67	0.96626896
48	0x3f9b4b13	1.2132286
49	0x401b612e	2.4278064
50	0xbfe2da29	-1.7722827
51	0xbfded098	-1.7407408
52	0x3fbaaee7	1.4584626
53	0x3f9e79fb	1.2380975
54	0x3f9d0f83	1.2270359
55	0xbeec6a6c	-0.46174943
56	0x3f825943	1.018349
57	0xbfd89efa	-1.6923516
58	0x3facee4c	1.3510222
59	0xbf349038	-0.7053256
60	0x4011c0c9	2.2773917
61	0x3fe7f62d	1.8122002
62	0xbfda29d2	-1.7044013
63	0xbfb58828	-1.4182177

fc2.weight f4 [2, 64]
0	0x3fea3f07	1.8300484
1	0x4047f1c2	3.1241307
2	0x402b0ef9	2.6727889
3	0xc02d6964	-2.7095575
4	0xc052337b	-3.284392
5	0xc06e07cc	-3.719226
6	0x403e15ae	2.9700732
7	0x40440bbc	3.0632162
8	0x4038393b	2.878493
9	0x4066347c	3.5969534
10	0x40480192	3.1250958
11	0x401d9104	2.461976
12	0xc039e97e	-2.9048762
13	0x4048cd2c	3.1375227
14	0x409d105f	4.9082484
15	0x4016b372	2.3547025
16	0xc04c148b	-3.1887538
17	0x40392466	2.8928466
18	0x40b72d9c	5.7243176
19	0xc036a133	-2.8535888
20	0xc01ff301	-2.4992068
21	0xc0663144	-3.596757
22	0xc069f3a9	-3.6554968
23	0x403f520f	2.9893835
24	0x403ac475	2.9182408
25	0x40458fb7	3.0868967
26	0xc03d6353	-2.9591873
27	0x402729cb	2.6119258
28	0xc055d826	-3.3413177
29	0x408e2099	4.441479
30	0xbff31836	-1.8991764
31	0x405f3fc8	3.488268
32	0x406c3b70	3.6911278
33	0x405e603e	3.4746242
34	0x4023b4a6	2.557901
35	0xc05d6cc1	-3.4597628
36	0xc0445e07	-3.068239
37	0x40aae72b	5.3407187
38	0x406f2ab9	3.7369826
39	0xc0695dfa	-3.6463609
40	0x40774c32	3.8640256
41	0xc0527dbd	-3.2889245
42	0x40640a4a	3.563128
43	0x3fc90753	1.570536
44	0xc0280eb0	-2.6258965
45	0x40774dff	3.8641355
46	0x404a8cc9	3.1648428
47	0x4021e698	2.5296993
48	0x4054db80	3.3258972
49	0x40a92156	5.2853193
50	0xc006c2a4	-2.10563
51	0xc0584ca1	-3.379677
52	0x4042599a	3.0367188
53	0x402135c2	2.518906
54	0x4068996a	3.6343637
55	0xc029fcc1	-2.6560519
56	0x406ed010	3.7314491
57	0xc010b838	-2.2612438
58	0x404f77ff	3.241699
59	0xc0512c3f	-3.2683256
60	0x402c756f	2.6946676
61	0x406f4560	3.7386093
62	0xc06139c3	-3.5191505
63	0xc02f4853	-2.7387893
64	0x4090a135	4.5196786
65	0x4086150c	4.190069
66	0x407352b4	3.8019228
67	0xc08730e5	-4.2247186
68	0xc057fc75	-3.3747838
69	0xc03e06e0	-2.9691696
70	0x4047fe94	3.1249132
71	0x3fd60f59	1.6723434
72	0x401c2510	2.439762
73	0xbfd23506	-1.6422431
74	0x403f2f3a	2.9872575
75	0x404ef626	3.2337737
76	0xc041b3b9	-3.0265944
77	0x406d5877	3.7085245
78	0x40aa9c72	5.3315973
79	0x400f6419	2.2404845
80	0xc074c686	-3.824617
81	0x4058e19d	3.3887703
82	0xc02cb9b5	-2.6988347
83	0xc02cfdbb	-2.7029865
84	0xc05a7625	-3.413461
85	0xc035eb80	-2.8424988
86	0xc0268a05	-2.602174
87	0x401dd131	2.465893
88	0x4062571d	3.536567
89	0x4043d820	3.0600662
90	0xc02adda4	-2.6697779
91	0x403f622a	2.9903665
92	0xc07b0661	-3.9222643
93	0x409b6ad0	4.8567886
94	0xc012a35b	-2.2912204
95	0x40179063	2.3681877
96	0x404c1433	3.1887329
97	0x403c5cc8	2.943163
98	0x402c9557	2.696615
99	0xc00bf4de	-2.1868205
100	0xc07eb5d5	-3.9798481
101	0x40b13225	5.537371
102	0x407b460d	3.9261506
103	0xc0366dfb	-2.8504627
104	0x400c040f	2.1877477
105	0xc0457b79	-3.0856612
106	0x403c9765	2.9467404
107	0x4019db3a	2.4040055
108	0xc03ea60b	-2.9788845
109	0x4074f4a9	3.8274329
110	0x40446f95	3.0693104
111	0x40607452	3.5070996
112	0x404d02f9	3.2033064
113	0x40b441cf	5.6330333
114	0xc02f1167	-2.7354372
115	0xc0467867	-3.1010988
116	0x3ff67c51	1.9256688
117	0x40357219	2.835089
118	0x405fee86	3.4989333
119	0xc0440149	-3.0625784
120	0x403a402c	2.9101667
121	0xc00f7c25	-2.2419522
122	0x405e0883	3.4692695
123	0xc01c2f88	-2.440401
124	0x403d0d58	2.9539394
125	0x4043e391	3.0607646
126	0xc028ce0e	-2.6375766
127	0xc04e3c9a	-3.2224488

fc2.bias f4 [2]
0	0x3df6f8ad	0.1205915
1	0xbe926c25	-0.28598133
