6_SAC/sac/save_model/model.pth (torch_old, 19423 bytes, 6 tensors)

fc1.weight f4 [64, 3]
0	0xbeeb188c	-0.45917165
1	0xbd2d4d9e	-0.04231035
2	0x3edd6418	0.43240428
3	0xbf8f9096	-1.1215999
4	0x3e3fc498	0.18727338
5	0x3dccc4eb	0.099984966
6	0xbedc6590	-0.43046236
7	0x3f638872	0.88880074
8	0x3e7a6260	0.2445159
9	0xbe1e60a9	-0.1546656
10	0x3d827775	0.06370441
11	0x3e828027	0.25488397
12	0xbf8bcd59	-1.0922042
13	0xbee44caf	-0.44589755
14	0xbe82a796	-0.25518483
15	0x3ddbf0b0	0.10739267
16	0x3e23ef0c	0.16009158
17	0xbcc1e4e0	-0.023668706
18	0xbe66b78c	-0.22530955
19	0x3f2c08c7	0.67200893
20	0x3de5a7dd	0.11213658
21	0xbdef10bd	-0.116731144
22	0x3f03bab1	0.51456743
23	0xbb60ef1a	-0.0034322203
24	0xbf61907c	-0.8811109
25	0x3ed6186b	0.41815504
26	0x3e31e662	0.1737304
27	0xbf1de4d3	-0.61677283
28	0x3eeb404a	0.45947486
29	0x3e9070d4	0.2821108
30	0xbdf4ae36	-0.119472906
31	0x3f7f82af	0.9980878
32	0x3e6b7b76	0.22996315
33	0xbcd875b7	-0.026423318
34	0xbeb36a76	-0.3504216
35	0x3e5098d2	0.20370796
36	0x3ee89249	0.45424107
37	0x3f5bd037	0.85864586
38	0x3e57cea8	0.21074927
39	0xbf01039b	-0.50396127
40	0xbf926314	-1.1436486
41	0xbe2ea0a4	-0.17053467
42	0x3f2134c4	0.6297114
43	0xbf3cb0d0	-0.73707294
44	0x3e639320	0.22224092
45	0x3f688256	0.90823877
46	0xbec5c3a2	-0.38625818
47	0xbe9dd37a	-0.30825406
48	0xbeac9f43	-0.33715257
49	0x3edb598d	0.4284176
50	0xbc163b68	-0.009169437
51	0xbf86717e	-1.0503385
52	0x3e656af2	0.22404078
53	0x3d401cfd	0.046902645
54	0xbdb83810	-0.08995068
55	0x3f58db18	0.8470931
56	0x3cc37c4f	0.023862986
57	0x3e67d9d1	0.22641684
58	0x3fd21d25	1.6415144
59	0x3e8d11a7	0.2755253
60	0x3eb422ef	0.35182902
61	0xbf3e2e83	-0.7428972
62	0xbe20b4ad	-0.15693922
63	0x3d988eaa	0.07449086
64	0x3e8dfe6a	0.27733165
65	0x3dbdfd4e	0.0927683
66	0x3ec24415	0.37942567
67	0xbe8c0895	-0.27350298
68	0x3e146839	0.14492883
69	0xbf890ccc	-1.070703
70	0xbf624aad	-0.88395196
71	0xbdf3bdde	-0.11901449
72	0x3ebe337c	0.37148654
73	0xbdbf6f91	-0.093474515
74	0x3c8ea56d	0.017412866
75	0xbe6e8685	-0.23293503
76	0xbe42be7d	-0.19017978
77	0x3cc9261d	0.024554307
78	0x3f2a6ab4	0.66569066
79	0xbf84623a	-1.0342476
80	0xbe82d7aa	-0.25555164
81	0x3f6c3d84	0.92281365
82	0x3f83f4fc	1.0309138
83	0x3e99ecbc	0.30063426
84	0xbe8b8c90	-0.27255678
85	0xbda2a3c4	-0.07941392
86	0x3e55ee9d	0.20891805
87	0x3f4a9a7a	0.7914196
88	0x3f0abe53	0.5419666
89	0x3e6af552	0.22945145
90	0xbedf7b04	-0.4364854
91	0xbe806c35	-0.25082555
92	0x3eecee7f	0.46275708
93	0xbdbe0de0	-0.0927999
94	0x3e9735d3	0.29533252
95	0xbd22bcd4	-0.03973086
96	0x3f14cd5a	0.5812584
97	0xbee41799	-0.44549254
98	0x3ee5c7b5	0.44878927
99	0xbc1a1615	-0.009404679
100	0x3e6f6d00	0.23381424
101	0xbe5c1a15	-0.21494325
102	0xbed007f9	-0.40631083
103	0x3ef84d14	0.48496306
104	0xbe751e27	-0.23937283
105	0x3eb9cd87	0.36289617
106	0x3fc898d4	1.567164
107	0x3e9e26ef	0.3088908
108	0x3e92c882	0.286686
109	0xbfc2693e	-1.5188367
110	0xbea61ed3	-0.32445392
111	0x3ec7967d	0.38982
112	0xbf7e745b	-0.99396294
113	0xbe7116bf	-0.23543833
114	0xbea97e55	-0.33104196
115	0x3ccec205	0.025239
116	0xbeb38aad	-0.3506674
117	0x3e2cfdd4	0.16893703
118	0x3f4ecd68	0.80782175
119	0x3e34bb64	0.17649609
120	0xbe4ebadb	-0.20188467
121	0xbf9c6af9	-1.2220145
122	0xbe502707	-0.20327388
123	0x3c8be4a7	0.017076803
124	0x3f5c683e	0.8609656
125	0x3dfb93c5	0.12284044
126	0x3f28c5be	0.6592673
127	0x3de16400	0.110054016
128	0xbdf6c43a	-0.12049146
129	0xbebaf904	-0.3651811
130	0xbde891ee	-0.11355959
131	0x3cda024c	0.026612423
132	0xbf242765	-0.6412261
133	0xbf296cc2	-0.66181576
134	0xbe968d42	-0.29404646
135	0xbeb6ff8e	-0.35741848
136	0x3e3c8f99	0.18414153
137	0xbd71b393	-0.059009146
138	0x3e073891	0.13205172
139	0xbe62349e	-0.22090384
140	0x3dca6ee6	0.098844334
141	0xbed44a70	-0.4146304
142	0x3f8a7f4e	1.08201
143	0x3e2b6064	0.16735989
144	0xbee265b3	-0.44218215
145	0xbe84d7f0	-0.25945997
146	0x3d22209c	0.03958188
147	0xbd9d9da2	-0.07696082
148	0xbe5b3ed5	-0.21410687
149	0xb9db8f68	-0.0004187778
150	0x3e985ed6	0.29759854
151	0x3ea4e552	0.32206208
152	0x3c45ce61	0.01207313
153	0x3e371a4d	0.17881127
154	0xbfea0318	-1.8282194
155	0xbea08b8d	-0.3135647
156	0x3e248f8e	0.16070387
157	0x3f76c113	0.9638836
158	0x3e55d85c	0.20883316
159	0xbe8b5223	-0.27211103
160	0x3fbe47a2	1.4865611
161	0x3e90fb68	0.28316808
162	0xbed33931	-0.4125457
163	0x3e5c0614	0.21486694
164	0x3d003a47	0.031305578
165	0xbec6f7d0	-0.3886094
166	0xbe4259e1	-0.18979599
167	0x3e0b1009	0.13580336
168	0x3f0b6da2	0.5446416
169	0x3f91e5df	1.1398276
170	0x3e809e8b	0.2512096
171	0xbf0c52c9	-0.5481382
172	0x3eee26ac	0.4651388
173	0x3eda0c95	0.42587724
174	0x3e771e29	0.24132599
175	0xbd737e04	-0.05944635
176	0x3dbbf811	0.09178174
177	0xbf31e684	-0.69492364
178	0x3f39d68e	0.7259301
179	0x3e81de1e	0.25364774
180	0xbd95c822	-0.07313563
181	0xbeec76a0	-0.46184254
182	0xbe79830b	-0.24366395
183	0x3e8516b9	0.259939
184	0x3f9ce62a	1.225774
185	0x3e7491cf	0.23883747
186	0x3f0a51dc	0.5403116
187	0xbf90c59e	-1.1310308
188	0xbe94ea00	-0.29084778
189	0xbb9b8352	-0.004745879
190	0x3dea4c3b	0.11440321
191	0x3dfa5a97	0.1222431

fc1.bias f4 [64]
0	0xbdbe8e26	-0.093044564
1	0x3d031241	0.03199983
2	0x3e9fbd9e	0.31199354
3	0xbf4e687e	-0.8062819
4	0xbf46733a	-0.7751957
5	0xbeaaf3ea	-0.33389217
6	0x3e9c25e6	0.30497664
7	0xbe9945cc	-0.29936063
8	0x3ef0d1f6	0.47035187
9	0xbec85552	-0.39127594
10	0xbd654614	-0.055975035
11	0x3cd00ecb	0.025397679
12	0xbecfe517	-0.4060447
13	0x3e8998b8	0.26874328
14	0xbf10391f	-0.5633716
15	0xbf8fa481	-1.1222078
16	0x3d6cd0f9	0.05781648
17	0xbea8c10f	-0.32959792
18	0x3df35bce	0.11882745
19	0xbf010a1f	-0.5040607
20	0xbedf5905	-0.43622604
21	0xbe252c74	-0.16130239
22	0xbf9e31c0	-1.2358932
23	0xbf75276a	-0.95763266
24	0xbeefcfb7	-0.4683816
25	0xbf012612	-0.50448716
26	0xbe9a6740	-0.30156898
27	0xbf469ffc	-0.77587867
28	0xbf4b52ea	-0.7942339
29	0xbf2dd4c6	-0.6790279
30	0xbe86edec	-0.26353395
31	0xbece7674	-0.40324748
32	0xbed9973e	-0.424982
33	0xbe311222	-0.17292073
34	0xbf4e9cdd	-0.80708104
35	0xbe38c5ca	-0.180442
36	0xbe076e6d	-0.13225718
37	0xbeb06eae	-0.34459442
38	0xbee5c130	-0.44873953
39	0x3d3a64c4	0.045506254
40	0x3db38948	0.08766419
41	0xbdcb4966	-0.09926109
42	0x3d132912	0.03592784
43	0x3e0a3973	0.13498478
44	0xbeae628a	-0.34059554
45	0xbf604827	-0.87610096
46	0xbee35807	-0.44403097
47	0xbe2ddefd	-0.16979595
48	0xbe86fa67	-0.26362917
49	0xbe6e66a2	-0.23281339
50	0xbea45e5a	-0.32103235
51	0xbd5ae344	-0.053439394
52	0x3db28869	0.087174244
53	0x3e8b11ac	0.2716192
54	0x3e28d0e8	0.16485941
55	0xbe3c5ecc	-0.18395537
56	0xbeb20dff	-0.34776303
57	0xbe82e235	-0.25563207
58	0xbf2ba7bc	-0.6705282
59	0x3f10a16c	0.5649631
60	0xbf259614	-0.64682126
61	0x3d8757b6	0.066085264
62	0xbee1a308	-0.44069695
63	0x3da8d583	0.08243849

fc2.weight f4 [64, 64]
0	0xbb4c8ff5	-0.0031213735
1	0x3d626784	0.0552745
2	0xbb2163ad	-0.0024626062
3	0xbd23e791	-0.04001576
4	0xbdb924c1	-0.090402134
5	0xbdc5a8ee	-0.096513614
6	0x3d426e6a	0.04746858
7	0x3d2f91bf	0.042863604
8	0xbd26ae59	-0.040693615
9	0xbd92e333	-0.07172241
10	0x3dd02f18	0.101652324
11	0xbc76ae17	-0.015056155
12	0xbe133d55	-0.14378865
13	0xbd6a39bb	-0.057183962
14	0xbc81a04e	-0.01582351
15	0x3ce0083d	0.027347678
16	0xbc6d8759	-0.014497601
17	0x3e01de6b	0.12682502
18	0xbc785815	-0.015157719
19	0xbdc8ae67	-0.097988896
20	0xbe0b4e40	-0.13604069
21	0xbdde4c80	-0.10854435
22	0xbde5631a	-0.11200543
23	0xbc0efd62	-0.008727403
24	0x3d771c1c	0.06032954
25	0x3c8faad5	0.017537514
26	0xbdfa3d58	-0.12218732
27	0xbd9942d5	-0.0748345
28	0xbd986e1e	-0.07442878
29	0xbe1cf7eb	-0.15328948
30	0xbd9e7bee	-0.077384815
31	0x3d6b3fac	0.05743377
32	0xbc80dd21	-0.015730442
33	0x3d01cbe0	0.03168857
34	0x3db12e91	0.0865146
35	0xbcb7c928	-0.022434786
36	0xbe1e602b	-0.15466373
37	0x3d45b506	0.04826834
38	0xbcec57e1	-0.028850498
39	0xbe143684	-0.14473921
40	0xbdb4232c	-0.08795771
41	0xbe06866a	-0.13137212
42	0xbdcba457	-0.09943455
43	0x3cc33ad7	0.023831768
44	0xbe375161	-0.17902137
45	0x3c5f7379	0.013638371
46	0x3d20c032	0.03924579
47	0x3e01d1fb	0.12677757
48	0x3c94a6f9	0.018146025
49	0x3db319b1	0.087451346
50	0xbe7b9627	-0.24568997
51	0xbd8dc6f4	-0.06922713
52	0xbd488df1	-0.04896349
53	0x3d2d37f6	0.042289697
54	0x3d9287d2	0.07154812
55	0xbe06a566	-0.13149032
56	0xbbcd9975	-0.006274397
57	0xbdaaf8d6	-0.08348243
58	0xbc4e7897	-0.012601993
59	0xbd55d6c8	-0.052206784
60	0xbd405f95	-0.046966154
61	0x3d67be0c	0.056577727
62	0xbbdcffe7	-0.006744373
63	0xbe547edc	-0.20751518
64	0xbdc50d7f	-0.09621715
65	0xbe3605dd	-0.17775674
66	0x3d90fba3	0.07079246
67	0xbd0ff16a	-0.03514234
68	0x3d8daa0c	0.069171995
69	0xba5fe800	-0.00085413456
70	0x3cf17918	0.029476687
71	0xbe2eaae2	-0.17057374
72	0xbdd8e2cd	-0.10590134
73	0x3d3c231d	0.045931924
74	0xbd8ba373	-0.06818285
75	0xbdd32618	-0.1031
76	0x3d1f3181	0.03886557
77	0xbd5d9617	-0.054098215
78	0x3ceeed6b	0.029165944
79	0xbd277dd6	-0.04089149
80	0xbe2e0b09	-0.16996397
81	0xbd51e7de	-0.051246516
82	0xbe29562a	-0.16536775
83	0xbe013f34	-0.12621766
84	0x3ad7be74	0.0016459958
85	0xbd12a43b	-0.035801154
86	0xbe0bed80	-0.13664818
87	0x3d52bd3d	0.051450003
88	0xbc788090	-0.01516737
89	0xbd875297	-0.0660755
90	0xbe117f86	-0.14208803
91	0xbd444183	-0.04791404
92	0xbcec2b3a	-0.028829206
93	0xbda1f447	-0.0790792
94	0x3db156f7	0.08659165
95	0xbd349aac	-0.04409282
96	0xbd1f945e	-0.038959853
97	0xbd6f45ab	-0.05841605
98	0xbd900a47	-0.0703321
99	0xbde4d914	-0.11174217
100	0xbcf9937a	-0.03046583
101	0x3d203149	0.039109502
102	0xbd44c017	-0.048034754
103	0xbdc6efee	-0.09713732
104	0x3d863c7a	0.06554504
105	0xbd17a80b	-0.037025493
106	0x3d125b35	0.035731513
107	0xbe2caa9a	-0.16861954
108	0x3a4e2a31	0.00078645634
109	0x3d78da52	0.06075508
110	0xbd88800f	-0.0666505
111	0xbd4f6d18	-0.05064115
112	0x3b04bc26	0.0020253747
113	0xbd5635be	-0.052297346
114	0xbc2320ac	-0.00995652
115	0xbce13837	-0.027492626
116	0x3dcb4675	0.09925548
117	0xbdabb6a7	-0.083844475
118	0xbcba6f76	-0.022758227
119	0xbd85e418	-0.06537646
120	0x3da9ef6f	0.082976215
121	0x3d2de9ea	0.042459406
122	0xbd1b3959	-0.037896488
123	0xbd5abcbe	-0.053402655
124	0xbd2f3225	-0.04277243
125	0x3d1aeef9	0.03782556
126	0xbdfc322b	-0.12314256
127	0xbd0d809a	-0.034546472
128	0x3d216cdb	0.039410453
129	0x3d1d1df9	0.038358662
130	0x3d93eb9e	0.07222675
131	0xbde2f08e	-0.110810384
132	0xbd8998ed	-0.067186214
133	0x3cb3f768	0.021968558
134	0x3c8d97fd	0.017284388
135	0xbe28af9d	-0.16473241
136	0xbd141fd4	-0.036163166
137	0x3d9997d5	0.07499663
138	0xbe189a68	-0.14902651
139	0x3d024436	0.031803332
140	0x3c130c7b	0.008975144
141	0xbcc7b0ec	-0.024376355
142	0xbd44208e	-0.04788261
143	0xbd4568f3	-0.04819579
144	0xbdbc555f	-0.09195971
145	0xbde9d1ae	-0.11416946
146	0xbe14e820	-0.14541674
147	0x3cc9e792	0.024646554
148	0xbe211292	-0.1572974
149	0xbe349b80	-0.17637444
150	0xbd8c87db	-0.0686185
151	0xbd8d63f5	-0.06903831
152	0xbce53950	-0.02798143
153	0xbe0e71ef	-0.1391065
154	0x3ccb34bc	0.02480542
155	0x3d86d807	0.06584173
156	0xbd3004bd	-0.04297327
157	0x3d579a4a	0.052637376
158	0xbe12b95b	-0.1432852
159	0xbd99460d	-0.07484064
160	0xbde110c1	-0.10989524
161	0x3dc322fe	0.095281586
162	0xbdc77ab5	-0.097402014
163	0xbdb34af2	-0.08754529
164	0x3d4d6ceb	0.0501527
165	0xbd87adc9	-0.06624944
166	0x377ac000	1.4945865e-05
167	0xbd321ca6	-0.043484353
168	0x3d583cd1	0.052792374
169	0xbdb3e03a	-0.08783002
170	0xbe10b080	-0.1412983
171	0x3be1670d	0.0068787397
172	0xbc8c0e01	-0.017096521
173	0xbd5faa96	-0.054606043
174	0xbdbac271	-0.09119118
175	0x3d7e039b	0.062015157
176	0xbde04bda	-0.109519675
177	0xbd96a327	-0.073553376
178	0xbd895fd1	-0.06707729
179	0xbdf7dd77	-0.12102788
180	0xbd43d6c7	-0.04781225
181	0xbbd66a95	-0.0065434673
182	0xbdbed0e0	-0.093171835
183	0xbdfe29df	-0.1241033
184	0xbe05c0ff	-0.13061903
185	0xbe1e0375	-0.15431006
186	0x3d8ab9f5	0.0677375
187	0xbcafd278	-0.021462664
188	0xbd5f99e9	-0.05459014
189	0xbb1f50a8	-0.002430955
190	0x3d0130e7	0.031540778
191	0x3c962ad9	0.018330978
192	0xbc9b492d	-0.018955791
193	0x3d45d272	0.0482964
194	0x3e36f073	0.17865162
195	0xbd8bddc8	-0.06829411
196	0xbf9b9252	-1.2154028
197	0x3d9f0ea4	0.07766464
198	0x3b3fff70	0.002929654
199	0x3f0f62b5	0.5600999
200	0x3e25d132	0.16193083
201	0x3e329478	0.17439449
202	0x3e82798a	0.25483352
203	0xbd126157	-0.03573736
204	0x3e07501a	0.1321415
205	0x3db51c94	0.088433415
206	0xbea35c32	-0.31906277
207	0xbe1826f8	-0.14858615
208	0xbddec099	-0.10876579
209	0x3ca7b825	0.02047355
210	0x3e8b88bc	0.27252758
211	0x3ed9e0a2	0.42554194
212	0x3e5d12d1	0.21589209
213	0x3d78978b	0.060691398
214	0xbb4ad18d	-0.0030947656
215	0xbea64af1	-0.3247905
216	0xbc652808	-0.013986595
217	0xbd2fc1db	-0.042909484
218	0x3d03803c	0.032104716
219	0xbe1fa4b5	-0.15590174
220	0xbb78e713	-0.0037979528
221	0xbe3052e4	-0.1721912
222	0x3e1440cd	0.14477845
223	0xbedf7ec2	-0.43651396
224	0xbe3f03ea	-0.18653837
225	0xbf1d99c4	-0.6156275
226	0xbf1678d6	-0.5877813
227	0x3e71e30a	0.23621765
228	0x3df38533	0.1189064
229	0x3e75e6ab	0.24013774
230	0xbf4416e6	-0.7659744
231	0x3e6303b0	0.22169375
232	0x3e96822a	0.29396182
233	0x3e927575	0.28605238
234	0xbc953efc	-0.01821851
235	0xbdd203b2	-0.10254611
236	0xbf40db9e	-0.7533511
237	0xbdc351cb	-0.09537085
238	0x3dabddb6	0.083918974
239	0x3e5be0c5	0.21472462
240	0xbc12182d	-0.008916897
241	0x3e3cd1bc	0.18439382
242	0xbd908d29	-0.07058174
243	0x3ea22c50	0.31674433
244	0x3c891a2b	0.01673611
245	0x3eba08fd	0.36334983
246	0x3d9d9d25	0.076959886
247	0xbd7fbe1f	-0.062437173
248	0x3e2c9808	0.1685487
249	0x3e3b0311	0.18262888
250	0xbe714183	-0.23560147
251	0x3e6971f9	0.22797383
252	0xbe028338	-0.12745368
253	0x3e5e3190	0.21698594
254	0x3e189e5a	0.14904156
255	0x3dac064d	0.08399639

fc2.bias f4 [64]
0	0xbe601457	-0.21882759
1	0xbddf6566	-0.10908012
2	0xbcae40e2	-0.021271173
3	0x3d4d5e9a	0.050139047
4	0xbdfb8b95	-0.122824825
5	0x3e4290d4	0.1900056
6	0x3cc04a8d	0.023473049
7	0xbd4e6661	-0.050390605
8	0x3eed9e6f	0.46409938
9	0xbe4be89c	-0.19912952
10	0x3da8b20b	0.08237084
11	0x3b772fa5	0.0037717607
12	0x3e3a0bca	0.1816856
13	0xbdecfdb9	-0.11571831
14	0x3c7e51b2	0.015522407
15	0x3db043e2	0.086066976
16	0xbd1630d8	-0.036667675
17	0x3e27dbd1	0.16392447
18	0x3e38fac2	0.18064407
19	0x3da6589f	0.08122372
20	0x3d787640	0.060659647
21	0xbd5c955c	-0.053853378
22	0x3e910573	0.2832447
23	0x3d8ec170	0.06970489
24	0xbd39861c	-0.045293912
25	0x3e0450bd	0.12921424
26	0x3d9cbccf	0.076532
27	0xbd0b67f4	-0.034034684
28	0x3c583526	0.013196265
29	0xbd3b36f1	-0.045706693
30	0xbd8584bd	-0.065194584
31	0x3e6120c1	0.21985151
32	0xbd99f802	-0.07518007
33	0x3dcc77c2	0.099837795
34	0xbd38fcde	-0.045163028
35	0x3e4966d0	0.19668126
36	0xbd70ead3	-0.058817696
37	0xbcdad9e3	-0.026715225
38	0x3c95ddae	0.018294182
39	0xbd043202	-0.032274254
40	0xbd3a920d	-0.04554944
41	0x3e2d078c	0.1689741
42	0xbd8c05d3	-0.068370484
43	0xbd9e293d	-0.07722709
44	0xbdaf4360	-0.08557773
45	0x3e73aab6	0.2379559
46	0x3e0778bc	0.1322965
47	0x3d14facc	0.03637199
48	0x3cb7b587	0.022425426
49	0x3e3ab8d9	0.18234576
50	0x3e428dda	0.18999425
51	0x3e300bc1	0.17191984
52	0x3d720cbb	0.059094172
53	0x3c61bf3a	0.013778502
54	0x3e732249	0.23743547
55	0x3e5dbf99	0.2165512
56	0x3e0d744e	0.13813898
57	0xbded769b	-0.11594888
58	0x3d86e871	0.065873034
59	0x3e75c127	0.23999463
60	0xbdab0012	-0.08349623
61	0x3e5f45ed	0.21804018
62	0xbe04a189	-0.12952246
63	0x3d15dbf2	0.03658671

fc3.weight f4 [1, 64]
0	0x3da657a7	0.08122187
1	0x3cbcf861	0.023067655
2	0xbda58e7d	-0.08083818
3	0x3e620806	0.22073373
4	0xbc0d1212	-0.008610265
5	0xbf073b8d	-0.5282524
6	0x3d65ff09	0.056151424
7	0x3ce6288d	0.028095508
8	0x3f01516e	0.50514877
9	0x3d09e182	0.033662327
10	0xbea2baa6	-0.31783026
11	0x3e3f2dce	0.18669817
12	0x3de6d6f7	0.1127147
13	0x3c872916	0.016499083
14	0x3e95d94d	0.2926735
15	0xbefe5fa8	-0.49682355
16	0xbf74ee17	-0.95675796
17	0xbeb2c8da	-0.34918863
18	0x3f6d09bb	0.9259297
19	0x3e6e2067	0.23254548
20	0xbf657ae3	-0.89640635
21	0x3bf0a81f	0.0073442603
22	0x3d1b6499	0.037937734
23	0x3ed556c7	0.41667768
24	0x3c1a0088	0.009399541
25	0xbf0edb6b	-0.55803555
26	0xbd24e05d	-0.040253032
27	0xbef5a1f6	-0.4797513
28	0xbf10b00b	-0.5651862
29	0xbceee531	-0.029162021
30	0x3d1092f8	0.03529641
31	0x3f0242ad	0.5088299
32	0x3f898b73	1.0745682
33	0xbedf817c	-0.43653476
34	0x3ccc15c3	0.02491272
35	0x3ec5ccc5	0.3863279
36	0x3d88a88d	0.066727735
37	0xbc9ebea3	-0.019378012
38	0xbe3e2622	-0.18569234
39	0x3aa09ddb	0.0012254076
40	0x3d07dbd9	0.033168647
41	0xbe6a2ff0	-0.22869849
42	0x3f687201	0.90798956
43	0x3a45ab00	0.00075404346
44	0x3cd3cd41	0.025854709
45	0xbf177212	-0.5915843
46	0x3f8deb8f	1.1087512
47	0xbf35012b	-0.7070491
48	0xbf371be1	-0.71526915
49	0xbf9a4f11	-1.2055379
50	0x3ec6bd49	0.38816288
51	0xbe8bb25e	-0.2728452
52	0xbf079b95	-0.52971774
53	0xbef2abf7	-0.47396824
54	0xbd2eaede	-0.042647235
55	0xbef04702	-0.46929175
56	0xbef59579	-0.479656
57	0x3c9077fd	0.01763534
58	0xbe9d0b17	-0.30672523
59	0xbbbfd01d	-0.0058536665
60	0xbce6edb5	-0.02818952
61	0x3f815a43	1.0105671
62	0x3d02bead	0.031920124
63	0xbf0a51e6	-0.5403122

fc4.weight f4 [1, 64]
0	0x3d2151f9	0.039384816
1	0x3db34bb6	0.08754675
2	0xbbfb24a1	-0.0076642786
3	0x3bd3fc42	0.0064692805
4	0x3c2d425b	0.010574902
5	0xbd9ba719	-0.07600231
6	0x3d9855a3	0.07438209
7	0x3ca8163a	0.020518411
8	0xbe09e63b	-0.13466732
9	0xbccdf724	-0.02514226
10	0xbf161113	-0.58619803
11	0xbe853809	-0.26019314
12	0xbdc3b76b	-0.095564686
13	0x3cbfc1e3	0.023407882
14	0xbdc6d2b9	-0.09708161
15	0xbf0f6cd4	-0.56025434
16	0xbd8e056e	-0.069346294
17	0x3ed65647	0.418627
18	0x3e86ffa0	0.263669
19	0x3e151b55	0.14561208
20	0x3f2b0a35	0.6681245
21	0xbcb6f42e	-0.02233323
22	0xbdfe7272	-0.124241725
23	0xbe09322f	-0.1339805
24	0xbc5e8728	-0.013582028
25	0xbd8fe940	-0.07026911
26	0x3c9f94ef	0.019480197
27	0x3c26dcd2	0.010184484
28	0xbe175cc6	-0.14781484
29	0xbbcd5468	-0.0062661655
30	0x3ccde7ea	0.025135
31	0xbbf65599	-0.0075175283
32	0x3e267db4	0.1625889
33	0x3dfe3113	0.12411704
34	0x3c642de5	0.013926958
35	0x3e91aaaf	0.28450534
36	0x3dc0c513	0.09412589
37	0xbd4eca47	-0.050485875
38	0xbdee5e7d	-0.11639116
39	0xbd10674d	-0.035254765
40	0x3d3c7be7	0.0460166
41	0x3d0478c5	0.032341737
42	0xbdf7ad7e	-0.12093638
43	0xbc269338	-0.010166936
44	0x3d69f0b3	0.057114314
45	0x3c931cc2	0.017958049
46	0xbd9d2509	-0.076730795
47	0x3f1039b7	0.56338066
48	0x3e5c02ad	0.21485396
49	0x3e176cfd	0.1478767
50	0xbf51563b	-0.817722
51	0xbe4fc0e0	-0.2028842
52	0xbed899fb	-0.42304978
53	0xbe3cb50b	-0.18428437
54	0xbe93454f	-0.28763816
55	0x3d8341e6	0.064090535
56	0x3e4e187c	0.20126528
57	0x3cf289cc	0.029606722
58	0x3c91ef37	0.017814262
59	0xbf20257c	-0.62557197
60	0x3d475d2e	0.048672847
61	0xbe7d2345	-0.24720486
62	0xbda08aa6	-0.07838945
63	0x3dad3717	0.08457773
