3_A2C_DDPG/ddpg/save_model/model.pth.tar (torch_old, 18931 bytes, 5 tensors)

fc1.weight f4 [64, 3]
000000 38 75 12 be 17 98 17 bf 4a 82 a6 3e af 35 64 bf
       -0.14302528 -0.59216446 0.32521278 -0.89144415
000010 99 1f df 3e b6 1c ae be ec 11 c1 be 50 ae 7e bf
       0.43578795 -0.3400628 -0.37708986 -0.9948473
000020 46 09 aa be c8 28 12 3f e6 60 c3 3f d7 b0 9b 3e
       -0.332102 0.5709348 1.5263946 0.30408356
000030 8f a6 db 3e 25 d6 8f bf 43 99 08 bf 32 14 c5 3d
       0.42900512 -1.1237227 -0.5335886 0.096229926
000040 58 41 18 3e 1e 1f 47 bc 6e a4 ad be f7 1a 9e 3f
       0.14868677 -0.012153415 -0.33914512 1.2351979
000050 83 df 57 3d 39 a2 54 3f 64 c3 56 bf c6 4d 46 3d
       0.05270339 0.8306003 -0.8389189 0.048414014
000060 73 8f 22 bf d6 32 28 bf d5 9e 94 be b3 59 b9 bf
       -0.63500136 -0.6570257 -0.2902743 -1.4480499
000070 0e c1 34 3e f9 63 f5 3c 0c bb 1f bf 45 1c ab 3f
       0.1765177 0.029954897 -0.62394786 1.3368002
000080 39 3b 39 3e 22 8f 81 3f ba cf 89 bf 38 7f 40 be
       0.18088998 1.0121806 -1.0766518 -0.1879853
000090 9c 34 6c 3f 62 f7 87 3f 82 39 db 3e 90 b9 02 bf
       0.92267776 1.062237 0.42817312 -0.51064396
0000a0 93 37 9a bf 9b 53 02 bf 32 2a a0 3f 9d c3 8c bf
       -1.204821 -0.5090882 1.2512877 -1.0997196
0000b0 36 f4 33 be e0 7c 96 3f 02 eb 05 be ec ec 1f bf
       -0.17573628 1.1756859 -0.1307793 -0.6247089
0000c0 ec 92 87 be a7 98 2c bf 01 d5 b6 be c0 d3 de be
       -0.2647928 -0.6742043 -0.35709384 -0.43520927
0000d0 1d 70 09 3f c4 90 c0 bf c3 39 b4 bd 89 c5 45 3f
       0.53686696 -1.5044179 -0.0880008 0.7725454
0000e0 1a 9f fe bb 7f 4b 2a bf 72 76 d2 3f 63 fc 0d 3f
       -0.007770431 -0.6652145 1.6442397 0.55463237
0000f0 6d 40 5b 3f 37 51 4f be d9 a1 91 be f3 4c 5f 3e
       0.8564518 -0.20245825 -0.28443792 0.21806698
000100 bf dd 3c bf 04 7d 97 3c bc b4 63 3f 08 f5 46 be
       -0.7377586 0.01849223 0.88947654 -0.1942941
000110 75 69 c7 3e 28 96 37 be 4a 20 bd bf 90 56 5a be
       0.38947645 -0.17928374 -1.4775479 -0.21322083
000120 bd c1 b1 3f e0 63 75 3d a0 a4 2e 3e a6 0b 99 be
       1.3887249 0.0599097 0.17054987 -0.298917
000130 fb cb 8b be 74 c5 08 3f f5 b5 4a 3f 6c af 03 bf
       -0.27304062 0.5342629 0.79183894 -0.5143955
000140 e9 f6 aa 3e f0 c5 14 3f 7b 14 d4 3f af 83 0b 3f
       0.33391502 0.5811453 1.656875 0.5449781
000150 f2 5f 20 3d 86 f9 c9 3e f3 23 18 3f e2 77 83 3f
       0.039154 0.39448184 0.59429854 1.027096
000160 ac d3 be 3e 71 3c 5a 3e 49 17 12 bf 57 d6 9d bf
       0.37270868 0.21312119 -0.5706678 -1.2331036
000170 99 3b 07 3f 83 4d aa 3f 22 21 d5 be fc 69 50 3e
       0.52825314 1.3304905 -0.4162684 0.2035293
000180 7b a3 85 3f 1c 1f 6b 3e 1c 78 68 3e 79 b8 f8 bd
       1.0440515 0.22961086 0.22702068 -0.1214456
000190 0f 6a a0 3e 3d 78 25 bf 21 6f 1e 3f b7 ac df 3e
       0.31330916 -0.64636594 0.6188832 0.43686458
0001a0 2c de 1f bf 36 26 0e 3f 67 c4 11 40 fe 2c c6 3e
       -0.6244838 0.55527055 2.2776124 0.387062
0001b0 77 5b 8e 3d af e4 94 bf de d1 c3 be 32 6b af 3c
       0.06951039 -1.1632289 -0.38246053 0.02141342
0001c0 b8 b2 bb bf 04 b1 63 be 23 fb 85 bd 28 54 fa 3e
       -1.4663916 -0.22235495 -0.06542041 0.4889233
0001d0 0e cf 52 bd e1 a2 13 3f aa f4 7a 3f 83 64 34 3e
       -0.051466994 0.5767041 0.9802958 0.17616467
0001e0 87 bf 9e 3e 25 0a 7d bf 09 37 3f be 2f 60 9a be
       0.310055 -0.98843604 -0.18673338 -0.30151507
0001f0 7d a3 9b 3f 1e c5 9c 3e ed f6 36 3f 0d e9 62 3e
       1.2159268 0.30619138 0.7147053 0.22159214
000200 79 96 97 be 71 7c b8 be 2f b8 fa 3e 1a 33 d8 3d
       -0.2960699 -0.3603244 0.48968646 0.10556622
000210 4d cd 5e bf 8b 12 53 be d5 52 c4 be 58 fc a0 3f
       -0.87032014 -0.20612542 -0.38344446 1.2577009
000220 b6 95 4f 3e 74 cb 77 bd dd 97 da be 8a b0 a7 3f
       0.20271954 -0.060496762 -0.42693987 1.310075
000230 c9 28 94 3e 66 fc 2f bf c1 d2 b1 3f a6 77 eb 3d
       0.28937367 -0.68744504 1.3892442 0.114974305
000240 79 60 6a bf c7 79 a9 be a7 1b d9 3d 75 ed c9 be
       -0.91553456 -0.3310072 0.106009774 -0.39438978
000250 4c 04 86 bf fa 6c 95 be c5 3e dc 3f 06 a0 9f 3d
       -1.0470061 -0.29184705 1.7206656 0.07794194
000260 b8 11 3d 3e 84 20 29 3f a2 17 2e bf 44 00 9d be
       0.1846379 0.6606524 -0.6800481 -0.30664265
000270 e8 5d 09 3f ac 74 69 3f 0f e9 06 bf b1 ba 51 3e
       0.53658915 0.9119365 -0.5269937 0.20481373
000280 bb af 29 40 f6 b6 41 3f e2 dc 95 be 38 32 87 bf
       2.6513507 0.756698 -0.29270083 -1.05622
000290 79 4a 12 be 5b c3 ac be cf 27 19 bf d2 0b 8c 3d
       -0.14286222 -0.33742794 -0.5982637 0.06838192
0002a0 25 af eb 3e 0e 9e f4 3f 0f 35 b1 3e 48 2f 87 bf
       0.46032062 1.9110734 0.34610793 -1.0561304
0002b0 86 0d f8 bc 03 11 8a 3e a6 78 fc be e5 08 49 3f
       -0.030279886 0.26966104 -0.49310797 0.78529197
0002c0 a1 db d8 3e 06 25 57 bf b1 d2 51 3f d7 d5 c4 3e
       0.42355064 -0.8404087 0.81962115 0.38444397
0002d0 a9 39 6b 3f 21 38 0a 3f d6 32 da be 2f fd 97 be
       0.9188486 0.53991896 -0.4261691 -0.2968535
0002e0 1e b4 ac 3f 37 7a ff be 35 f3 be 3f 8a a6 f5 3d
       1.3492467 -0.4989793 1.4917971 0.119946554
0002f0 f3 a9 6d bd c4 a3 20 3f 64 f5 7a bf c3 b0 a6 bd
       -0.058023404 0.62749887 -0.98030686 -0.08139183

fc1.bias f4 [64]
000000 7c 18 29 bf aa a7 68 3e cc c3 e2 bd 4e 08 17 bf
       -0.66052985 0.22720209 -0.110725015 -0.58997047
000010 3e 10 b4 be 9a ce b0 be 6b c9 a3 3e 21 50 ea 3e
       -0.35168642 -0.34532624 0.31989607 0.45764259
000020 a0 f8 30 3e 33 66 32 3e c9 05 59 be 5b e3 52 be
       0.17282343 0.17421798 -0.21193613 -0.20594542
000030 b3 71 0a bd 15 a3 75 3d 37 d8 9c be c7 db 1d bf
       -0.03379984 0.05996998 -0.3063371 -0.6166348
000040 08 b4 70 3e 9f 5f da bd 5b f3 1b 3f 8e 52 84 3e
       0.23506176 -0.106627695 0.60918206 0.25844234
000050 7e 45 07 bf cd 73 de 3e 6d 06 8a bf 00 54 08 bf
       -0.5284041 0.43447724 -1.0783211 -0.53253174
000060 1a 8a 2b bf 14 be 26 3d 27 cf 8b bc a0 96 b2 be
       -0.670076 0.040708616 -0.017066551 -0.34880543
000070 16 84 ec be 38 57 b7 be 9a 20 ad be 0f 6c bd 3e
       -0.46194524 -0.3580873 -0.33813936 0.36996505
000080 95 33 b3 be 86 42 cb 3e 6d bc b9 be 68 42 29 be
       -0.3500029 0.3969919 -0.3627657 -0.16529238
000090 af e3 9a 3e a5 07 ab be 00 8d 83 bf 0e 27 28 3f
       0.30251834 -0.3340427 -1.0277405 0.6568459
0000a0 d8 2f 2f bf dd 00 f0 3e c4 3c 10 3f 6d 82 1b 3f
       -0.6843238 0.4687566 0.5634272 0.6074589
0000b0 8e f6 83 bf a3 16 22 bf 36 99 90 be 00 15 ba be
       -1.0309618 -0.6331579 -0.2824189 -0.36344147
0000c0 a9 d4 bd 3d 46 ab 48 be 7c 97 4d bf 83 7e 95 bf
       0.09269077 -0.19596586 -0.8030927 -1.1679233
0000d0 b5 70 d0 3e bc e0 5d be 86 26 60 bc 26 b4 d1 3e
       0.4071099 -0.2166776 -0.01368106 0.40957755
0000e0 38 c0 01 3e 4d eb 2b bf 21 d9 fb be a5 8b f7 bd
       0.12670982 -0.67155915 -0.49189094 -0.12087182
0000f0 0b 49 69 bf 2b bf 48 3f bf 03 2c bf d6 fc 44 3e
       -0.9112708 0.784167 -0.67193216 0.19237074

fc2.weight f4 [64, 64]
000000 ac 2b a7 be c2 09 a5 3b c1 ab 86 3e c6 34 e1 bd
       -0.32650506 0.0050365636 0.26302913 -0.10996394
000010 30 27 a5 3e ee a8 c5 bd d8 99 50 bd 90 4d 9c 3e
       0.3225646 -0.096513614 -0.050927967 0.30527925
000020 3e 13 11 3e d7 4a 2d 3c d1 89 94 bf b6 17 e5 bc
       0.14167497 0.010576925 -1.1604558 -0.027965408
000030 90 b8 54 3e 95 02 93 3e 3b 2c 5b be d9 b5 2d 3e
       0.2077353 0.28712907 -0.21403591 0.169639
000040 61 0c 11 3e d7 ea 56 3e 7d b1 6a bd bb 47 dc be
       0.14164878 0.20988022 -0.057298172 -0.43023476
000050 25 de 8c bd 9b cd 87 3e 4b d9 33 3c ad a8 4a 3d
       -0.06878308 0.26524052 0.0109771 0.049477268
000060 4e 94 61 be b3 4c fc 3e ff e4 96 be 73 3e 8a be
       -0.2202923 0.49277267 -0.29471585 -0.2700077
000070 5c 1a 8b bd 94 d3 b4 bd 61 5d 36 3d 5d 91 83 bd
       -0.06792137 -0.08829418 0.044522647 -0.0642421
000080 b5 fc 9f be 26 76 c2 3d 6a 1c 71 3e 88 0b 04 c0
       -0.31247488 0.09495191 0.23545995 -2.0632038
000090 77 51 c6 3d 17 16 7d 3e 5a 17 40 3d 6f 75 9e bf
       0.09683507 0.24715458 0.04689727 -1.2379588
0000a0 43 8e 3e 3d e7 7e 87 bf 00 ae bd be 2a bc 12 bf
       0.04652239 -1.0585603 -0.37046814 -0.57318366
0000b0 f9 1d a2 3d dd d6 68 3e e7 f9 0a bf ec 40 b4 be
       0.07915873 0.22738214 -0.5428757 -0.3520578
0000c0 d6 61 c6 3e a5 9e 9a 3e f1 b3 ca 3e b0 da a2 be
       0.38746518 0.3019916 0.3959041 -0.3180747
0000d0 27 de 60 bd 8d 4d a2 bf 9b cb 9e 3e 2e ae 3c 3d
       -0.05489936 -1.2679917 0.31014714 0.04606455
0000e0 8f d5 00 c0 76 ca f9 3e d0 c3 43 3e fe 0d 51 3e
       -2.0130346 0.48787278 0.19117665 0.20415494
0000f0 75 a8 27 3f 7b 60 23 3c 89 2a a0 3d c3 36 49 bd
       0.6549142 0.009971733 0.07820613 -0.04912449
000100 f4 a9 98 bd 5a 43 1a be f5 8a d4 3d 00 ef 7b bc
       -0.07454291 -0.15064755 0.103780665 -0.015376806
000110 39 42 b1 3d 00 e8 5f ba 8c 43 7a 3c d9 56 07 be
       0.08655209 -0.00085413456 0.0152748935 -0.13216724
000120 c5 fe 14 bd d4 87 9e 3d 24 b9 33 bd 2f 34 dd bd
       -0.03637578 0.07740751 -0.043877736 -0.10800969
000130 fc 33 e3 3c ed e9 95 bc 14 e0 8f 3b d5 1c c5 bc
       0.027734749 -0.018300021 0.004390726 -0.0240616
000140 61 d8 06 be 97 c4 4c bb 51 87 00 be 96 3b d8 bd
       -0.1316848 -0.0031245106 -0.12551619 -0.1055824
000150 48 0c 05 3d 0f f5 24 3b e8 72 bb bd 0e b6 6f 3d
       0.032482415 0.002517048 -0.09152776 0.05852323
000160 bf 35 fc bc cf a4 82 bd 35 0e 03 be 18 be 9d bc
       -0.030787347 -0.06379091 -0.12798388 -0.019255683
000170 20 5a 1b bc 29 c6 a5 bd 30 0b 12 3e ce c6 a1 bc
       -0.009481937 -0.08094437 0.1426208 -0.019748118
000180 4c dd 4c bd b3 ba 87 bd 2f e8 1f bd a7 fe f9 bd
       -0.050015733 -0.06627407 -0.039039787 -0.12206774
000190 3d 8b b4 ba ec 15 89 3d b4 db a2 bc a0 41 7b bd
       -0.0013774406 0.066936344 -0.019880153 -0.06134188
0001a0 63 26 e6 3d b8 7a bd bc 1b f6 5c 3d 97 a8 13 be
       0.112377904 -0.023129806 0.053945642 -0.1441978
0001b0 53 cb c5 3c b6 dc 90 3d e4 9f 40 bd 44 a6 09 bd
       0.024144804 0.07073347 -0.047027484 -0.03360583
0001c0 b5 bd 9f 3c 95 00 98 bd 0d 86 cf 3c bf c8 21 bc
       0.019499639 -0.07421986 0.025332475 -0.009874522
0001d0 93 45 ea 3d 76 f0 92 bd 79 ca a3 bc 9a 3d 62 bd
       0.114390515 -0.071747705 -0.019994007 -0.05523453
0001e0 3b 81 a8 3d 5e f1 9d 3d c0 f4 95 bc 70 ab c4 bc
       0.08227774 0.07712053 -0.018305182 -0.024007529
0001f0 1e 80 d8 bc f6 c8 fa 3c 00 2d c1 bd 4e 79 a0 bc
       -0.026428279 0.030613404 -0.09432411 -0.019589093
000200 86 9b 8b 3d 04 7a 0d 3d 2e 44 8d 3d a4 18 e5 bd
       0.06816773 0.03454019 0.0689777 -0.111863405
000210 60 7b 2c bd 68 f7 b3 3c 5a d8 74 3c a7 03 10 be
       -0.042109847 0.021968558 0.01494416 -0.14063893
000220 ba 95 27 bd 95 a4 91 3d 89 d2 1b be 48 9f ae 3d
       -0.040914275 0.0711147 -0.15217032 0.08526474
000230 ff 49 2a 3c b8 74 9c bc 73 08 11 bd c0 ec 10 bc
       0.010393619 -0.019098625 -0.03540845 -0.008845508
000240 e9 81 be bd a4 2c f2 bd 80 6a 0f be 7d 2a b5 3c
       -0.09302122 -0.11824921 -0.1400547 0.022114987
000250 64 d5 d9 bd 37 1f 06 be 62 5f 93 bd eb ac 21 bd
       -0.10636404 -0.13097845 -0.07195927 -0.039471548
000260 50 39 e5 bc 55 bf 11 be f2 70 9f 3d 74 b2 86 3d
       -0.02798143 -0.14233144 0.077852145 0.06577006
000270 06 9b 70 bc 54 d9 71 3d db 72 ee bd bb 32 3b bd
       -0.014685398 0.05904515 -0.11643001 -0.045702677
000280 1e ec e1 bd 8b 98 89 3d a4 f8 86 bd ad 07 6a bd
       -0.11031364 0.067185484 -0.06590393 -0.057136226
000290 c5 34 9c 3d 82 4c 36 bc 00 c0 7a 37 14 fd 3b bd
       0.076272525 -0.011126639 1.4945865e-05 -0.04589565
0002a0 9c 1a c4 3d 2c b3 ba bd a0 f3 f9 bd 67 0c 15 3c
       0.09575388 -0.091162056 -0.12204671 0.009097195
0002b0 c0 ad 89 bc 40 86 18 bc a6 50 b5 bd f1 e3 77 3d
       -0.016806483 -0.009309351 -0.08853273 0.060520116
0002c0 b5 3a e0 bd 23 87 eb bd 09 28 5e bd 3b b1 7c bd
       -0.109486975 -0.11500385 -0.0542374 -0.061692458
0002d0 a1 74 41 bd f5 4e ba 3c d5 72 bc bd e6 1c f9 bd
       -0.047230367 0.022742728 -0.0920159 -0.12163715
0002e0 ed aa fa bd ab fa 00 be 72 38 86 3d cc e5 c9 bc
       -0.12239633 -0.12595622 0.06553735 -0.024645709
0002f0 e0 4e 36 bc 40 85 86 bb af ca b8 3d 58 e4 90 3d
       -0.011127204 -0.00410524 0.09023034 0.07074803
000300 d9 52 d2 be 49 78 17 3f f2 6c e4 be 02 67 2b 3e
       -0.41078833 0.59167916 -0.4461437 0.16738513
000310 1e b8 c4 bf a4 0e 9f 3d 64 86 0c 3e 07 50 25 c0
       -1.5368688 0.07766464 0.13723141 -2.5830095
000320 8d 26 36 bc a6 bf be be 56 df 91 3e 2a 8a bc 3a
       -0.01111759 -0.3725559 0.28490704 0.0014384438
000330 d0 55 78 be f4 f4 a9 bf 13 ae da be c5 09 ad bf
       -0.24251485 -1.3277879 -0.42710933 -1.3518606
000340 80 65 fd 3d ff 76 10 3e 88 e5 52 3e 97 7f 91 3e
       0.12372875 0.14107893 0.20595372 0.28417656
000350 63 62 91 bf e2 62 44 bf da 5e 5b 3f 65 3f 0b bd
       -1.135815 -0.76713383 0.85691607 -0.033996005
000360 cf d0 a8 3e 12 47 53 bf af 17 73 3e e4 e3 82 bd
       0.32971808 -0.8253032 0.23739503 -0.06391123
000370 a3 54 bc bc 1c df 00 bd 27 41 89 3d 3e e5 01 3f
       -0.022989577 -0.031462774 0.0670188 0.5074042
000380 f6 50 4e bd fe 67 ca 3e 90 fa d3 be 59 df 64 3e
       -0.05037018 0.39532465 -0.41402102 0.22350825
000390 88 85 01 bf d8 73 82 bd 08 8f a1 be bd 8d 70 3e
       -0.5059438 -0.06369752 -0.31554437 0.23491569
0003a0 10 51 2b bd 09 32 28 3e 69 5d a7 be 2c d1 8d 3d
       -0.041825354 0.16425337 -0.32688454 0.06924662
0003b0 23 6f b5 be 61 b3 f4 bf e5 41 0a bd 2d 86 44 3e
       -0.35436353 -1.9117242 -0.03375425 0.19191809
0003c0 1b de 2a be c9 b2 21 c0 65 ba 13 c0 a0 b6 11 3e
       -0.16686289 -2.5265372 -2.3082516 0.14229822
0003d0 26 f0 27 3e b8 84 6c 3e a0 57 22 c0 1a c3 79 3d
       0.16400203 0.23097503 -2.5365982 0.06097708
0003e0 37 dc b5 3d ee 09 8f be 96 2b 14 be 99 15 06 bd
       0.08879893 -0.27937263 -0.14469752 -0.03273544
0003f0 5b 6a 07 bf ac f5 af 3e b5 de 51 c0 c7 cf ad 3e
       -0.5289666 0.3436712 -3.279218 0.33947584

fc2.bias f4 [64]
000000 e8 f0 1d be 99 a7 3d bd 90 9b a0 bb eb 0f cd 3c
       -0.1542393 -0.04630241 -0.004901357 0.025032004
000010 a3 ae fa bd 61 b2 90 bb 58 7e 75 3d 6a 8b 77 be
       -0.122403406 -0.0044157957 0.059934944 -0.24174276
000020 fb 88 71 3e 35 80 54 3d 93 f0 40 bd 5a a6 80 bd
       0.2358741 0.05188008 -0.04710443 -0.06281729
000030 5e 28 05 3e fd 18 03 be 8c ab 2a bd 1c c5 78 bd
       0.1300368 -0.12802501 -0.041667506 -0.060734853
000040 ec 55 00 be 85 75 95 bd 30 f6 95 3d 44 bd 63 bd
       -0.12532777 -0.07297806 0.07322347 -0.05560042
000050 d7 41 86 3c 5c 31 98 bd 3f 49 e9 3c e7 b3 5e 3d
       0.016388817 -0.074312896 0.02847731 0.054370787
000060 75 28 5c 3e c9 8b 09 be 3f 5e 68 bd df 56 b9 bd
       0.21499808 -0.1343223 -0.056730505 -0.090497725
000070 5c a0 2e 3e f2 14 a1 bc e6 aa 6c bd f3 52 9b 3e
       0.1705336 -0.019663308 -0.05778017 0.30336723
000080 ab 52 5a be ec 69 71 3d 3e 5c 45 3d 16 1b ad bb
       -0.21320598 0.058938906 0.048183672 -0.00528277
000090 ac a5 5b bc d0 34 65 bc 46 16 b1 3c 38 92 24 3e
       -0.0134061985 -0.013989642 0.021617066 0.16071403
0000a0 15 db 84 bd 9b 9b c3 3e 49 51 ba bd 75 24 94 bd
       -0.06487099 0.38204655 -0.09097535 -0.07233516
0000b0 1f 2d fa 3d ec de b1 3e c4 e3 91 bd 95 ee 91 be
       0.122156374 0.34740388 -0.07123521 -0.28502336
0000c0 93 36 15 bd 14 08 c0 3c 65 32 5f 3e ea 6b 0c bd
       -0.036429 0.023441352 0.21796568 -0.034282602
0000d0 f9 9a e0 3d b6 49 d2 3d dc b7 8d 3c 50 94 d8 3e
       0.10967059 0.102679655 0.017299585 0.42300653
0000e0 d6 94 92 bd 8f be be bd 3d 86 01 3e 3c 39 86 3d
       -0.071572945 -0.0931369 0.12648864 0.06553885
0000f0 5f cf 95 be f0 2a 96 bd 56 84 03 be 02 12 1c 3e
       -0.29259774 -0.073324084 -0.12843451 0.15241244

fc3.weight f4 [1, 64]
000000 89 aa 01 3f 86 36 d4 3c 59 59 73 bd 1f 91 d4 3f
       0.5065084 0.025904905 -0.05941138 1.6606787
000010 32 e1 e8 bb 74 09 8e 3f a4 d4 66 3d cf 65 5a bf
       -0.0071069235 1.1096635 0.056355134 -0.853116
000020 14 35 99 3f f6 c8 4a 3f 58 48 9c bf 16 b0 72 3c
       1.1969323 0.7921289 -1.2209578 0.01481249
000030 9c 08 e2 be f6 b5 ec bb c8 79 53 be 9d ef d5 be
       -0.44147193 -0.00722384 -0.20651925 -0.41784373
000040 d4 50 e1 be 56 62 64 bf 4d b6 88 3d 52 82 84 3f
       -0.4400698 -0.8921255 0.06675396 1.0352271
000050 93 69 18 bf bb 7a 0c bc 5b cd 17 bd d2 9b 02 3f
       -0.59536093 -0.008574183 -0.037061077 0.5101901
000060 af f2 1a be d8 85 0a bf b0 fa b3 be 54 93 39 bc
       -0.15131639 -0.5411048 -0.35152197 -0.01132663
000070 96 57 8a be e7 8b 3b bc 41 0c 0a bc 9b 3f 1e bf
       -0.27019948 -0.01144693 -0.008425773 -0.61815804
000080 b7 83 8b 3e b6 69 97 bd 37 47 98 3d e1 38 00 3f
       0.27248928 -0.0739321 0.07435458 0.5008679
000090 ee e3 8b 3d 92 9a 06 bf 7f 97 d2 be 97 3c 2e 3f
       0.068305835 -0.52579606 -0.41131207 0.680612
0000a0 35 01 f4 3e 64 a7 e6 be 15 63 f7 3f a6 f2 a8 bc
       0.4765717 -0.45049584 1.9327112 -0.020623516
0000b0 07 49 62 3e b5 81 67 bf 27 86 8e 3d ac e7 34 bf
       0.2209817 -0.9043229 0.06959181 -0.70666003
0000c0 f2 6e 9c 3e 52 74 cc bf 7b ad 24 3f 1e 61 ac 3f
       0.30553395 -1.5972998 0.6432721 1.3467138
0000d0 28 a1 f9 3d 0e 41 e7 bd 1f 3b 82 3f e7 fd 06 bf
       0.12188941 -0.11291705 1.0174292 -0.52731174
0000e0 16 15 8c bd bc 91 e7 3d 1f e0 9b bf f9 2a 1d be
       -0.06839959 0.113070935 -1.2177771 -0.15348424
0000f0 d0 57 8e be 57 af f5 3c 29 c5 15 3d 6c 3c a1 be
       -0.2780137 0.029990835 0.03656498 -0.3149141
