3_A2C_DDPG/ddpg/save_model/model.pth.tar (torch_old, 69620 bytes, 5 tensors)

fc1.weight f4 [128, 3]
0.002147486 -0.63940585 0.4089995 -0.33237216 0.45171145 0.0046546785 -0.52527773 0.56436706
0.3287325 0.28991592 0.07128965 0.5326688 -0.34359926 -0.4472417 -0.6079017 0.33321348
0.08692007 -0.61630386 0.11850267 0.5196443 0.16201237 0.50064677 0.0856214 -0.36990327
-0.7370854 0.23313904 0.2107476 -0.4751834 -0.10599357 0.4763703 -0.47001204 0.5606392
0.33094683 0.39305925 -0.7767945 0.35904816 0.66671777 0.10692662 -0.034420054 -0.7491188
-0.27713537 -0.043121416 0.0076444373 -0.7205762 0.32108825 0.46678716 0.3873961 -0.5020352
-0.12065558 0.0143599305 -0.4572253 -0.058306582 0.5229747 -0.5391995 0.1245917 0.519155
-0.30161965 -0.17150769 0.51082754 0.59522414 0.35893616 0.032732368 -0.35152054 0.038630296
-0.074069165 0.057195615 0.316094 -0.5308715 0.4340633 -0.4268417 -0.6134511 -0.49142691
0.61431044 -0.29580632 -0.19474742 -0.3140962 -0.5257558 0.32887772 0.85174596 -0.53410596
-0.23137994 0.25059783 0.323303 0.5180987 -0.25156227 -0.3168059 0.5314864 0.70468384
-0.09174464 0.051782772 -0.7666674 -0.36998993 0.55146945 0.5662837 0.49416685 -0.40326104
0.64376265 -0.46616036 0.4548851 -0.026515475 0.36605346 -0.2196788 0.288736 0.5399024
-0.57056814 0.4202316 0.90932864 0.20572282 0.43746638 -0.37211975 -0.48308945 -0.18238378
-0.39249423 -0.5703248 0.13101487 0.27711836 -0.7173819 0.77743685 0.10953996 0.26912805
-0.16204503 -0.42397228 -0.08022601 -0.19574022 0.46183553 0.5363618 0.61604804 -0.053238537
-0.27172738 -0.2908111 -0.20997855 0.52561396 0.19139485 0.15989986 -0.7725871 0.34029236
0.07824878 -0.5820378 -0.26392257 -0.11513587 0.4565263 -0.1135311 0.4597565 0.19965503
0.095125414 -0.52467495 0.40302154 -0.31039578 0.099653296 0.19363551 0.23918377 0.5826762
-0.3013217 0.18597935 -0.8317276 -0.23254739 0.25523373 0.6289748 -0.26394755 -0.0864558
1.2474985 0.24698254 -0.30940446 0.35612386 0.34008086 -0.39742568 -0.10750755 0.46167687
-0.19884159 0.7159551 0.24819721 -0.7140453 0.27747902 0.49262938 0.15545864 -0.098923795
0.51383215 -0.5661308 0.4900992 0.45048818 0.26967394 0.12540388 -0.6520684 0.79898816
0.81201196 0.14404996 0.62256277 -0.115294226 -0.5265587 -0.038590014 -0.796387 0.18309207
-0.55027497 0.6492344 0.224907 -0.27432123 -0.6507134 -0.3464211 0.40830392 0.8654567
0.3706798 -0.13779378 0.10849107 0.5771014 0.14722906 -0.05655405 -0.3500416 -0.59140736
0.75287277 -0.34284887 0.328136 -0.9558599 0.077717446 0.5417399 -0.9671401 -0.34489048
-0.6459932 0.119554594 0.17180671 -0.7190797 -0.5447097 -0.25157297 -0.2175608 0.71181375
-0.3172014 -0.057093482 -0.5230224 0.14771873 -0.010821802 -0.3807132 -0.53675467 0.5631257
0.5584334 0.36339703 0.68566 0.27678236 -0.4814824 -0.29899463 0.25762042 -0.30354637
0.34159294 -0.11644499 0.0482108 -0.51500535 0.7437502 0.21147133 0.70265085 0.05303788
-0.3154254 -0.23663835 -0.045055136 0.37873968 -0.7824965 0.6912876 -0.122043625 0.017167952
00000000: d6bc 0c3b 1ab0 23bf 6268 d13e af2c aabe
00000010: b946 e73e 4686 983b 9a78 06bf 5c7a 103f
00000020: a04f a83e dc6f 943e 4f00 923d fc5c 083f
00000030: 3eec afbe ddfc e4be 729f 1bbf f59a aa3e
00000040: 2603 b23d 17c6 1dbf 87b1 f23d 6907 053f
00000050: 92e6 253e 632a 003f 465a af3d f663 bdbe
00000060: a1b1 3cbf 00bc 6e3e 38ce 573e 3d4b f3be
00000070: 2813 d9bd cfe6 f33e 6ba5 f0be 0d86 0f3f
00000080: dd71 a93e 103f c93e 01dc 46bf 29d5 b73e
00000090: 04ae 2a3f 58fc da3d 0bfc 0cbd 40c6 3fbf
000000a0: b0e4 8dbe 15a0 30bd 307e fa3b af77 38bf
000000b0: ae65 a43e bafe ee3e c858 c63e 6185 00bf
000000c0: 461a f7bd ea45 6b3c 6f19 eabe e2d2 6ebd
000000d0: ace1 053f fa08 0abf ef29 ff3d 58e7 043f
000000e0: e46d 9abe b69f 2fbe 98c5 023f 9c60 183f
000000f0: 7bc6 b73e 6012 063d 80fa b3be cd3a 1e3d
00000100: 93b1 97bd f345 6a3d 13d7 a13e 32e7 07bf
00000110: 8b3d de3e ff8a dabe 220b 1dbf 4f9c fbbe
00000120: 7343 1d3f ed73 97be de6b 47be 38d1 a0be
00000130: ef97 06bf a962 a83e 060c 5a3f 2bbb 08bf
00000140: ddee 6cbe 5c4e 803e f987 a53e 1ea2 043f
00000150: c5cc 80be 6234 a2be 7e0f 083f 2966 343f
00000160: 9de4 bbbd 2c1a 543d 5144 44bf 526f bdbe
00000170: 1a2d 0d3f f8f7 103f 7003 fd3e 3b78 cebe
00000180: a1cd 243f 92ac eebe b3e6 e83e fb36 d9bc
00000190: 5c6b bb3e 7bf3 60be 34d5 933e 0b37 0a3f
000001a0: c110 12bf 9928 d73e c3c9 683f 01a9 523e
000001b0: 98fb df3e 7b86 bebe 8057 f7be d0c2 3abe
000001c0: 01f5 c8be ce00 12bf c328 063e 75e2 8d3e
000001d0: 57a6 37bf 1a06 473f 7d56 e03d 27cb 893e
000001e0: 22ef 25be e512 d9be 894d a4bd 2070 48be
000001f0: b575 ec3e 024f 093f 53b5 1d3f a710 5abd
00000200: da1f 8bbe 31e5 94be 9e04 57be a38e 063f
00000210: 03fd 433e cabc 233e 45c8 45bf cd3a ae3e
00000220: e540 a03d 6e00 15bf dc20 87be 5bcc ebbd
00000230: d1bd e93e fe82 e8bd 3465 eb3e 5e72 4c3e
00000240: 1dd1 c23d 1951 06bf d758 ce3e 32ec 9ebe
00000250: 0717 cc3d 6348 463e 97ec 743e 442a 153f
00000260: d646 9abe 5f71 3e3e 1aec 54bf e720 6ebe
00000270: ffad 823e 7e04 213f 2224 87be bd0f b1bd
00000280: 08ae 9f3f fee8 7c3e 436a 9ebe de55 b63e
00000290: 141f ae3e 617b cbbe eb2c dcbd e960 ec3e
000002a0: 219d 4bbe d548 373f 6927 7e3e accb 36bf
000002b0: bb11 8e3e eb39 fc3e 8d30 1f3e 8f98 cabd
000002c0: 818a 033f f3ed 10bf 48ee fa3e 63a6 e63e
000002d0: b412 8a3e e069 003e f4ed 26bf 7d8a 4c3f
000002e0: 04e0 4f3f d581 133e 4660 1f3f 611f ecbd
000002f0: 8dcc 06bf 9010 1ebd 05e0 4bbf 7d7c 3b3e
00000300: d2de 0cbf 3a34 263f 054e 663e d573 8cbe
00000310: 2795 26bf 1b5e b1be 360d d13e 928e 5d3f
00000320: bec9 bd3e d019 0dbe 9130 de3d ebbc 133f
00000330: 37c3 163e 38a5 67bd a738 b3be 7966 17bf
00000340: 45bc 403f e389 afbe 7101 a83e 3cb3 74bf
00000350: 532a 9f3d 77af 0a3f 7e96 77bf 7c95 b0be
00000360: cf5f 25bf 0ad9 f43d 19ee 2f3e 9b15 38bf
00000370: 1872 0bbf 2cce 80be 42c8 5ebe 6d39 363f
00000380: 3968 a2be dbda 69bd cce4 05bf 9443 173e
00000390: ed4d 31bc d7ec c2be c168 09bf 0229 103f
000003a0: 7ef5 0e3f 2d0f ba3e 6a87 2f3f 6bb6 8d3e
000003b0: dc84 f6be d315 99be d3e6 833e 6e6a 9bbe
000003c0: 45e5 ae3e b67a eebd b078 453d 64d7 03bf
000003d0: 6a66 3e3f f18b 583e ede0 333f 403e 593d
000003e0: 707f a1be 5351 72be bc8b 38bd 2bea c13e
000003f0: b151 48bf 39f8 303f 02f2 f9bd cea3 8c3c

fc1.bias f4 [128]
0.51114243 0.40598705 0.6409151 -0.2907554 -0.27454862 0.00039211538 0.44365898 -0.47897044
0.06718273 0.54740584 -0.19104286 0.6347678 0.35427615 -0.024325917 0.16159767 -0.05537146
-0.32901764 -0.4106553 -0.45544806 0.4010927 -0.47813827 -0.52232265 -0.10497124 -0.3176468
0.07175139 -0.41875932 0.23872223 0.642384 0.19521037 0.5090905 -0.12717739 0.043665636
-0.18673842 0.55176556 -0.26126018 -0.25542638 0.47418746 -0.19602948 -0.20665336 -0.19285505
0.41665122 0.1940263 -0.19977161 0.36714432 -0.19745535 0.022760361 0.05995797 0.6207338
-0.025070203 -0.18177441 0.1112635 -0.4900775 0.2579012 0.29975924 0.048930783 -0.06375462
-0.3337026 -0.26039755 0.49881738 0.016764402 -0.07366138 0.14162381 0.37896433 0.43944398
-0.35667855 -0.19412507 0.12521149 0.40980104 -0.63727206 0.23280959 -0.29503244 0.513327
0.1319461 0.41603813 0.41934392 0.4146539 0.0409821 -0.42450032 -0.4698155 -0.06746492
0.38271475 0.6404371 -0.29734427 0.5398088 0.049650546 0.39453304 0.07058777 0.6475759
0.07830942 -0.08028342 -0.09820968 -0.42456868 0.22362879 0.10797392 0.52500224 0.6885642
-0.047378857 0.57093054 0.18259719 0.067933224 -0.07539128 0.3270475 -0.109646775 0.3920391
0.43137035 0.2719674 0.58847165 -0.1802731 0.26705304 0.31328577 0.11326759 -0.28874668
-0.42966098 0.12989599 0.031876255 0.4341366 -0.11505039 0.5653517 -0.0874404 0.059232906
0.49049428 0.62131923 0.020948408 0.27913755 0.571262 0.33763316 -0.101307705 0.4335755
00000000: 3bda 023f 89dd cf3e 0313 243f e4dd 94be
00000010: a391 8cbe d694 cd39 4527 e33e 9d3b f5be
00000020: 1997 893d ca22 0c3f bda0 43be 2480 223f
00000030: af63 b53e 2547 c7bc dc79 253e 2fcd 62bd
00000040: 0075 a8be 6941 d2be 7d30 e9be 065c cd3e
00000050: 8ace f4be f0b6 05bf 29fb d6bd 9aa2 a2be
00000060: 65f2 923d 9f67 d6be 9a73 743e 4773 243f
00000070: 3ae5 473e c153 023f ca3a 02be bdda 323d
00000080: 5b38 3fbe 8240 0d3f e5c3 85be 3fc7 82be
00000090: b3c8 f23e f4bb 48be f09c 53be cb7b 45be
000000a0: 4f53 d53e d5ae 463e ee90 4cbe 57fa bb3e
000000b0: bc31 4abe f073 ba3c 7d96 753d 69e8 1e3f
000000c0: 0760 cdbc 1223 3abe 1ede e33d 70eb fabe
000000d0: a00b 843e 0b7a 993e a56b 483d c891 82bd
000000e0: 11db aabe d452 85be fe64 ff3e 8055 893c
000000f0: c7db 96bd d505 113e 9d07 c23e cdfe e03e
00000100: 929e b6be b9c8 46be 7137 003e 71d1 d13e
00000110: 4324 23bf a365 6e3e 7e0e 97be 6669 033f
00000120: e11c 073e f302 d53e 3fb4 d63e 844d d43e
00000130: d9dc 273d 1b58 d9be a88b f0be 0c2b 8abd
00000140: 30f3 c33e b0f3 233f 823d 98be e930 0a3f
00000150: 5f5e 4b3d 3c00 ca3e 5290 903d 89c7 253f
00000160: b060 a03d a26b a4bd 2822 c9bd 1161 d9be
00000170: f2fe 643e 6e21 dd3d 8c66 063f be45 303f
00000180: 5510 42bd 8128 123f c2fa 3a3e 9320 8b3d
00000190: be66 9abd c572 a73e 7d8e e0bd 59b9 c83e
000001a0: 93dc dc3e 503f 8b3e 14a6 163f 8399 38be
000001b0: 2dbb 883e fe66 a03e d7f8 e73d 9bd6 93be
000001c0: 86fc dbbe 7403 053e ad90 023d 2747 de3e
000001d0: 8a9f ebbd e4ba 103f f413 b3bd 349e 723d
000001e0: 1122 fb3e c70e 1f3f ff9b ab3c 1eeb 8e3e
000001f0: 3a3e 123f 41de ac3e 6a7a cfbd 9cfd dd3e

fc2.weight f4 [128, 128]
0.1563262 0.09418297 0.08688405 -0.103495374 -0.025214339 -0.023723716 0.042897206 -0.062080856
-0.04214761 0.012578185 -0.6267371 -0.24918628 0.025907809 0.06946926 0.32244763 0.08804494
0.00085254625 0.036255978 0.14663202 -0.0722136 -0.050088767 -0.079287216 -0.08477963 0.10992275
-0.31024882 -0.3397239 -0.33918756 -0.13940814 -0.06999977 -0.1390919 -0.058028255 0.07886493
-0.12970096 0.0023356166 0.039713062 -0.024552925 -0.0072587063 0.068521924 0.015854822 -0.0711957
0.08095117 -0.27775353 -0.15792774 -0.04201456 -0.023667563 -0.054354765 -0.6104311 0.0836906
-0.13732724 -0.36407962 0.21878082 -0.08243572 -0.13836992 -0.053534687 -0.31866524 -0.83863914
-0.3744938 -0.16549681 -0.3938865 -0.15857683 0.010494329 0.03070919 -0.015514669 -0.0384886
-0.23480211 0.19380915 -0.12559628 -0.14770451 -0.08552898 0.110631 -0.6741592 -0.07313342
-0.0006562636 0.0015217483 0.14365666 0.085246384 -0.07534449 0.26028472 -0.050474968 0.1270245
-0.062202603 -0.005671269 -0.0116925165 -0.11906997 0.07283167 0.0492381 0.106573015 0.09930998
-0.7593771 -0.12687978 0.04703937 -0.058473125 0.09554037 0.1838187 -0.010004874 -0.17231615
-0.13790467 0.11464464 -1.2202038 -0.22178917 -0.22560002 -0.09145411 -0.054505028 0.01310166
-0.034636207 -0.20381936 -0.0716791 0.089152135 0.17500687 -0.10939619 0.16069552 0.09635817
0.03688513 -0.0066742487 0.13787226 -0.007591368 -0.55784476 0.043368187 -0.7012354 -0.08867987
-0.020988027 -0.059569553 0.09596756 0.019833509 -0.09152891 0.051830273 0.12753354 -0.26827037
0.09129815 -0.025150087 0.06617402 -0.051572163 -0.1002775 -0.75156605 0.049167056 -0.04084257
0.0860712 0.022614243 -0.12973858 0.10425099 -0.12964742 0.030482898 -0.091013096 -0.03943399
-0.13961907 -0.28153047 -0.09019074 0.016808515 -0.07353061 -0.020705642 -0.056258243 -0.13866113
0.06467831 0.09761778 0.10260589 0.040348634 -0.06115875 0.0713509 0.072191335 -0.0512722
0.09035296 -0.029380025 -0.044224612 -0.13467343 -0.108698055 0.0011808206 -0.4384178 -0.07533991
0.09601033 0.08101405 0.089456186 -0.0014131744 -0.55891377 -0.4030384 0.060309127 0.09038644
-0.110625036 -0.1003002 -0.007365045 0.02331606 0.04300653 -0.029628359 -0.05503709 -0.021477252
0.051520087 0.03414977 0.05395311 0.08736181 -0.36336964 -0.06559655 0.04990284 0.08533421
0.082485944 -0.12053777 0.07549169 -0.01727116 -0.16730133 -0.055167098 0.0891886 -0.053320996
0.13726462 0.07944273 -0.008800014 -0.0070494963 -0.0028797428 0.10137696 0.05232478 -0.00054459914
0.057652164 0.09241799 0.050602086 0.08763824 0.07936242 0.011541904 -0.5454045 -0.032009535
-0.080532424 0.16229999 -0.77524745 -0.097283825 -0.06080129 -0.042440895 -0.060125705 0.0947681
-0.089545615 0.021863539 -0.0422329 -0.014496563 -0.05912741 0.017587531 -0.016262759 -0.25576454
-0.031150306 -0.045848545 -0.014880941 -0.015438063 -0.016727997 0.049692277 0.10945191 -1.1246432
-0.0023334913 0.04752359 0.05632853 0.078074075 -0.11671524 0.060180653 0.059622727 -0.06384073
0.08145413 -0.03351735 0.07768114 0.048801098 -0.00033714523 -0.023892166 -0.007691408 0.059310954
00000000: fa13 203e 00e3 c03d 44f0 b13d 62f5 d3bd
00000010: 4d8e cebc 3d58 c2bc fbb4 2f3d 7f48 7ebd
00000020: f9a2 2cbd bb14 4e3c d871 20bf b02a 7fbe
00000030: 9d3c d43c e645 8e3d db17 a53e e850 b43d
00000040: 697d 5f3a 2681 143d b426 163e b9e4 93bd
00000050: e129 4dbd 5661 a2bd f1a0 adbd 2e1f e13d
00000060: efd8 9ebe 4bf0 adbe fea9 adbe 02c1 0ebe
00000070: 0a5c 8fbd 1b6e 0ebe 09af 6dbd f083 a13d
00000080: 54d0 04be 2511 193b 2aaa 223d 3723 c9bc
00000090: 71da edbb 3955 8c3d f9e1 813c 0dcf 91bd
000000a0: bac9 a53d b635 8ebe cfb7 21be 7617 2cbd
000000b0: 7ae2 c1bc 1aa3 5ebd 3645 1cbf fa65 ab3d
000000c0: 839f 0cbe a568 babe 1408 603e 0fd4 a8bd
000000d0: d8b0 0dbe 3047 5bbd 1728 a3be 0eb1 56bf
000000e0: a7bd bfbe ff77 29be 7eab c9be f761 22be
000000f0: 68f0 2b3c d791 fb3c 3d31 7ebc 39a6 1dbd
00000100: f76f 70be e875 463e 509c 00be da3f 17be
00000110: d129 afbd 8192 e23d b395 2cbf f9c6 95bd
00000120: 1b09 2cba 6675 c73a bb1a 133e a895 ae3d
00000130: 364e 9abd 0a44 853e d7be 4ebd b612 023e
00000140: 28c8 7ebd 0dd6 b9bb f891 3fbc f5da f3bd
00000150: c528 953d e4ad 493d f442 da3d 0863 cb3d
00000160: 8a66 42bf c6ec 01be 5bac 403d 8481 6fbd
00000170: abaa c33d f83a 3c3e 7ceb 23bc a573 30be
00000180: e236 0dbe cfca ea3d a32f 9cbf b31c 63be
00000190: b103 67be 4b4c bbbd aa40 5fbd 58a8 563c
000001a0: b2de 0dbd 06b6 50be 7ecc 92bd 6595 b63d
000001b0: 0035 333e 1c0b e0bd 5e8d 243e 6f57 c53d
000001c0: dd14 173d a8b3 dabb 632e 0d3e 03c1 f8bb
000001d0: eace 0ebf d7a2 313d 2a84 33bf cb9d b5bd
000001e0: 15ef abbc 34ff 73bd a48a c43d e279 a23c
000001f0: 8273 bbbd fb4b 543d 2798 023e bc5a 89be
00000200: 86fa ba3d 8e07 cebc 3f86 873d 553d 53bd
00000210: 4a5e cdbd a266 40bf 6563 493d 8a4a 27bd
00000220: 1946 b03d 8141 b93c 31da 04be 8b81 d53d
00000230: 4bc2 04be 45b7 f93c 1365 babd 8985 21bd
00000240: 4df8 0ebe c324 90be ecb5 b8bd 03b2 893c
00000250: 3797 96bd e19e a9bc 0b6f 66bd 2ffd 0dbe
00000260: 1076 843d d5eb c73d 0923 d23d 9c44 253d
00000270: 9981 7abd 6c20 923d 0dd9 933d cc02 52bd
00000280: f90a b93d 61ae f0bc de24 35bd d5e7 09be
00000290: 169d debd c4c5 9a3a 4c78 e0be d04b 9abd
000002a0: 10a1 c43d b2ea a53d ce34 b73d 443a b9ba
000002b0: f914 0fbf 0d5b cebe b406 773d 871c b93d
000002c0: 618f e2bd 316a cdbd 7a56 f1bb 5201 bf3c
000002d0: 9d27 303d 2cb7 f2bc 926e 61bd 10f1 afbc
000002e0: ba06 533d a1e0 0b3d f0fd 5c3d c0ea b23d
000002f0: 960b babe 7c57 86bd ec66 4c3d b4c3 ae3d
00000300: 64ee a83d 82dc f6bd 639b 9a3d 3f7c 8dbc
00000310: 0a51 2bbe e5f6 61bd 83a8 b63d 1e67 5abd
00000320: 198f 0c3e dfb2 a23d ef2d 10bc 76ff e6bb
00000330: 11ba 3cbb b99e cf3d 8252 563d 6ec3 0eba
00000340: ad24 6c3d a545 bd3d 2244 4f3d ad7b b33d
00000350: c488 a23d 411a 3d3c a19f 0bbf 6e1c 03bd
00000360: 2fee a4bd f831 263e 9e76 46bf be3c c7bd
00000370: c60a 79bd 81d6 2dbd 5f46 76bd c715 c23d
00000380: b163 b7bd 2a1b b33c 68fc 2cbd fe82 6dbc
00000390: 952f 72bd ba13 903c 7a39 85bc 92f3 82be
000003a0: ed2e ffbc afcb 3bbd 31cf 73bc eeef 7cbc
000003b0: 2709 89bc 218a 4b3d 5328 e03d 4ff4 8fbf
000003c0: 7ded 18bb 19a8 423d bfb8 663d 4de5 9f3d
000003d0: 6608 efbd fd7f 763d f636 743d eebe 82bd
000003e0: 6cd1 a63d 7d49 09bd 4a17 9f3d a9e3 473d
000003f0: dec2 b0b9 81b9 c3bc 3508 fcbb 0bf0 723d

fc2.bias f4 [128]
0.050868005 0.04766965 0.020384982 0.0026224148 0.051194806 -0.002048097 0.03548583 0.069417365
0.0051719793 0.019297441 0.040529694 0.063638285 0.012750371 0.07412093 0.12814425 0.0675165
0.15639584 -0.04826784 -0.064595394 0.05325983 0.00990203 -0.0631906 0.093734235 0.10547211
-0.001533684 -0.1347263 -0.07570771 0.044485826 0.032643877 -0.076689444 0.06826161 0.06304844
0.058817793 0.018485961 0.0433283 0.078498386 0.056125067 -0.02092125 0.0032449735 -0.06817998
0.08379513 -0.030543638 0.058775693 0.028960884 0.015488357 0.042375915 0.050834212 0.09041449
-0.03934689 0.005819672 0.017367994 0.10423013 0.07607378 -0.049266446 0.068966165 0.13755195
-0.013410206 -0.039241828 -0.037694637 -0.0045751473 0.07393925 -0.044027414 -0.046950113 0.0469987
-0.04341115 0.06752923 0.09878694 0.059847753 0.04544804 -0.035447914 0.07272678 0.09965327
-0.0066534868 -0.014189477 0.05006899 0.0034752814 -0.050410148 0.048822094 -0.009961264 0.004886777
0.08618457 0.074397035 -0.029317716 0.08566675 0.029220687 -0.06031358 -0.0006148343 -0.021762868
0.011695695 0.102297194 0.13106224 0.08036782 0.03120783 0.0065436587 -0.04872505 0.046706494
0.0448902 -0.102536164 -0.00210981 0.050909817 0.084274456 0.020310491 -0.03055991 0.022939827
0.066083126 0.07278777 0.088617705 0.09985559 -0.103767894 -0.025542092 0.03244034 -0.019045739
0.056682322 -0.02574315 0.004458317 -0.059930183 -0.048569113 0.006294172 -0.0919097 0.0990621
0.113204174 0.09756084 0.03105948 0.050529152 -0.079453744 0.08175625 0.123720646 0.054567035
00000000: f85a 503d 4041 433d 68fe a63c d2dc 2b3b
00000010: a5b1 513d 5e39 06bb 9759 113d b12a 8e3d
00000020: b579 a93b ab15 9e3c 7702 263d ca54 823d
00000030: efe6 503c b7cc 973d 3f38 033e 1746 8a3d
00000040: 3b26 203e 80b4 45bd 974a 84bd fb26 5a3d
00000050: 203c 223c 136a 81bd bcf7 bf3d c301 d83d
00000060: e505 c9ba b1f5 09be a50c 9bbd c536 363d
00000070: 96b5 053d 5b0f 9dbd becc 8b3d 8a1f 813d
00000080: edea 703d df6f 973c 0479 313d c3c3 a03d
00000090: 66e3 653d 0b63 abbc 9fa9 543b f2a1 8bbd
000000a0: c89c ab3d a736 fabc c8be 703d 603f ed3c
000000b0: e1c2 7d3c 5e92 2d3d 8937 503d 3b2b b93d
000000c0: 342a 21bd f2b2 be3b 5347 8e3c 9b76 d53d
000000d0: 92cc 9b3d 9dcb 49bd 223e 8d3d 6bda 0c3e
000000e0: 7bb6 5bbc 0abc 20bd b165 1abd 1eeb 95bb
000000f0: 766d 973d 1756 34bd c34e 40bd b581 403d
00000100: e4cf 31bd c44c 8a3d cf50 ca3d eb22 753d
00000110: b927 3a3d d531 11bd c7f1 943d 0317 cc3d
00000120: 7e05 dabb fb7a 68bc 2415 4d3d 8cc1 633b
00000130: df7a 4ebd adf9 473d 9234 23bc 4221 a03b
00000140: 8981 b03d 795d 983d b52b f0bc 0d72 af3d
00000150: 3960 ef3c 5f0b 77bd d52c 21ba 0b48 b2bc
00000160: 4d9f 3f3c 3181 d13d 2e35 063e e297 a43d
00000170: 90a7 ff3c 306c d63b eb93 47bd 4f4f 3f3d
00000180: c9de 373d 7bfe d1bd bd44 0abb d086 503d
00000190: 1698 ac3d 3062 a63c c758 fabc 4eec bb3c
000001a0: 9756 873d c111 953d 337d b53d 1681 cc3d
000001b0: 4384 d4bd a63d d1bc 29e0 043d cf05 9cbc
000001c0: b92b 683d 4ce3 d2bc 1317 923b 5a79 75bd
000001d0: 68f0 46bd 573f ce3b 273b bcbd 12e1 ca3d
000001e0: 97d7 e73d facd c73d 7370 fe3c a8f7 4e3d
000001f0: a5b8 a2bd d26f a73d 4061 fd3d af81 5f3d

fc3.weight f4 [1, 128]
-0.29762095 0.31647182 -0.22187045 -0.24084814 -0.16641803 -0.06188373 -0.22415403 0.08515053
-0.054989055 -0.14270537 0.2072439 0.0024571465 0.21733615 0.5635732 -0.061353456 0.33046806
-0.3197083 -0.18596493 0.33294526 -0.26454544 0.039847724 0.27482745 0.21732384 0.111848705
0.2966353 -0.024357116 0.06291359 0.7317322 0.13551445 -0.5526523 -0.22369355 0.27768865
0.18175936 0.20544988 0.18161696 0.31050828 -0.15043144 0.29074648 0.23517376 0.6319882
0.046453185 0.55039936 0.15870711 0.7694002 -0.12176258 -0.21552712 0.2226885 -0.21120183
0.429405 -0.09952813 -0.17394997 0.3317815 0.19333902 -0.48014975 0.30754617 0.23374943
-0.14264792 -0.096460864 -0.2056629 -0.36429858 0.31807905 -0.46329576 0.267046 -0.09401932
0.2625336 0.5657793 -0.2584693 0.36178893 0.298219 -0.1931185 0.62608683 0.80760485
0.34952322 -0.042094562 -0.2974532 -0.15016074 0.4072368 0.23754025 0.24414915 0.2532034
-0.09351646 0.5291806 0.3190345 -0.22401908 0.2903619 -0.57719934 -0.5040297 0.17083211
0.2749279 -0.55888665 0.57982254 -0.08539669 0.33863148 -0.3182608 0.2787936 0.14305514
-0.2787371 -0.5166228 0.3263171 -0.19748159 0.14345829 0.4323946 0.40459675 0.05808606
0.32477444 -0.20803443 0.30161735 -0.17573906 -0.08280531 -0.35169435 0.17379473 0.14893928
0.3536064 0.057154946 -0.25934634 0.35956052 -0.25023976 -0.2074646 -0.053162076 -0.14869861
-0.1366083 -0.17551303 -0.13026482 -0.16594346 -0.0817256 -0.34309602 -0.17523609 0.18685244
00000000: c661 98be 9808 a23e 0232 63be e5a0 76be
00000010: 7d69 2abe cb79 7dbd a288 65be 6763 ae3d
00000020: 343c 61bd 5b21 12be bf37 543e 1408 213b
00000030: 5e8d 5e3e 5546 103f c34d 7bbd 1c33 a93e
00000040: ceb0 a3be 976d 3ebe cd77 aa3e 8072 87be
00000050: 5e37 233d 2fb6 8c3e 248a 5e3e ef10 e53d
00000060: 95e0 973e 9388 c7bc d7d8 803d cd52 3b3f
00000070: 4dc4 0a3e 9f7a 0dbf ec0f 65be 352d 8e3e
00000080: 201f 3a3e 7461 523e ccf9 393e f1fa 9e3e
00000090: b30a 1abe b9dc 943e 64d1 703e fbc9 213f
000000a0: b245 3e3d f9e6 0c3f 1e84 223e 69f7 443f
000000b0: a95e f9bd 24b3 5cbe 7408 643e 4b45 58be
000000c0: f9da db3e 67d5 cbbd f11f 32be 44df a93e
000000d0: aafa 453e 30d6 f5be b176 9d3e 035c 6f3e
000000e0: 4c12 12be 468d c5bd 4c99 52be 5885 babe
000000f0: 42db a23e 1a35 edbe 41ba 883e 348d c0bd
00000100: ce6a 863e ead6 103f 1756 84be 663c b93e
00000110: 29b0 983e dbc0 45be 3a47 203f 31bf 4e3f
00000120: b5f4 b23e 596b 2cbd c94b 98be bdc3 19be
00000130: 5881 d03e c03d 733e 3c02 7a3e e0a3 813e
00000140: 8f85 bfbd 6178 073f 7d58 a33e 4265 65be
00000150: 51aa 943e 56c3 13bf 1708 01bf 9dee 2e3e
00000160: 5ac3 8c3e 3213 0fbf 406f 143f 76e4 aebd
00000170: 1b61 ad3e 14f3 a2be 09be 8e3e 0c7d 123e
00000180: a1b6 8ebe 6441 04bf 0913 a73e 9d38 4abe
00000190: bbe6 123e d362 dd3e 4e27 cf3e a6eb 6d3d
000001a0: d648 a63e fa06 55be 976d 9a3e f1f4 33be
000001b0: d595 a9bd 4811 b4be 3ff7 313e 8a83 183e
000001c0: e60b b53e 4e1b 6a3d 0bc9 84be 5118 b83e
000001d0: 6d1f 80be 9a71 54be 7ac0 59bd 7344 18be
000001e0: 0ce3 0bbe b0b9 33be 2464 05be 15ed 29be
000001f0: c05f a7bd 48aa afbe 1771 33be 3f56 3f3e
