3_A2C_DDPG/ddpg/save_model/model.pth.tar (torch_old, 69620 bytes, 5 tensors)

fc1.weight f4 [128, 3]
00000000: a30e a53e 3c27 bdbe b821 423f cae0 b0be
00000010: 918c c93e 11be 173d 4320 cebe 5ea4 193f
00000020: b4c5 e63e a87a 073f b5da bd3d 8d70 dd3e
00000030: 6201 15bf b93e bbbe a3f5 12bf e273 f73d
00000040: a34a f13d 5749 e0be 3875 9d3e 33b6 243f
00000050: 3aa2 4d3e a731 dd3d f091 d33e 71d9 ddbe
00000060: a25e 3ebf b5ff 373e ae24 aebc 1398 b9be
00000070: 7646 19bc 3f96 093f 6aa8 ffbe ff49 e73e
00000080: 5dff ba3e 58ad 2a3f 5d05 2dbf 9b54 513e
00000090: 9876 ee3e 4a82 d23c 3682 7f3e f3e0 43bf
000000a0: 0ea0 53be 1ff4 0dbe 77e1 9c3e cf32 63bf
000000b0: 7b93 5b3e 4aaa 213d 0666 9c3e cac8 2ebf
000000c0: f741 fdbe 007d 2fbe 05b3 e0be 8877 abbe
000000d0: 1dc1 273f 9679 673e 9093 99be 1812 3b3f
000000e0: 38a1 92be 4043 1dbe 0fa9 5c3f c00c 1f3f
000000f0: 41c8 5b3e b090 abbd 2d94 a8be fd66 073d
00000100: 13ae 99bd 7932 733d bd3c 173f d742 05bf
00000110: ea1f e53e 459a 17bf 9522 3bbf 80d4 ddbe
00000120: 0890 423f 0522 c1be 9ce8 d13b 11f0 e4be
00000130: 021c 79bd 9a51 d73e 97f3 363f 0361 12bf
00000140: b6cd 97be cef8 ca3e 1a98 ab3e f811 093f
00000150: a6b5 6c3d aa61 eb3d 560d 623f aa42 0e3f
00000160: 3eea 00bd 0450 5c3e f73e dbbe d375 6ebe
00000170: 46fc 213f 461b 263d ab13 b83e 548e 14bf
00000180: c85a 473f 0bff 50be cf82 e03e e3ca fc3c
00000190: e814 a83e 4a07 9cbd 806a b8bd e667 f93e
000001a0: 31bb 69bf 788c c93e 2821 8f3f 60b6 a93e
000001b0: ed05 d83e 2f1e 47be 17fe 13bf a96c abbe
000001c0: 5d28 eabe e30a 0cbf 0e51 253d 394c 2e3f
000001d0: 6f5a f5be 3bbc 2c3f 672f f83e 00a8 963e
000001e0: c601 fbbd 7f86 e9be d65b e7bd 0c22 ebbd
000001f0: 5080 e93e 6475 3a3f 5a29 4b3f 7d46 a5bd
00000200: 35be 65be 534f ddbd 7869 eabc dbc2 0a3f
00000210: 10f2 82be 9fb6 b93e 2821 e7be 7c83 3e3e
00000220: 62cf 95bd dd78 03bf 08e2 fabd 595c 293e
00000230: 105c 3e3f 609a bc3b ef07 273f a83f 3a3e
00000240: 232f ce3d e6b9 cfbe a8f9 eb3e 9f07 abbe
00000250: d55e 76bd 773d 333e dbc4 e6bc 7948 1c3f
00000260: 1804 b3be a16b 143e 2e16 65bf a7ee c8be
00000270: e455 fe3e a5ba 5b3f 6f21 3abe 7847 04be
00000280: c89a 763f f678 e13e 1100 08be 607b b33e
00000290: 2d33 a43e db3e 88be 0acf 273d d8fb 263f
000002a0: 3028 e13e 227d 393f 9bda 5bbb afaa edbe
000002b0: 816f 9e3d 7d52 f93e 5b93 913e 4507 1a3e
000002c0: 7e2b 343f bbcd e2be c6f2 ff3e 6ebb 0c3f
000002d0: 42a5 153e dab8 d93e 0151 4dbf 825e 033f
000002e0: 084b 603f e595 b53e adcc 083f da91 52be
000002f0: b695 0ebf 4be9 af3e 8f1f 74bf c581 cc3d
00000300: 5e46 f3be e25e 383f dfbe 9a3e 78bc 55be
00000310: 7369 10bf 4e01 c4be 5486 bc3e af6b 623f
00000320: d9e0 023f b2f2 983d ca29 593e 6fbe 0c3f
00000330: 9a43 0fbe 845c ab3c dd5a c6be f8f3 08bf
00000340: 2de1 373f 2d92 a4be 54e5 723f 695a d3be
00000350: 91a7 783d 5bcb 163f 0ff7 67bf 3ad6 03bf
00000360: e4e8 ddbe 06e4 bebe 6f4d b33e 1ac7 15bf
00000370: 533b 0cbf 57c4 ddbe 30df b8be 2ddf 1a3f
00000380: ac9c 79be 672c 603e fb18 d1be aabb 833e
00000390: 7453 853d 6e17 05bf 513d 0abf e3ab 0c3f
000003a0: f499 aa3e 4059 b13e a91d c3bd ca4a 3c3f
000003b0: a5d0 21bf 3786 eebe e7b4 1e3d 6024 edbd
000003c0: d6c0 983e 0544 3bbe e450 c03d 2394 1cbf
000003d0: 9a18 2f3f 999b c03d cdf5 063f e618 993e
000003e0: 175f eebe d8fd 25be 7f4b d6bd 5ef7 a53e
000003f0: 93a5 2ebf c540 073f 3be8 67bd 29da 0dbb
0.3223773 -0.36943996 0.758327 -0.345465 0.39365056 0.037046496 -0.4025899 0.6001643
0.4507271 0.52921534 0.09270231 0.43249932 -0.58205235 -0.3657129 -0.5740606 0.1208265
0.11781814 -0.43805954 0.30753493 0.64340514 0.20081416 0.10800486 0.4132228 -0.43329957
-0.7436315 0.17968638 -0.021257725 -0.36248836 -0.009355178 0.5374488 -0.49933177 0.45173642
0.36522952 0.6667075 -0.6758631 0.2044243 0.46574855 0.025696892 0.24952015 -0.7651512
-0.20666525 -0.13862656 0.30640766 -0.887494 0.21442978 0.03946904 0.30546588 -0.6827513
-0.4946439 -0.17137527 -0.4388658 -0.33489633 0.6552904 0.22604975 -0.29995394 0.73074484
-0.28638625 -0.15357685 0.8619546 0.6212883 0.2146311 -0.08377206 -0.3292555 0.0330572
-0.07503905 0.059374306 0.59077054 -0.52055115 0.4475091 -0.5921977 -0.73099643 -0.43326187
0.76001024 -0.37721267 0.006405903 -0.44714406 -0.060817726 0.42054445 0.7146544 -0.5717928
-0.29649132 0.39642948 0.33514482 0.53543043 0.05779042 0.11493237 0.883016 0.5557047
-0.03147339 0.21514899 -0.42821476 -0.23287134 0.63275564 0.040553354 0.35952505 -0.58029675
0.77872896 -0.20409791 0.438498 0.030858463 0.3282845 -0.07618578 -0.09004688 0.4871208
-0.91301256 0.39364982 1.1181993 0.33146954 0.4219202 -0.19445108 -0.57809585 -0.3348134
-0.4573392 -0.5470411 0.040360503 0.68085057 -0.47920558 0.67474717 0.48473665 0.2942505
-0.12256198 -0.45610425 -0.11296813 -0.11481103 0.45605707 0.72835374 0.7935997 -0.08070085
-0.2243584 -0.108061455 -0.028614745 0.54203576 -0.25575304 0.3627214 -0.45142484 0.18604845
-0.07314946 -0.513563 -0.12250143 0.16539134 0.74359226 0.0057557076 0.6524648 0.18188345
0.10067584 -0.40571517 0.4608891 -0.33404252 -0.060149033 0.17503916 -0.02817004 0.61048084
-0.3496406 0.14494182 -0.8948697 -0.39244577 0.49674904 0.8583167 -0.18176816 -0.12917888
0.9632993 0.44037598 -0.13281275 0.35055065 0.32070294 -0.26610455 0.040968932 0.65228033
0.43975973 0.7245656 -0.0033547047 -0.46419284 0.077361114 0.48695746 0.28432736 0.15041836
0.70378864 -0.44297585 0.4998991 0.54973495 0.14613822 0.42523843 -0.8020173 0.5131608
0.8761449 0.35465923 0.5343731 -0.2056345 -0.5569719 0.34357676 -0.95360655 0.09985689
-0.47514623 0.7201978 0.30223748 -0.20872676 -0.564109 -0.38282245 0.36821234 0.8844556
0.5112434 0.074681655 0.21207348 0.5497808 -0.13990632 0.020918138 -0.38741198 -0.53497267
0.71827966 -0.32142773 0.94881177 -0.41279915 0.06070668 0.58904046 -0.90611356 -0.5149876
-0.43341744 -0.37283343 0.35020015 -0.5850693 -0.5477802 -0.43313858 -0.3610778 0.6049679
-0.24376172 0.21891938 -0.4083937 0.25729114 0.06510058 -0.51988876 -0.5399981 0.5494978
0.33320582 0.34638405 -0.095271416 0.7355162 -0.6320899 -0.46586773 0.03874674 -0.115792036
0.29834622 -0.18287666 0.09390429 -0.6116354 0.68396914 0.09404678 0.5271881 0.29901809
-0.46556923 -0.16210115 -0.104636185 0.3241529 -0.68221396 0.52833205 -0.056617957 -0.0021644926

fc1.bias f4 [128]
00000000: b40b 133e 0498 b43e e048 df3e 2f8a f1be
00000010: 89d0 91bb 4afb 603e b580 6b3e 54d1 a4be
00000020: 09d3 f53b 3a5f f53e 3e5f adbe 26cf 033f
00000030: 5fe8 8a3e 4b35 073e a33a 0d3d 01ef 8d3e
00000040: f4d7 f33c 4643 4fbe da6d c1bd 34b3 543e
00000050: d349 00bf 9049 05bf 636c 03be fefe 3cbe
00000060: 0fda 9b3d 8936 d4be e9d6 b13e c506 de3e
00000070: 8b5a f83d 9209 c03e 31ad f2be 9b27 d03e
00000080: 5ab3 92be f415 1f3f f604 b9bd 3c4c b7be
00000090: 78a0 d63e fc4f 6a3c 498a 2cbe dbe4 bdbd
000000a0: bfb4 be3e ca3f d33d 821f 83be 1a0f 5d3e
000000b0: 97b2 ef3d 1161 4f3e b325 edbc 53a8 ec3e
000000c0: 2fdf 9fbd f1cc 82be 6ec0 903e ed7d e1be
000000d0: c6bb ef3d fef0 263e 7a42 593b 4858 5abe
000000e0: c134 d7be 5bb0 c4be 731f b73e e0e4 553c
000000f0: 4820 143e c4fd 983e 2407 063f d4b6 fb3d
00000100: 78bc 9dbe d74c 59bd 1147 3f3d 675a 393e
00000110: 8578 00bf 623a 673e 05af 04bf e8df b83e
00000120: f003 563c f0ee c83e b2c6 ed3e c3b6 9f3e
00000130: 636a 123d cf86 02bf 91dd 273d e68c 063e
00000140: 17d5 b43e 6d30 0a3f 8b91 37bd 9f1d f73e
00000150: 2853 8d3e d33e bd3c 956d c23e ae16 1e3f
00000160: 6c4e 91bc 6664 15bf 94ee d23a 7ef2 e3be
00000170: d754 b73e 3173 f73d dd01 243f 3f52 fe3e
00000180: 3169 7ebe 0bc0 063e 27e3 0fbe 0f79 30bc
00000190: c0ed 87be 4942 733e 2d1d a6be 3684 353f
000001a0: 9a48 c53e d3ce 093e 5a18 f43e 994e 9bbd
000001b0: 743f 9b3e f172 c73d e995 7fbe 787c 04be
000001c0: 2699 7dbe 4789 513e a808 af3d 7861 a73e
000001d0: f3f7 65be 2835 0b3f b35f 94be 5ce2 c33b
000001e0: ccda 043f 26ad c33e e061 73be ffb8 ac3e
000001f0: 3aac 043f 399c 7c3d 5823 893d 7ca5 9b3e
0.14359933 0.3527223 0.43610287 -0.47175738 -0.004449908 0.21970859 0.22998317 -0.32190955
0.007501964 0.47924215 -0.33861727 0.5148796 0.2713041 0.13203923 0.03447975 0.27721408
0.02976606 -0.20240507 -0.09444781 0.20771486 -0.50112647 -0.5206537 -0.12834315 -0.18456647
0.07609951 -0.41447857 0.34734276 0.4336454 0.12126645 0.37507302 -0.4739776 0.40655217
-0.2865246 0.6214287 -0.09034149 -0.3580035 0.41919303 0.014301296 -0.16849627 -0.09272166
0.37247273 0.10314901 -0.25609976 0.21587792 0.11703985 0.20251872 -0.02894864 0.4622217
-0.07806241 -0.25546983 0.28271812 -0.44041386 0.11705737 0.16302869 0.0033151195 -0.21322739
-0.42032436 -0.384158 0.3576618 0.013055056 0.1446544 0.29881108 0.52354646 0.12290731
-0.30807853 -0.053051796 0.046698634 0.18100892 -0.501839 0.22580865 -0.5182956 0.36108327
0.013062462 0.39244795 0.46440655 0.31194124 0.03574599 -0.5098695 0.040982787 0.13139686
0.35318825 0.5398014 -0.044816535 0.48264787 0.27602506 0.023101246 0.3797423 0.61753356
-0.01773759 -0.5835632 0.001609283 -0.44520944 0.35806915 0.12082518 0.64065343 0.49672124
-0.24844815 0.13159196 -0.14051495 -0.01077105 -0.26548576 0.23755755 -0.32444134 0.7090486
0.38531953 0.13457803 0.4767483 -0.07583351 0.30321848 0.0973872 -0.2495953 -0.12938106
-0.24765453 0.20462523 0.08546573 0.3269155 -0.22457866 0.54377985 -0.28979263 0.005977912
0.5189636 0.3821804 -0.23767805 0.3373489 0.51825297 0.061672423 0.066961944 0.30399692

fc2.weight f4 [128, 128]
00000000: cfab e03d 7eda c03d 1fd5 463d e79e 21bb
00000010: f9e3 21be 70a5 163d 3891 da3d 3afa 553d
00000020: f0f5 b6bd a7dc b43d d65a 05bd fa2c b63d
00000030: d925 5a3d 99e3 52be 836f d83d 6f08 1c3e
00000040: dea4 afbd bed1 0a3c b17e d039 77ac cd3d
00000050: 4b92 0c3d 14cb 9abd 49ac 603b e505 35be
00000060: d267 0c3e 0a97 713d 5d39 333d c03e 413d
00000070: 4578 4f3d f3e9 f53d db58 a83c fe49 213d
00000080: d21e 41bd 4513 bfbb 8fa9 ad3d d816 1f3d
00000090: 5992 c93c 7532 9fbc d7eb b4bc 67bd 723d
000000a0: 75fa 583d a973 a43d 302a fc3d 3f9a 823c
000000b0: dfe8 dcbd 3b8f 413d fcdd 803d f2d6 b33d
000000c0: d8d9 54bd 388b b73d dae5 2f3e bc16 41bd
000000d0: a0a3 9ebc c5f6 f7bc 0e27 6bbc 9093 663c
000000e0: 307d 213e 1dcb bc3c 7b5b 2dbd 9b0a 8b3d
000000f0: a18d d33d a5dc 0b3c 713e 953d e501 763c
00000100: 9223 3dbb c315 3dbd 7c2e 40bd 3fa9 693d
00000110: f5c8 9bbd 8db6 acbc 01c1 23bd 7012 1e3d
00000120: d210 513d 84ea f9bd f844 6d3d f1f3 b43d
00000130: 8393 a6bd 03ad e23d 9fba 5cbc cca9 10be
00000140: 4e8e 383e 91c7 50bc 4f3a f63d 23a5 99bd
00000150: 23e0 2f3d b2bd 0e3e bd59 2e3e f00d a73d
00000160: 3d28 26bd 02f6 abbc 5708 fc3c 23a2 7c3d
00000170: cba1 70bd c7a4 1d3e b695 1fbe 0a70 04bd
00000180: f6c1 a83d 5f07 cd3d ca3a d33d ae92 afbc
00000190: 48e0 a43d e77d 6cbc abbd 5dbc 6e8e 213d
000001a0: 1c64 d43d 0926 72bc 7735 1dbc e54d 56be
000001b0: ac9f 9c3d 0c53 81bc ef4f 693d 9ae6 e93d
000001c0: 901a 33be 3bce f9bd ab8e b9bd 059a f7bd
000001d0: 2750 8bbb 37e4 d33c f508 30bd 1b76 4a3d
000001e0: 03d6 07bb 84b8 afbc 620c 673d 426d 6d3b
000001f0: 6112 283e 10ef 083e cea7 09be 759c ad3d
00000200: 5d81 723d 212a c3bb b352 913d 8204 6dbd
00000210: d854 85bd ab1b 65bf 9c59 af3d 1195 e5bd
00000220: f990 b23d 3fee 693c 1af9 e8bc dcf7 9abc
00000230: f851 14be 7a57 823d 3f97 01bb 4fc9 81be
00000240: 09da 27bb dffb b03a 2bd2 973d f384 1a3d
00000250: 295e babd 754d a6bc 3087 9abd e9b2 3abd
00000260: bb9d 8bbd 72d7 6e3c 70d7 9a3a b844 383c
00000270: 4cf1 9dbd c622 663d 39d9 5b3d db69 b9be
00000280: a839 d53b da83 a1bd cfec 82be 8ad4 2cbe
00000290: a461 93be 6971 c5bc 09ae 8fbe a065 a7bd
000002a0: 7b6f aa3d d781 a83d 163f 09bd b1e2 edbb
000002b0: a0b0 1ebe 1a98 c6be aaf3 aa3d 123c f43d
000002c0: b1ae 01be b56d 07be 1e94 b83d aae1 9f3b
000002d0: 6d13 5ebe 4d60 893c ea9f 8abd 4f9f 893c
000002e0: 0dfd a4be 8eb7 843d 80e2 f83c 1f52 f13d
000002f0: 768f 8dbe 9388 fb3a 7359 d4bd b830 d63c
00000300: 00c7 223c 4fe8 d0bd ebeb be3d b618 0fbc
00000310: 5526 19bd bed5 b3bd f73f 513e 172e 28be
00000320: 5149 fc3d 6949 6f3c 31e8 24bd f3c9 60bd
00000330: 755f 0fbe 8ebb c8bc ee1b c53d 25d1 60ba
00000340: fcfc 17bd df3d d63d 8ab7 87bd c2ed 983d
00000350: 113e f93c 259b aabc dc06 46be 4a8b b6bc
00000360: 1da2 76bd 97a0 f53c b013 0cbf 121c 72bd
00000370: 7099 a1bd 39dd 67bd 7804 0cbd 2b25 d73d
00000380: aae8 88bd 265c e13a d029 aebd 516d 973c
00000390: 1c6c 05bd b076 ff3c 8229 31bb 0afa b4be
000003a0: 15bb 8bbd 629f 08bd 43c2 45bd f67a 0fbd
000003b0: 0d2d acbc ac02 3d3d 65fa c33d 27d6 22bf
000003c0: a8f5 fb3c 943c 633d bc68 683d 89d9 ca3d
000003d0: 792c 93bd 19d4 0b3d 970c a8bc 4216 aa3b
000003e0: aecc 383d 9d05 eabc 3895 a43d 5e53 853d
000003f0: 5001 f1bc bcb8 683b d963 e83b 519f 22bc
0.1097027 0.09416674 0.048543092 -0.0024661364 -0.15809621 0.036778867 0.106722295 0.052240588
-0.089336276 0.088311486 -0.03255733 0.08895297 0.05325875 -0.20594634 0.10568144 0.15237592
-0.08576368 0.008472858 0.00039767244 0.10042661 0.034319203 -0.07558265 0.0034282377 -0.1767803
0.1371148 0.058981933 0.043755878 0.047178984 0.050651807 0.12007513 0.020550182 0.039377205
-0.047148533 -0.0058311545 0.08479606 0.038840145 0.024605917 -0.01943324 -0.022085113 0.05926266
0.05297323 0.08029873 0.12312734 0.01594269 -0.10786604 0.047255736 0.0629234 0.08781232
-0.051965564 0.08962101 0.17177525 -0.04714082 -0.019365132 -0.030269036 -0.014352573 0.014073268
0.15770411 0.02304607 -0.04232357 0.06789132 0.10329748 0.0085364925 0.072873004 0.0150151
-0.0028860313 -0.04616333 -0.04691933 0.05704617 -0.07606689 -0.02108314 -0.039978985 0.038591802
0.05104143 -0.122029334 0.0579271 0.08835591 -0.081336044 0.110681556 -0.013472228 -0.14127272
0.18023035 -0.012742893 0.1202284 -0.075022005 0.042938363 0.1393955 0.1702642 0.08156955
-0.040565718 -0.02099133 0.030765695 0.061678063 -0.058748048 0.15394889 -0.15584454 -0.03233341
0.0824012 0.100111715 0.103139475 -0.021432247 0.08050591 -0.014434314 -0.01353399 0.039442472
0.10370657 -0.014779576 -0.009595267 -0.20928152 0.076476425 -0.01578667 0.056960996 0.11420937
-0.17490602 -0.121975385 -0.09060415 -0.12089924 -0.0042514983 0.025865657 -0.042977292 0.04942904
-0.0020726926 -0.021450289 0.056408294 0.0036228453 0.16413261 0.13372445 -0.13442919 0.084771074
0.0592054 -0.00595595 0.07095852 -0.057865627 -0.06510323 -0.8949534 0.085620135 -0.11210073
0.087190576 0.014277994 -0.028439093 -0.018917017 -0.14484394 0.06364341 -0.0019773988 -0.253489
-0.0025612137 0.0013502798 0.07413133 0.037724447 -0.09099991 -0.020300606 -0.07545316 -0.04558078
-0.06817194 0.014577733 0.0011813473 0.011246853 -0.07712039 0.056185506 0.053673957 -0.36213574
0.0065071173 -0.07886477 -0.25571296 -0.16877952 -0.2878543 -0.02410193 -0.28062466 -0.0817368
0.083220445 0.0822789 -0.03350743 -0.0072596897 -0.15497065 -0.3878792 0.083472565 0.1192552
-0.12664296 -0.13225444 0.09012626 0.004879196 -0.21687098 0.016769553 -0.067687824 0.016799597
-0.32224312 0.06480323 0.030381441 0.117832415 -0.27648515 0.0019190483 -0.103686236 0.026146278
0.009935141 -0.10200559 0.093223415 -0.008733919 -0.037390072 -0.087810025 0.20434557 -0.16423832
0.123186715 0.014604905 -0.040260497 -0.054880094 -0.14001258 -0.024503496 0.09624468 -0.0008576087
-0.0371065 0.1046102 -0.06626804 0.07467224 0.030425103 -0.020825932 -0.19338554 -0.022283215
-0.060213197 0.029983802 -0.5471754 -0.0591088 -0.07890594 -0.05660746 -0.03418395 0.10505136
-0.06685002 0.00171936 -0.08504069 0.018484743 -0.032573804 0.031184524 -0.0027032797 -0.35347015
-0.068227924 -0.033355124 -0.048280966 -0.035029374 -0.021017576 0.046145126 0.09569243 -0.6360802
0.030756786 0.055477694 0.056740507 0.09904773 -0.07186217 0.03413782 -0.020513816 0.0051906416
0.045117073 -0.02856713 0.08036274 0.06510042 -0.029419571 0.00355105 0.007091981 -0.009925679

fc2.bias f4 [128]
00000000: e3c3 643d 597e 4b3c ca46 a93c 6b76 2ebd
00000010: 1794 4ebd 9b7e efbb 0e71 543d b12a 8e3d
00000020: 94c7 aa3b ff05 0abd 4efc 503d b98e 4e3e
00000030: ba3f 38bc 7a8b 963d 93f4 e23d bd9b 7e3d
00000040: bce1 e83d 670d 8dbd fde1 4abd 5820 56bc
00000050: 9bb5 cf3b 2e86 a9bd ed47 903d add7 dd3d
00000060: 7525 123b b1bc efbd 58ba 13bd be93 8b3d
00000070: b0d6 443d d610 19bd 09d4 8d3d 8360 163d
00000080: a250 383d 3594 1e3d 400d a93c fe23 9d3d
00000090: 24f1 5d3d b1a0 03bd f1c3 ee3c 483f 3abd
000000a0: 8399 ab3d e7e4 e7bc eaef 6e3d e2a2 c63c
000000b0: ec96 333c baf6 523d 1932 2b3d 7130 a33d
000000c0: 3c98 9fbd 1f3d 99bc 5012 c63c 7d32 0f3d
000000d0: efcc 043d 7203 19bd 1bd4 bf3b 849b 103e
000000e0: bd0e 93bd f190 4dbd 9485 f4bd 4279 283d
000000f0: 1a0d 0ebd cfcf 0cbc 8070 0bbd b584 413d
00000100: 970b 97bd 716c c13d a813 a73d 83b3 b53d
00000110: b26c a53d 8c42 58bb 41dd 503d 3afb 943d
00000120: c075 033c 7633 86bc 216a 8a3d 44a1 66bc
00000130: 36af 09bc 0396 6b3d c36d 133c b656 123c
00000140: e362 aa3d d8c8 4f3d 10f2 80bc d4a8 243c
00000150: 3150 4ebc a011 2bbd 31a8 3eba 8592 8d3b
00000160: 103a db3c 2928 db3d 1064 ab3d d03e 613d
00000170: 61df 8c3d 9981 58bc 7924 e6bd 83f6 4f3d
00000180: 11c4 093d e0dd 85bd 485c 073d 3cd6 0c3d
00000190: df65 ce3d a815 c93c 7786 db3c dc5a 0c3d
000001a0: 2621 bc3d 2505 223d 3d7e b83d 4692 be3d
000001b0: e78b 29bc 7fff 91bc e33c 733d e264 69bd
000001c0: 5c72 5f3d 4ce3 d2bc f4e6 fe3c d602 90bd
000001d0: b81e 19bd f761 803c 2ac8 29bc 9351 833d
000001e0: 9db8 e83d 4076 9d3d 7c19 ac3c bb28 9b3d
000001f0: ea74 4abd 15a4 903d f186 a53d 4801 ca3c
0.055850875 0.01242026 0.020663638 -0.0425934 -0.0504342 -0.0073087937 0.05186563 0.069417365
0.00521178 -0.033697125 0.051021867 0.20171632 -0.011245662 0.07350822 0.11081805 0.062160242
0.113711804 -0.06887322 -0.049531925 -0.013069235 0.0063387877 -0.08277546 0.07044969 0.108321525
0.0022300158 -0.11705912 -0.036066383 0.06815289 0.048056304 -0.03736957 0.06925208 0.036713134
0.044998772 0.03871556 0.0206362 0.076728806 0.054185048 -0.03213567 0.029146167 -0.045470506
0.083788894 -0.028307391 0.05833427 0.02424759 0.010961276 0.051504828 0.041795824 0.07968224
-0.07792708 -0.018705903 0.024178654 0.03496026 0.032422002 -0.0373568 0.0058541424 0.14121825
-0.071805455 -0.050187055 -0.119395405 0.041131265 -0.034680463 -0.008594467 -0.034042835 0.0472457
-0.073752575 0.09444512 0.08158046 0.0887213 0.080773726 -0.003299865 0.050992254 0.0727448
0.008023679 -0.01638196 0.06758524 -0.014076535 -0.00840359 0.05751611 0.008998337 0.008931806
0.083196424 0.05072865 -0.015740424 0.010050017 -0.012592361 -0.041764855 -0.0007272987 0.004320445
0.026761085 0.10701019 0.08368695 0.054991543 0.06878544 -0.013214492 -0.11237425 0.0507722
0.03363425 -0.0653646 0.03304699 0.034383997 0.10078024 0.02454646 0.026797516 0.034266338
0.0918601 0.039555687 0.09008453 0.09305243 -0.010348297 -0.017822025 0.059384238 -0.056980975
0.05455242 -0.02574315 0.031115986 -0.07031791 -0.03738281 0.015671713 -0.010362664 0.064120434
0.11363337 0.0768857 0.021008246 0.07576128 -0.049427904 0.07062546 0.08082379 0.024658814

fc3.weight f4 [1, 128]
00000000: 98d5 02be 5bf2 933e 8861 0dbe 3849 89be
00000010: 85c6 10bd f3e3 b4bd 4258 e43e 6763 ae3d
00000020: cde2 65bd 8f27 efbd a479 f13d 2610 c03e
00000030: 3a37 463e e0c2 133f 8299 d3bd 9fa4 1f3e
00000040: f7a3 12be 4811 bbbe 8e0d bc3d 5ab7 aabd
00000050: fa97 1f3d fe34 343e 1aa4 4b3e 9d07 dc3d
00000060: 73e7 da3d ced1 283f a787 f83e 56a4 c03e
00000070: fbab fa3d c2d2 24be 8451 11bf 1014 373e
00000080: 9828 083e 8859 c63d 3824 483e 819c a23e
00000090: d75f f2bd 2d8b 7d3e f003 0d3e ae0e be3e
000000a0: 3090 3c3d 46f4 263f 54f6 303e a397 463e
000000b0: a4d8 a3be cecb bebe 0f7c 0e3f aec4 9a3e
000000c0: dd34 9d3e be8e dbbd e062 3fbe 9f6a 2a3e
000000d0: b1bf 063e 0a6b 19bf a446 353e 2d9e 013e
000000e0: db44 31bd 6767 27be e20e 613e 7296 e4be
000000f0: 2a61 233e bfe5 6ebe 5e82 133e 0b51 84be
00000100: 88b6 543e 7d3b d43e 753d d2be dad7 283f
00000110: b5e6 c9be 9bf5 b6be a60e a03e 77a1 1a3f
00000120: cf7b c93e 9129 25bd 9123 d0bd de0b fdbd
00000130: 03d1 533e bbb1 f73d 9bbf 383e 1f7c f03d
00000140: cb9b e0bd 32ef 863e e076 373e 2613 f3bd
00000150: 1cf8 3c3f 12b0 86be 1c67 76be 87d3 353e
00000160: 7815 f33d 0fcc 04be 15ab 343e ef1d f5bd
00000170: e381 553e d196 01bd 628a 293f 92bb 733e
00000180: 7ab3 babe aabf 30be 0018 ce3e f951 b2bd
00000190: 1f84 193e 3ef8 ff3e 752c 2f3e a634 903e
000001a0: e1f9 0a3e fb72 c4be 8698 1d3e c568 c2bd
000001b0: c7ef d2be 165f cbbe bdf3 953e 4368 823e
000001c0: 8fac 713e 4e1b 6a3d 2ff8 22bf fedb 0d3e
000001d0: 3f36 6abe 57c7 bfbe a7f5 13bf c866 cdbe
000001e0: 64d3 bcbe ec1e b5bd c615 44be 356c 0dbe
000001f0: a22c 20bf b356 27bf a865 b8bd 05e4 2d3f
-0.12776792 0.2889584 -0.13806736 -0.26813674 -0.035345573 -0.0883254 0.44598585 0.08515053
-0.056124497 -0.11677467 0.11790779 0.3751232 0.19357005 0.5771923 -0.10332014 0.15590142
-0.1432036 -0.36536622 0.09182273 -0.08335753 0.038963296 0.1759834 0.19886819 0.107436396
0.10688677 0.65945137 0.48540995 0.37625378 0.12239834 -0.16096023 -0.5676501 0.17878747
0.13296735 0.096850455 0.19545066 0.31760028 -0.11834686 0.24760123 0.13771033 0.37120575
0.046035945 0.6521648 0.17281467 0.19393782 -0.3200122 -0.37264866 0.5565805 0.3022818
0.30704394 -0.10720585 -0.18690062 0.16642235 0.13159062 -0.59928954 0.17702729 0.12657996
-0.043278556 -0.16348039 0.21978334 -0.4464603 0.15955034 -0.23329829 0.144052 -0.2584308
0.20772755 0.41451636 -0.41062513 0.65954363 -0.39433828 -0.35734257 0.31261176 0.60402626
0.3935227 -0.040322844 -0.10163034 -0.12355779 0.206852 0.12094446 0.18041842 0.11742424
-0.10967215 0.26354367 0.17916441 -0.11868887 0.73816085 -0.26306206 -0.2406277 0.17756473
0.11869329 -0.12968467 0.17643388 -0.119686 0.20850329 -0.03163797 0.6622678 0.23802021
-0.36465055 -0.17260614 0.40252686 -0.08707041 0.14991806 0.4999408 0.17106803 0.28165168
0.13571884 -0.38368973 0.15390214 -0.094926395 -0.4119856 -0.39720982 0.2928752 0.2547017
0.23600982 0.057154946 -0.6365995 0.13853452 -0.22872256 -0.37456772 -0.5779671 -0.40117478
-0.36880028 -0.088437885 -0.19148931 -0.13810809 -0.62568104 -0.6536667 -0.090037644 0.67926055
