2_DDQN/dqn/save_model/model.pth.tar (torch_old, 2575 bytes, 4 tensors)

fc1.weight f4 [64, 4]
-0.44594485 1.1302261 5.9418473 1.8653649 -0.42856824 1.7952747 5.3593354 1.4916222
-0.45277172 1.5920695 5.719986 2.2608545 -2.8870637 -0.6114516 2.8655403 0.34891155
0.4285267 1.3370547 4.5434017 1.4363478 1.6178383 -1.2156308 -2.2900765 -0.09929652
-0.61581624 -1.4268556 -4.612109 -1.4132496 0.9076056 -2.388258 -7.748853 -2.0423372
3.5755575 0.3180243 -1.096428 -0.2245767 1.0039016 -2.2510836 -7.5624895 -2.0680773
2.7410297 -1.0392711 -4.4701 -1.3209212 1.8687328 -1.2874728 -4.9783144 -1.4562861
0.7632549 -0.94978595 -2.5933564 -1.1050199 -0.4477497 1.6322591 4.700689 1.5388864
-1.4870204 1.3279245 3.8814185 1.2490115 -0.5716491 0.82200253 2.7767005 1.0499092
0.2483774 -1.9065855 -7.846336 -2.4720721 3.5401113 -0.80849683 -4.26367 -0.8234916
-0.22721067 -2.0440502 -5.675671 -0.8642332 0.77642465 -0.69762206 -2.587162 -1.1487128
-3.782643 0.7087763 4.7268443 0.8168693 0.16229446 1.4665346 5.07108 1.7386504
1.350065 -1.2740064 -3.826901 -1.2721908 1.7775865 -0.8200038 -5.4183946 -1.0708113
1.9799582 2.2966857 7.8146057 1.489834 -1.0 1.2423208 2.7093325 0.90485054
-1.0895954 1.3980442 4.673229 1.4496498 -0.17503619 -1.2634394 -4.698839 -1.4568181
0.36016563 1.499516 4.658755 1.6417216 -1.5577253 1.354596 3.6176887 1.0512723
-1.3202689 0.41662243 3.9897823 1.237653 -0.41341877 1.0843562 2.7068326 1.1856871
-1.5316956 0.7974564 3.255337 1.0429438 -2.328831 0.15628949 3.7975874 1.1234306
1.3232384 -1.013943 -4.217917 -1.3575457 0.6680223 1.5018203 4.7112308 1.427198
0.6443162 1.1549509 4.9203835 1.1801709 -1.3495592 1.2910948 3.9324782 1.3484533
-0.41264656 -1.3731441 -4.8857 -1.4362862 1.9230078 -0.4350351 -3.3662326 -1.0544133
-0.022411412 -2.5659897 -8.861951 -3.3436043 0.51320875 1.3516688 4.436472 1.4354491
4.0154467 0.30679363 -2.0068915 -1.2493491 -0.30550373 -1.2182527 -4.5759387 -1.3825929
0.51353014 1.3887221 4.8299465 1.4049594 -1.1010053 1.6665881 3.066905 1.6427928
4.1774397 0.19277424 -1.2951533 -0.20543648 -2.734808 0.5608577 3.7242775 -0.30242446
-0.68638235 -1.3861911 -4.5601273 -1.3188041 -1.5534725 1.2298045 3.8978555 1.1671821
0.47983453 1.3781552 4.611537 1.3788949 1.1162394 -1.5764976 -3.6064146 -1.4966582
2.8644361 -0.4872982 -2.100773 -0.8369634 0.08555932 -1.4570662 -5.566162 -1.6041857
-0.3193101 -1.5027838 -4.548054 -1.6132183 -1.8777386 1.1814005 4.9217987 1.4200805
-0.6346229 -1.4611218 -4.800718 -1.3223095 0.35978112 1.4253435 4.234741 1.5673261
-1.3165947 1.7244607 3.6975527 1.3999218 -3.3833106 0.25958267 1.7346724 0.17859189
3.4163122 -0.55215377 -4.018956 -0.7743886 -1.0288917 1.4807928 3.355423 1.4680291
-0.7451607 1.5836939 7.2939615 1.2750967 -1.8084048 -1.7505251 -2.8975372 -0.4369036
00000000: e252 e4be 40ab 903f 9d23 be40 47c4 ee3f
00000010: 4c6d dbbe 90cb e53f ad7f ab40 7aed be3f
00000020: b2d1 e7be efc8 cb3f 200a b740 d7b1 1040
00000030: a7c5 38c0 1888 1cbf 0365 3740 89a4 b23e
00000040: da67 db3e 9c24 ab3f 8c63 9140 3fda b73f
00000050: 5315 cf3f ca99 9bbf 9d90 12c0 f95b cbbd
00000060: 22a6 1dbf 34a3 b6bf 6696 93c0 5de5 b4bf
00000070: d758 683f 38d9 18c0 9bf6 f7c0 a7b5 02c0
00000080: efd5 6440 15d4 a23e c157 8cbf 6ff7 65be
00000090: d97f 803f c111 10c0 eaff f1c0 615b 04c0
000000a0: 086d 2f40 d606 85bf 0f0b 8fc0 f213 a9bf
000000b0: a332 ef3f e9cb a4bf 5a4e 9fc0 9567 babf
000000c0: ac64 433f 2c25 73bf 8df9 25c0 4b71 8dbf
000000d0: 733f e5be deed d03f 0b6c 9640 3bfa c43f
000000e0: af56 bebf 6ef9 a93f 2969 7840 9cdf 9f3f
000000f0: 9857 12bf c26e 523f 76b5 3140 6d63 863f
00000100: a556 7e3e fe0a f4bf 2f15 fbc0 6e36 1ec0
00000110: 2f91 6240 a6f9 4ebf fc6f 88c0 58d0 52bf
00000120: eaa9 68be b8d1 02c0 199f b5c0 633e 5dbf
00000130: c4c3 463f 5c97 32bf 1094 25c0 0509 93bf
00000140: d316 72c0 5d72 353f 4f42 9740 591e 513f
00000150: 8530 263e 68b7 bb3f 4a46 a240 198c de3f
00000160: eece ac3f a412 a3bf f2eb 74c0 26d7 a2bf
00000170: f487 e33f c5eb 51bf 7d63 adc0 5810 89bf
00000180: 456f fd3f e6fc 1240 4011 fa40 e1b2 be3f
00000190: 0000 80bf 5e04 9f3f b465 2d40 49a4 673f
000001a0: dd77 8bbf 1df3 b23f 188b 9540 208e b93f
000001b0: b03c 33be 62b8 a1bf e45c 96c0 0479 babf
000001c0: a167 b83e 24f0 bf3f 8514 9540 ef23 d23f
000001d0: 8b63 c7bf 6763 ad3f 3688 6740 1790 863f
000001e0: 92fe a8bf 894f d53e 9858 7f40 6a6b 9e3f
000001f0: a0ab d3be 2fcc 8a3f bf3c 2d40 98c4 973f
00000200: 9a0e c4bf 1a26 4c3f 7157 5040 2f7f 853f
00000210: 910b 15c0 5a0a 203e ac0b 7340 93cc 8f3f
00000220: e05f a93f e2c8 81bf 2df9 86c0 0fc4 adbf
00000230: 8203 2b3f a63b c03f 67c2 9640 6dae b63f
00000240: e8f1 243f 6ed5 933f c873 9d40 d70f 973f
00000250: 5bbe acbf 9842 a53f b9ad 7b40 1e9a ac3f
00000260: 6946 d3be 30c3 afbf a857 9cc0 3ad8 b7bf
00000270: 1f25 f63f ecbc debe 5b70 57c0 04f7 86bf
00000280: 2398 b7bc 2d39 24c0 8dca 0dc1 9dfd 55c0
00000290: a661 033f 7c03 ad3f 94f7 8d40 ccbc b73f
000002a0: 8a7e 8040 0e14 9d3e e970 00c0 acea 9fbf
000002b0: fc6a 9cbe b4ef 9bbf 176e 92c0 cef8 b0bf
000002c0: b676 033f a5c1 b13f ec8e 9a40 b6d5 b33f
000002d0: beed 8cbf c252 d53f 2c48 4440 0947 d23f
000002e0: 96ad 8540 9c66 453e 95c7 a5bf f15d 52be
000002f0: 1807 2fc0 5f94 0f3f 905a 6e40 61d7 9abe
00000300: c1b6 2fbf b66e b1bf 90ec 91c0 93ce a8bf
00000310: 30d8 c6bf 3c6a 9d3f 7776 7940 3966 953f
00000320: dfac f53e 6467 b03f b691 9340 a17f b03f
00000330: efe0 8e3f acca c9bf 7fcf 66c0 7f92 bfbf
00000340: ec52 3740 267f f9be 1173 06c0 3c43 56bf
00000350: ba39 af3d 2581 babf 001e b2c0 f555 cdbf
00000360: 9d7c a3be 385b c0bf a989 91c0 f07d cebf
00000370: bd59 f0bf 2238 973f 607f 9d40 33c5 b53f
00000380: a576 22bf 0a06 bbbf 7b9f 99c0 7041 a9bf
00000390: 3b35 b83e a871 b63f 0083 8740 249e c83f
000003a0: 2d86 a8bf 21bb dc3f b4a4 6c40 a330 b33f
000003b0: 2988 58c0 05e8 843e bf09 de3f cbe0 363e
000003c0: dca4 5a40 f359 0dbf 4a9b 80c0 553e 46bf
000003d0: b9b2 83bf 9e8a bd3f 40bf 5640 61e8 bb3f
000003e0: dac2 3ebf 7bb6 ca3f 2268 e940 5e36 a33f
000003f0: cf79 e7bf 3511 e0bf 4071 39c0 d4b1 dfbe

fc1.bias f4 [64]
-1.2289816 -2.6395454 -0.75216806 -0.63357943 -1.7434542 -0.77325916 1.5706451 3.525166
-0.73915964 3.2895296 2.097349 0.053785324 -1.1048993 -0.7297161 2.255911 0.10736804
1.3399518 1.5037472 0.5398815 -0.37693274 -1.6470637 -2.1519954 -2.2003782 -1.4919683
-1.3336878 0.9413437 -1.3897134 1.9535458 -1.8615743 1.9211041 -1.7691449 1.5152311
1.4589155 -0.034068655 1.607637 -1.3530221 -1.1931723 2.472924 1.9161335 -0.5482077
-2.9908633 -1.5868986 2.7072382 1.8203331 -1.764935 1.678585 -0.8440551 -0.41366524
1.2493392 2.5799668 -1.8100334 -1.6675856 0.31300452 2.3150997 1.9994059 0.053013086
1.2122741 -1.7409184 1.6436006 1.3673369 1.6308845 1.5979912 0.832047 0.6242838
00000000: 454f 9dbf 50ee 28c0 168e 40bf 4332 22bf
00000010: 8229 dfbf 50f4 45bf e60a c93f 529c 6140
00000020: 9139 3dbf a787 5240 f73a 0640 004e 5c3d
00000030: 576d 8dbf adce 3abf d960 1040 c6e3 db3d
00000040: 8a83 ab3f ca7a c03f ad35 0a3f 54fd c0be
00000050: fcd2 d2bf 4bba 09c0 ffd2 0cc0 d1f8 bebf
00000060: 48b6 aabf e7fb 703f 21e2 b1bf ca0d fa3f
00000070: 1148 eebf bde6 f53f 5773 e2bf 18f3 c13f
00000080: bebd ba3f 938b 0bbd 0dc7 cd3f d42f adbf
00000090: dfb9 98bf 6344 1e40 dd43 f53f 5757 0cbf
000000a0: 4e6a 3fc0 7e1f cbbf 6443 2d40 ad00 e93f
000000b0: 64e9 e1bf e0db d63f ff13 58bf eecb d3be
000000c0: 59ea 9f3f 2d1e 2540 2daf e7bf 7273 d5bf
000000d0: 2142 a03e 982a 1440 88ec ff3f 4024 593d
000000e0: cc2b 9b3f 6ad6 debf 8161 d23f e504 af3f
000000f0: d3c0 d03f fa8a cc3f 0801 553f 10d1 1f3f

fc2.weight f4 [2, 64]
-0.9772014 0.91530067 3.9420464 3.5733306 -3.6888535 -4.272592 4.5111165 2.4199321
2.9851909 2.605862 2.5494041 1.9718493 -2.851425 3.82959 4.8701406 2.185447
-1.4834033 2.3404531 3.9919496 -2.9791965 -2.4091003 -3.0963588 -4.858808 3.1872191
3.4929972 3.2658653 -2.5513954 2.6908472 -3.5817406 4.3112884 -2.0799313 2.8501458
3.2632713 3.6679952 2.227582 -5.0654483 -4.466421 5.3505335 3.6943812 -4.8147473
8.338225 -3.9522877 3.8696823 2.760927 -3.9425833 3.8513207 2.221291 4.556863
4.8976736 5.50126 -3.6043463 -3.5206838 2.9232485 2.5814335 3.4725614 -2.2851622
4.9360337 -3.4277983 3.7312684 -2.9700696 2.43137 4.130679 -3.2784662 -1.8844798
4.413522 4.8471723 3.2180474 4.0957136 -4.3838234 -4.344939 4.189891 -4.9291754
2.3527422 -5.5527606 3.3576758 2.953722 -3.5317438 3.111775 4.3830194 2.3467855
-4.2715545 3.6870177 2.8696704 -2.9249527 -4.018007 -4.446776 -4.2195983 1.8817142
3.5893393 3.8265357 -3.2491722 4.6519666 -3.9692645 4.916232 -2.5039918 2.8688812
3.9695818 3.7683735 2.9780211 -3.702661 -3.4873931 4.1745105 4.8884206 -3.8272064
-3.642049 -3.9622467 -0.7197623 4.1469364 -4.453989 3.783185 2.197423 4.15791
3.3862603 4.2970796 -4.53529 -4.2045503 2.3632727 5.3939476 4.62294 -2.76823
3.457399 -3.9211893 4.550091 -2.6766357 3.4172916 3.7736902 -0.9140058 -2.8142097
00000000: df29 7abf 2551 6a3f 7d4a 7c40 73b1 6440
00000010: 2d16 6cc0 13b9 88c0 115b 9040 2be0 1a40
00000020: 5e0d 3f40 71c6 2640 7029 2340 8f65 fc3f
00000030: bf7d 36c0 0118 7540 31d8 9b40 5dde 0b40
00000040: 29e0 bdbf fcc9 1540 1a7c 7f40 28ab 3ec0
00000050: b32e 1ac0 be2a 46c0 5b7b 9bc0 66fb 4b40
00000060: 448d 5f40 f003 5140 104a 23c0 d736 2c40
00000070: 3d3b 65c0 13f6 8940 981d 05c0 ca68 3640
00000080: 70d9 5040 6fc0 6a40 b490 0e40 2718 a2c0
00000090: ecec 8ec0 9237 ab40 be70 6c40 6912 9ac0
000000a0: 5f69 0541 48f2 7cc0 e0a8 7740 07b3 3040
000000b0: 4953 7cc0 0a7c 7640 a229 0e40 d2d1 9140
000000c0: beb9 9c40 520a b040 9cad 66c0 e252 61c0
000000d0: 8116 3b40 3536 2540 723e 5e40 1940 12c0
000000e0: fdf3 9d40 0c61 5bc0 1acd 6e40 9f15 3ec0
000000f0: 919b 1b40 862e 8440 64d2 51c0 a236 f1bf
00000100: 923b 8d40 091c 9b40 7df4 4d40 1610 8340
00000110: 4848 8cc0 be09 8bc0 9613 8640 cebb 9dc0
00000120: 5493 1640 37b0 b1c0 29e4 5640 c809 3d40
00000130: 1708 62c0 5227 4740 b241 8c40 bc31 1640
00000140: 93b0 88c0 19f8 6b40 aea8 3740 6d32 3bc0
00000150: 8393 80c0 fd4b 8ec0 f306 87c0 03dc f03f
00000160: bcb7 6540 f6e5 7440 70f2 4fc0 e9dc 9440
00000170: 6e08 7ec0 c651 9d40 6741 20c0 c09b 3740
00000180: a10d 7e40 082d 7140 e697 3e40 66f8 6cc0
00000190: 7331 5fc0 9795 8540 f16d 9c40 f3f0 74c0
000001a0: 5517 69c0 7395 7dc0 5842 38bf b4b3 8440
000001b0: 1487 8ec0 b41f 7240 94a2 0c40 990d 8540
000001c0: 7db8 5840 ad81 8940 1821 91c0 ad8b 86c0
000001d0: dc3f 1740 389b ac40 20ef 9340 ae2a 31c0
000001e0: 0646 5d40 c4f4 7ac0 589a 9140 004e 2bc0
000001f0: e8b4 5a40 2484 7140 49fc 69bf 031c 34c0

fc2.bias f4 [2]
-1.0463985 0.4608478
00000000: 63f0 85bf 3ef4 eb3e
