DAY 4/1_TRPO/trpo/save_model/model.pth (torch_old, 18931 bytes, 5 tensors)

fc1.weight f4 [64, 3]
0	0x3d9563a5	0.07294396
1	0xbec68a7c	-0.3877753
2	0x3eb88927	0.3604214
3	0xbe1220f8	-0.14270389
4	0x3e500396	0.20313868
5	0x3eb2e922	0.3494349
6	0xbe90f56f	-0.2831225
7	0x3e91d4ae	0.28482574
8	0x3ef0cc18	0.4703071
9	0x3ebdf7d8	0.37103152
10	0x3d585603	0.052816402
11	0x3f0be668	0.5464845
12	0xbe9e95dc	-0.3097371
13	0x3e0ca332	0.13734129
14	0xbed5c3d0	-0.41750956
15	0x3e960d9f	0.29307267
16	0x3e2f8c2d	0.17143317
17	0xbe1d0ec1	-0.1533766
18	0x3e90aace	0.28255314
19	0x3e325e67	0.17418824
20	0x3f0131a8	0.50466394
21	0x3ee1a01b	0.44067463
22	0x3e93cfe7	0.28869554
23	0xbe8b08b5	-0.2715508
24	0xbf46a915	-0.7760175
25	0x3f4a9030	0.7912626
26	0x3ea7e6dc	0.3279332
27	0xbee9e87e	-0.4568519
28	0xbdcc458f	-0.09974205
29	0x3ec81e14	0.39085448
30	0xbe990da9	-0.29893234
31	0xbd47a694	-0.048742846
32	0x3e9cb79b	0.3060883
33	0x3eeaddab	0.45872244
34	0xbf0cef34	-0.55052495
35	0x3e87b7dd	0.26507464
36	0x3ee0aad9	0.43880346
37	0x3e2b2254	0.16712314
38	0x3d9d08c5	0.07667688
39	0xbeec8042	-0.46191603
40	0xbe9da76a	-0.3079179
41	0xbe84e249	-0.25953892
42	0x3e24fcbf	0.1611204
43	0xbf25129a	-0.6448151
44	0xbf08ad97	-0.5338988
45	0x3e4cd228	0.20002043
46	0x3ef94349	0.48684147
47	0xbf4c999c	-0.7992189
48	0xbe49cebe	-0.19707772
49	0x3e1b16bb	0.1514539
50	0xbef9ff48	-0.48827577
51	0x3ad83154	0.0016494193
52	0x3f0fe380	0.5620651
53	0x3d672f25	0.056441445
54	0xbc10b55e	-0.008832304
55	0x3ef6d450	0.48208857
56	0xbd34e3e2	-0.04416264
57	0x3e6e7c85	0.23289688
58	0x3ed006d6	0.40630215
59	0x3f20fa9d	0.62882406
60	0x3e23f2fa	0.16010657
61	0x3da5774c	0.08079395
62	0xbe915466	-0.28384703
63	0x3e4e114e	0.20123789
64	0xbdb74ac5	-0.08949808
65	0x3ec4fadc	0.3847264
66	0x3eb81f63	0.35961446
67	0xbeed5760	-0.46355724
68	0x3ec08844	0.37603962
69	0xbf0bc5b0	-0.5459852
70	0xbe1ca707	-0.15298091
71	0xbe78f992	-0.24313954
72	0x3f13d60d	0.5774849
73	0xbe84be20	-0.25926304
74	0xbe6f650a	-0.23378387
75	0xbeb5844e	-0.35452503
76	0xbf0a6b7a	-0.54070246
77	0xbd353186	-0.044236682
78	0x3f2f9bea	0.6859728
79	0xbf05f18d	-0.523217
80	0xbe845e7a	-0.2585333
81	0x3f44f5aa	0.76937354
82	0x3f12ce8a	0.57346404
83	0x3f2356d3	0.6380436
84	0x3d44a162	0.04800547
85	0xbea97a90	-0.3310132
86	0x3f0737de	0.5281962
87	0x3f6c69e0	0.9234905
88	0x3ed5bbf5	0.41744962
89	0x3e4ccca9	0.19999947
90	0xbed46d7f	-0.4148979
91	0xbee7478f	-0.45171782
92	0x3ef370d9	0.47547033
93	0x3ee4d93b	0.44696984
94	0x3eb8018b	0.35938677
95	0xbed00d63	-0.40635213
96	0x3f021db7	0.5082659
97	0xbeabf7bf	-0.33587453
98	0x3ea239a3	0.31684598
99	0x3aeaeb46	0.00179229
100	0x3e72db99	0.23716582
101	0xbd3c08b7	-0.04590675
102	0x3e881901	0.26581576
103	0x3f02ee1f	0.51144594
104	0xbf394ccc	-0.7238281
105	0x3e967e73	0.29393348
106	0x3f3341be	0.7002219
107	0x3f1efbce	0.62102973
108	0x3e4e5dca	0.20152965
109	0xbe0b4671	-0.1360109
110	0xbeed7f2f	-0.46386096
111	0xbe0a9c1b	-0.13536112
112	0xbe092629	-0.13393463
113	0xbf04b0b5	-0.51832134
114	0x3d0a789b	0.033806425
115	0x3f0743f5	0.5283807
116	0xbe76dfb9	-0.24108781
117	0x3f010462	0.5039731
118	0x3e36015a	0.17773953
119	0x3ea0027e	0.312519
120	0xbddb3440	-0.10703325
121	0xbe8b2f21	-0.27184394
122	0xbe775d64	-0.2415672
123	0x3e36334e	0.17793009
124	0x3dbf7426	0.093483254
125	0x3f09c024	0.5380881
126	0x3ee47731	0.44622186
127	0x3dd3ed5e	0.103480086
128	0xbe0d9ec3	-0.13830094
129	0x3b5fd8a8	0.0034156237
130	0xbe820f85	-0.25402465
131	0x3f063f76	0.52440584
132	0x3a92aab2	0.0011189787
133	0x3edde2a8	0.43336987
134	0xbe68c3e1	-0.22730972
135	0x3e9d8e9e	0.3077287
136	0x3ea71232	0.3263107
137	0xbea670f7	-0.3250806
138	0x3c891718	0.016734645
139	0xbe860ecc	-0.26183164
140	0x3ecacc9e	0.39609236
141	0x3da6bedf	0.081418745
142	0x3e9709e6	0.2949974
143	0x3ec3984a	0.38202125
144	0x3e7877a5	0.24264391
145	0xbedc0cff	-0.42978665
146	0x3e82beac	0.25536096
147	0xbe3739ef	-0.17893194
148	0xbe5c8ea0	-0.21538782
149	0x3dba99a1	0.09111334
150	0x3ef1c462	0.4722014
151	0x3f069b16	0.5258039
152	0xbc80bf58	-0.01571624
153	0x3d7afa85	0.06127407
154	0xbf22b138	-0.63551664
155	0xbf09417f	-0.53615564
156	0x3eed8764	0.46392357
157	0x3f084862	0.5323545
158	0x3eb0fdb7	0.3456857
159	0xbe0e34b9	-0.138873
160	0x3f29f163	0.6638395
161	0x3f0ce8c2	0.5504266
162	0x3d9414d2	0.07230534
163	0xbcc5ffcd	-0.024169827
164	0x3ec63921	0.3871546
165	0xbe90a65b	-0.2825192
166	0xbe81ec2e	-0.25375503
167	0x3e1542cd	0.14576264
168	0x3e9d5609	0.30729702
169	0x3edf8196	0.43653554
170	0xbd82417a	-0.06360145
171	0xbe9bfc38	-0.30465865
172	0xbe03456b	-0.1281945
173	0x3eca9fc0	0.39575005
174	0x3e61f654	0.22066623
175	0xbe160ad6	-0.14652571
176	0x3eb21d4f	0.34787986
177	0xbf028aff	-0.5099334
178	0x3da63c15	0.081169285
179	0x3f0adcec	0.5424335
180	0x3e60ecaf	0.21965288
181	0x3f1fda68	0.62442636
182	0xbea44596	-0.3208434
183	0x3edcce82	0.43126303
184	0x3f2093b4	0.6272538
185	0x3f3c3a82	0.73526776
186	0x3f146e7d	0.5798109
187	0x3cd4746f	0.025934426
188	0xbef333d4	-0.4750048
189	0xbd05b4a8	-0.03264299
190	0xbf0c2349	-0.5474134
191	0xbd1021fc	-0.03518866

fc1.bias f4 [64]
0	0xbeb4021d	-0.35157862
1	0x3e8e8c38	0.27841353
2	0x3e6d5ea5	0.23180635
3	0xbe5b3078	-0.21405208
4	0xbed6d639	-0.41960314
5	0xbecfcaa2	-0.40584284
6	0x3f03fe58	0.5155997
7	0x3eef76fd	0.46770468
8	0x3f7cd0d9	0.98756176
9	0xbe1800b8	-0.14844024
10	0xbe49e13d	-0.19714828
11	0x3e9100e9	0.28321007
12	0xbe81bbe2	-0.25338656
13	0x3eba6321	0.36403754
14	0xbeaa3211	-0.33241323
15	0xbedd3ffb	-0.43212876
16	0x3f04028c	0.51566386
17	0xbe801417	-0.25015327
18	0x3f08f186	0.53493536
19	0xbeedd07a	-0.46448117
20	0x3def7bcc	0.11693534
21	0x3ef12366	0.4709732
22	0xbf049cf1	-0.51801974
23	0xbf357010	-0.7087412
24	0xbf37eff3	-0.7185051
25	0x3d6326a9	0.05545679
26	0x3f11f285	0.5701068
27	0xbf503143	-0.8132517
28	0xbe7f6ddc	-0.24944252
29	0xbf8aba5e	-1.0838125
30	0xbdb5fc2d	-0.08885989
31	0x3e9d1c1d	0.3068551
32	0xbde2d405	-0.11075596
33	0x3d9ca2ff	0.076482765
34	0xbe821a63	-0.25410756
35	0xbe88fd3e	-0.26755708
36	0x3dcd4c31	0.10024298
37	0xbe04f346	-0.12983426
38	0xbee0e01f	-0.4392099
39	0x3ef2daa9	0.4743245
40	0x3db2cd86	0.08730607
41	0x3e9df8f0	0.30853987
42	0x3ea20c13	0.31649837
43	0x3f047706	0.51744115
44	0xbedb14fb	-0.42789444
45	0xbe6c5d88	-0.23082554
46	0x3e2c215a	0.16809598
47	0xbe06a607	-0.13149272
48	0x3ecebe59	0.403796
49	0x3ba586d4	0.005051473
50	0xbe2365d0	-0.15956807
51	0xbeb63cf1	-0.3559337
52	0x3e8e173d	0.27752104
53	0x3e8e89f0	0.27839613
54	0x3eee41ba	0.4653452
55	0x3edcdf36	0.43139046
56	0xbea210a9	-0.31653336
57	0xbe32ec9a	-0.17473069
58	0xbdfe1f23	-0.124082826
59	0x3d7d65c8	0.061864644
60	0xbf0101a3	-0.5039312
61	0xbe68f0fc	-0.22748178
62	0x3e110a8f	0.14164184
63	0x3d7b9d3a	0.06142924

fc2.weight f4 [64, 64]
0	0x3da4e2d5	0.08051077
1	0x3d91805a	0.07104559
2	0x3d7be3f5	0.061496694
3	0x3ce5c587	0.02804829
4	0xbd42c92e	-0.04755514
5	0xbd8f72c8	-0.07004315
6	0x3e07ac48	0.13249314
7	0x3d6a1c6e	0.05715602
8	0xbb532e7d	-0.0032223754
9	0xbbe45f44	-0.0069693644
10	0x3e0a34c5	0.13496692
11	0x3df4dcc9	0.11956174
12	0xbd236397	-0.0398899
13	0x3bd4d991	0.0064956625
14	0xbc09b34c	-0.008404564
15	0x3d51590b	0.05111031
16	0xbc8cac4e	-0.017172005
17	0x3e036a0d	0.12833424
18	0x3ca1b86f	0.019741265
19	0xbd6318d2	-0.055443592
20	0xbdf22362	-0.11823155
21	0x3d1094c0	0.03529811
22	0xbd9e0e35	-0.077175535
23	0x3ac210b4	0.0014806003
24	0x3da18d52	0.07888283
25	0x3cc72d0d	0.024313474
26	0xbe052cca	-0.13005367
27	0x3d2f5703	0.04280759
28	0xbcb7494b	-0.022373816
29	0x3b3d57c8	0.0028891433
30	0xbb21777f	-0.0024637876
31	0x3db9da69	0.090748616
32	0x3dab9478	0.083779275
33	0x3dcf69b6	0.10127585
34	0x3dec6fa4	0.11544731
35	0x3d04e60a	0.032445945
36	0xbe014942	-0.12625602
37	0x3d5e0864	0.05420722
38	0x3cb2ca00	0.021824837
39	0xbd764d23	-0.060132157
40	0xbd06223f	-0.032747503
41	0xbda58556	-0.080820724
42	0x3c694297	0.014237068
43	0x3df2d84e	0.11857663
44	0xbdea0c46	-0.11428122
45	0x3d7c754f	0.06163531
46	0x3e0d827d	0.13819309
47	0x3e1c02eb	0.15235488
48	0x3e0ac182	0.1355038
49	0x3db082b0	0.08618677
50	0xbdd49627	-0.10380202
51	0xbd70de9a	-0.05880604
52	0x3ca72309	0.020402448
53	0x3de5c29e	0.11218761
54	0x3e036e88	0.12835133
55	0xbd61ca52	-0.05512459
56	0x3d9b80a8	0.075928986
57	0x3b86dbbe	0.004115551
58	0x3d00c6c3	0.031439554
59	0x3c648eea	0.013950089
60	0x3ccff3be	0.02538478
61	0x3deb328a	0.11484249
62	0xbd0a665c	-0.033789024
63	0xbe012148	-0.12610352
64	0xbd9f5d7c	-0.077815026
65	0xbdb9aca7	-0.09066134
66	0x3dc6266e	0.09675299
67	0xbb94ffb0	-0.004547082
68	0x3db57375	0.08859912
69	0xbb9b67e0	-0.0047426075
70	0x3db2c273	0.087284945
71	0xbe010808	-0.1260072
72	0xbda09c79	-0.07842345
73	0x3db8fefb	0.09033009
74	0xbd0c435f	-0.034243938
75	0xbd95bbd4	-0.07311216
76	0x3d8865c9	0.06660039
77	0xbcdfb189	-0.027306335
78	0x3d2e1835	0.042503554
79	0xbcff6d4a	-0.031180043
80	0xbdff3ca3	-0.124627374
81	0xbbe91653	-0.007113257
82	0xbde7bb81	-0.113150604
83	0xbdd19fc4	-0.10235551
84	0x3d170f2d	0.036879707
85	0x3d29fb63	0.041499507
86	0xbdc317ae	-0.09526001
87	0x3d636525	0.05551638
88	0x3a87a4d9	0.0010348811
89	0xbd2a87d9	-0.04163346
90	0xbe138434	-0.144059
91	0xbd0523b4	-0.032504752
92	0x3b4af39c	0.0030967956
93	0xbd3a912f	-0.045548614
94	0x3dfa252f	0.122141235
95	0xbc2c1224	-0.010502372
96	0xbc7c9658	-0.015416704
97	0xbcea96e1	-0.028636398
98	0xbd485e12	-0.048917837
99	0xbdc544aa	-0.09632237
100	0xbaee029b	-0.0018158735
101	0x3d7557b1	0.059898082
102	0xbcb1dbbc	-0.021711223
103	0xbd90748f	-0.07053482
104	0x3de8e08e	0.113709554
105	0xbc17dcf6	-0.00926899
106	0x3d88f9ad	0.06688247
107	0xbde8b21e	-0.11362098
108	0x3cd6afea	0.02620693
109	0x3dbd1e85	0.09234337
110	0xbd3946a0	-0.04523337
111	0xbce863f7	-0.02836798
112	0x3ca9c7ea	0.02072521
113	0xbd3ce5a4	-0.04611744
114	0x3d308819	0.043098543
115	0xbc4c1193	-0.012455362
116	0x3e13224c	0.14368552
117	0xbd86b4b1	-0.06577433
118	0x3cb547a1	0.022128882
119	0xbd1f99c6	-0.03896501
120	0x3dd06d51	0.101771004
121	0x3db585f1	0.08863438
122	0xbc95370f	-0.01821473
123	0xbc67e233	-0.014153051
124	0xbbfac81c	-0.0076532494
125	0x3d8ae570	0.06782043
126	0xbdc3ab4f	-0.09554159
127	0x3b39d264	0.0028354162
128	0x3dac7d57	0.08422344
129	0x3d99d338	0.0751099
130	0x3dd05cda	0.1017396
131	0xbd8fd225	-0.07022504
132	0xbcf87680	-0.030329943
133	0x3c1563cb	0.009118031
134	0x3d21adbf	0.039472338
135	0xbdef9ab8	-0.11699432
136	0x3d8c6ee1	0.06857086
137	0x3ddb501c	0.10708639
138	0xbde9b9af	-0.114123695
139	0x3da44d32	0.08022536
140	0x3d1f1413	0.038837504
141	0x3b03e5a0	0.002012588
142	0xbcd9f203	-0.026604658
143	0x3d0fbc8a	0.035091914
144	0xbd7daf67	-0.061934855
145	0xbda3e10b	-0.08001908
146	0xbdb27492	-0.0871364
147	0x3dbc7516	0.0920202
148	0xbdd661bb	-0.10467859
149	0xbe034a67	-0.12821351
150	0xbd5324dd	-0.051548827
151	0xbc983939	-0.018581973
152	0xbd885300	-0.06656456
153	0xbd9638fc	-0.07335088
154	0x3de8d761	0.11369205
155	0x3e0f72db	0.14008658
156	0x3c52a3f8	0.012856476
157	0x3dd91cf8	0.106012285
158	0xbdcfba0c	-0.101429075
159	0xbd024a8a	-0.031809367
160	0xbdc75d8f	-0.09734642
161	0x3de50b2b	0.11183771
162	0xbd2765bc	-0.040868506
163	0xbca57932	-0.020199392
164	0x3ddcdca2	0.1078427
165	0xbca72fa1	-0.020408453
166	0x3be4d59b	0.0069834716
167	0xbcdf1e76	-0.027236205
168	0x3db9e8a2	0.09077574
169	0xbd53796c	-0.05162947
170	0xbd912c5e	-0.070885405
171	0x3ce8069f	0.02832347
172	0x3cce9f06	0.025222313
173	0x3ad68b3f	0.0016368403
174	0xbd640fcd	-0.05567913
175	0x3dd77198	0.10519713
176	0xbd989860	-0.07450938
177	0xbd6e6008	-0.05819705
178	0xbd79a872	-0.060951658
179	0xbd8a9a91	-0.067677625
180	0xbcdd36fc	-0.027003758
181	0x3d59a5e8	0.053136736
182	0xbd8a29a2	-0.06746222
183	0xbd80226c	-0.062565655
184	0xbde2dadf	-0.110769026
185	0xbdeee86a	-0.11665423
186	0x3da788a3	0.08180358
187	0xba5ba510	-0.0008378783
188	0x3b1bf524	0.0023797238
189	0x3d28144e	0.04103499
190	0x3dd04fc3	0.10171463
191	0x3dce1456	0.100624725
192	0xbd8ab63d	-0.067730404
193	0xbd4175b2	-0.047231384
194	0x3b3f8627	0.0029224248
195	0x3d4d9d70	0.050198972
196	0xbe0b3221	-0.13593341
197	0x3e15cdcc	0.14629287
198	0xbd8bfd28	-0.06835395
199	0x3d55ed38	0.052228183
200	0xbe31fd92	-0.17381886
201	0x3df88987	0.12135606
202	0x3dfb17c7	0.122603945
203	0x3dbe865e	0.09302972
204	0xbd3b341e	-0.045704
205	0xbd636577	-0.055516686
206	0xbde1305e	-0.109955534
207	0xbd998a28	-0.07497054
208	0x3d6c23fa	0.057651497
209	0x3e09c1d0	0.1345284
210	0xbd3368a5	-0.04380097
211	0x3d9d8015	0.07690445
212	0x3c814727	0.015780998
213	0x3d2ef19f	0.042710897
214	0x3d0d6042	0.034515627
215	0x3d4434a4	0.047901765
216	0x3db580ff	0.08862495
217	0xbe151030	-0.14556956
218	0xbdee4504	-0.116342574
219	0xbe5f7220	-0.21820879
220	0x3d9dcacf	0.07704698
221	0xbe5b5a13	-0.2142108
222	0x3e078e07	0.13237773
223	0x3dbe129b	0.092808925
224	0xbdb4a100	-0.08819771
225	0x3e15d8b5	0.14633448
226	0xbdd793bc	-0.10526225
227	0xbd6cd7f0	-0.05782312
228	0xbd8c1917	-0.06840723
229	0x3d0b434d	0.03399973
230	0xbcb4d50a	-0.022074241
231	0x3e314055	0.17309697
232	0x3dcc9790	0.09989846
233	0x3d8e1c00	0.06938934
234	0x3daad1cf	0.08340799
235	0x3c924b59	0.017858194
236	0x3c045191	0.008076088
237	0x3d5c9282	0.05385066
238	0x3a861109	0.0010228466
239	0xbcedc3da	-0.029024053
240	0xbd3b0450	-0.04565841
241	0xbb6dd5cd	-0.0036290765
242	0x3db3d1da	0.087802604
243	0x3dd03a87	0.10167413
244	0xbd883a26	-0.06651716
245	0x3d8f594a	0.069994524
246	0xbaadeef4	-0.0013270066
247	0xbd9fd230	-0.07803762
248	0x3dec746c	0.11545643
249	0x3e18b392	0.1491225
250	0xbc73f00d	-0.014888776
251	0x3ddb1384	0.10697082
252	0x3d9d1564	0.076700956
253	0x3d36d366	0.0446352
254	0xbd2ea9da	-0.04264245
255	0x3cf81173	0.030281758

fc2.bias f4 [64]
0	0xbe1099e5	-0.14121206
1	0xbc9aaeae	-0.018882122
2	0x3d3430c5	0.043991823
3	0xbb824554	-0.0039755497
4	0xbd81138b	-0.06302556
5	0x3d5ba311	0.05362231
6	0x3dcf7ba1	0.10131002
7	0xbdf64bfd	-0.12026212
8	0x3dd503b9	0.10401101
9	0xbd8c5c60	-0.06853557
10	0x3d3ba27f	0.045809265
11	0xbbb35fa8	-0.0054740496
12	0x3e37a255	0.17933019
13	0xbd7d9336	-0.06190797
14	0xbca16a3e	-0.01970398
15	0xbd7fca93	-0.06244905
16	0xbd4214ed	-0.047383238
17	0x3db2a2cf	0.087224595
18	0x3dd57f4d	0.10424671
19	0xbd7874b1	-0.06065816
20	0xbc0c048a	-0.008546004
21	0xbbb45bb8	-0.005504098
22	0x3bed0db5	0.0072343
23	0xbcdb9417	-0.026804013
24	0x3ce9a004	0.028518684
25	0x3cac216a	0.021012027
26	0x3e14885c	0.14505142
27	0xbe1a31a6	-0.15058002
28	0xbc7080be	-0.014679132
29	0x3c5be84d	0.013422084
30	0xbb6b5831	-0.003591072
31	0xbd459342	-0.04823614
32	0xbb6eb766	-0.0036425232
33	0xbd91eba0	-0.0712502
34	0x3e04be10	0.12963128
35	0x3e04e512	0.12978008
36	0x3c8a7ae5	0.016904304
37	0x3e3909db	0.18070166
38	0xbb7f3eb3	-0.0038947284
39	0x3c094509	0.008378276
40	0xbb3224ec	-0.0027182652
41	0x3d6c42be	0.057680838
42	0xbdbb0bec	-0.09133133
43	0xbd0e6d9b	-0.034772497
44	0xbd35be5e	-0.044371
45	0x3e0098bd	0.12558265
46	0xbd6f892f	-0.058480438
47	0x3c6d0163	0.014465663
48	0x3d8fdbeb	0.07024368
49	0x3b33edbe	0.0027454938
50	0x3dcb4a10	0.09926236
51	0x3d471c3a	0.048610903
52	0xbe1723d8	-0.14759767
53	0xbbfed439	-0.0077767638
54	0x3d33e79b	0.043922048
55	0x3e12c982	0.14334682
56	0xbd752191	-0.059846465
57	0xbd0ff5dd	-0.035146583
58	0xbda9fbdc	-0.082999915
59	0x3dce3c99	0.10070152
60	0xbcc97954	-0.024593987
61	0x3d821acd	0.06352768
62	0xbddfc240	-0.10925722
63	0x3db60c95	0.088891186

fc3.weight f4 [1, 64]
0	0xba302cd0	-0.0006720545
1	0x3e266c2e	0.16252205
2	0xbe336860	-0.17520285
3	0x3ec9190f	0.3927693
4	0xbe7dc29d	-0.2478127
5	0xbd89db23	-0.0673125
6	0x3cafd95f	0.021465955
7	0x3e95e264	0.29274285
8	0xbe544523	-0.20729499
9	0x3ead3db2	0.33836132
10	0xbe7103b1	-0.23536564
11	0x3e3345c1	0.17507078
12	0x3dafa4b6	0.08576338
13	0xbe140e85	-0.14458664
14	0xbb8ffaa7	-0.0043938938
15	0xbdf007d5	-0.11720244
16	0x3d2d8587	0.04236367
17	0xbee7d004	-0.4527589
18	0xbb4f8120	-0.0031662658
19	0x3e434934	0.19070894
20	0xbdd2d9fa	-0.10295482
21	0x3d80776b	0.06272777
22	0xbecbaf75	-0.397823
23	0x3f07549c	0.5286348
24	0xbda29178	-0.07937902
25	0xbd9c54d9	-0.07633371
26	0xbe23f5da	-0.16011754
27	0xbe7324e3	-0.2374454
28	0x3d892157	0.06695812
29	0x3caf3333	0.021386718
30	0x3f00a9d7	0.50259155
31	0xbeff14dd	-0.49820605
32	0x3f69998e	0.9124993
33	0xbf5a3c10	-0.852479
34	0x3e5d1605	0.21590431
35	0xbe15af02	-0.14617541
36	0x3e0d030a	0.1377069
37	0x39260a20	0.00015834766
38	0xbeb9cc38	-0.3628862
39	0x3eb5a35b	0.35476193
40	0xbdb3090e	-0.087419614
41	0xbba21082	-0.0049458155
42	0xbe7314a9	-0.2373835
43	0xbd3d8893	-0.046272825
44	0x3ed4a97c	0.41535556
45	0xbe6c7dcc	-0.23094863
46	0x3e1f7657	0.15572487
47	0x3e57ba08	0.21067059
48	0xbd9b1db0	-0.07574022
49	0xbe6a7f83	-0.22900204
50	0x3e04175b	0.12899534
51	0xbe0411bd	-0.12897392
52	0x3f0635f6	0.5242609
53	0xbef8acf8	-0.48569465
54	0x3e953f00	0.29149628
55	0xbe3cfc02	-0.18455508
56	0x3e124c37	0.14286886
57	0xbe2511fa	-0.16120139
58	0xbec9faec	-0.3944925
59	0xbf0e1bd1	-0.55511194
60	0xbe33cc7f	-0.17558478
61	0x3e5e30fe	0.21698377
62	0xbd8a41b1	-0.06750811
63	0xbe3946fa	-0.18093482
