2_DQN_DDQN/dqn/save_model/model.pth.tar (torch_old, 2575 bytes, 4 tensors)

fc1.weight f4 [64, 4]
00000000: aa84 0bc0 4a09 b2bd 32ee debe b11b e73e
00000010: 87e3 16be abad db3f d853 b940 ee89 d53f
00000020: ef68 a2bc 713f d73f 149c b640 0157 c23f
00000030: 8b5e a8c0 9465 eebf 18e8 c0c0 19b8 42c0
00000040: 9295 c040 d28a 8e40 3792 3241 8da8 5440
00000050: b3c1 0a40 2f11 e7be 0b34 67be dd07 31bf
00000060: 6c92 61bf ca1f 3dbe 7f2d 73c0 6046 fabe
00000070: fa41 37c0 a649 febf 983a 8dc0 6059 9cbf
00000080: cd6f aa40 23d0 6e40 3a2f c440 4f54 0140
00000090: 6868 28be 7880 14c0 7734 8ec0 324c 93bf
000000a0: a02c 73bd c6f0 3fbf 3e6f 96c0 dcf9 c6bf
000000b0: 7741 cb3f 8a59 dabe 9931 b9be dc17 27bf
000000c0: 29ed 22bc c17b b3bf 5cc1 c0c0 1798 a8bf
000000d0: e742 5dbe 3dcc d63f 19a5 b940 eff5 c33f
000000e0: f1fd 52bf b0ea 1b40 b2ee 4f40 1c0f 0640
000000f0: 06b6 423f 30fb 733f 5e97 82bf 5965 1dbf
00000100: b5ec dc3e 2198 03c0 ff5c b4c0 91c7 f0bf
00000110: c1fa ef3f 04c4 a2bf b798 b4bf 897f 8fbf
00000120: 4570 cf3d 6f58 56c0 7223 12c1 ae1b 39c0
00000130: 0d5d 9c3f 3234 bbbf d573 35c0 fa27 afbf
00000140: 8970 53bf 4877 8b3f 71c3 ae40 8f10 0c40
00000150: 8f34 b03f 53f2 1940 a7a6 cb40 7fda de3f
00000160: 728a 143f 194f 37c0 7196 8dc0 25a8 16c0
00000170: 3343 1440 e6e9 7dbe c196 d6bf 4733 ef3e
00000180: bece ef3e e713 483f 6e99 c340 3748 813f
00000190: ae76 393d a477 be3f b2b3 bf40 c21c b33f
000001a0: ff5c cbbf b87c 363f 8bdf 833f c2cd 5c3f
000001b0: 557f 0cbf 0cf2 12be 11cf 75c0 f0c1 6bbf
000001c0: 3ab5 c03e 16a4 0d3f b4b4 9040 b2c2 ad3f
000001d0: c429 c4bf e06a 5b40 360f a340 97c6 1440
000001e0: 2152 ffbf c291 93bc 94b0 c4be 9ec2 8f3e
000001f0: 0568 bb40 0b46 723f b6b6 46c0 68c7 d8bd
00000200: 866f 66bf 2d6f 1440 29ff 2140 ca19 f73f
00000210: 14b7 32bf e6ec 6c40 5224 9040 e639 4240
00000220: b3ec c53f 5adc 19bf 84d3 1bbf 3c50 50bf
00000230: 5a6e 9a40 2ea1 8a40 b33e 2e41 479a 7140
00000240: 5ad7 263f 94dc 333e 575b 8e40 1f76 5b3f
00000250: 435b adbf a912 e23f 68a9 6e40 ee7a d53f
00000260: 7620 3cbf 137f a7be 214d 87c0 5e4a 47bf
00000270: 4d9c 8e40 8024 e73f b60b 4540 22f6 ce3f
00000280: d127 1240 998e 383f fd6e 4740 1de7 96bd
00000290: c662 5c3f c20c 003e 15a9 6140 8e95 e23e
000002a0: 566f d53f 285c f4bd b615 b8bf 80f3 0bbf
000002b0: 3ea8 6cbf 58a0 673e 782b 47c0 0fb3 d2bd
000002c0: 319f 433f 2bd0 d13e 2497 8b40 97ed 1f3f
000002d0: 010a 15bf 8612 1c40 9ff5 b240 a826 0840
000002e0: 0314 cf40 7dd4 633f 07eb 8ebf cee8 2d3e
000002f0: 4dfa c9c0 90df 12c0 7f5c 95c0 1fb9 0ac0
00000300: 59ec eebe 6617 55be c748 87c0 5892 89bf
00000310: c57e b8bf 3753 e53f d975 7740 cecb da3f
00000320: 7e60 6e3f 51fa 763e 5e9d 6f40 4bae 923e
00000330: c60c 0b3f 768a 20c0 f91f c9c0 30cf 0bc0
00000340: 51bf 3a40 8707 fcbe 95c6 32bf e31b 40be
00000350: f201 3cbe ec6f 1abf 5cd9 b0c0 8b13 a6bf
00000360: 5e9e 24bf 04cf 08bf 95e1 81c0 ef19 7cbf
00000370: e99f c5bf b29a abbe f166 cf3d f40d 783e
00000380: b9cc 17c0 361a 53c0 77d2 2bc1 8657 69c0
00000390: e3c5 7840 3e3d 8d40 cd4f 2741 c9a7 5c40
000003a0: 039e 95be 283f 1740 7c96 bc40 753e 0140
000003b0: ea81 7fc0 89d2 583e 2413 e13f 0b43 7cbf
000003c0: 8c9c a43f ecdd 96be 43b1 8abf ad98 95bf
000003d0: b473 d7be 2598 ea3f aae8 bb40 3f1c d33f
000003e0: f423 553d ca07 a83f 18ee 7440 21a5 0240
000003f0: 766a 42c0 3e0e 23bc 2890 0640 3c6c 583e
-2.1799722 -0.08693178 -0.43541104 0.45138314 -0.14735232 1.7162374 5.791485 1.6682718
-0.019825427 1.6816236 5.7065525 1.5182801 -5.261541 -1.8624749 -6.0283318 -3.0424864
6.018258 4.454446 11.160697 3.3227875 2.1680725 -0.45130298 -0.22578447 -0.69152623
-0.8811405 -0.18469158 -3.7996519 -0.48881817 -2.863402 -1.9866226 -4.4134026 -1.2214775
5.3261476 3.7314537 6.130765 2.0207708 -0.16446078 -2.320341 -4.4439044 -1.1507628
-0.05936873 -0.74976766 -4.7010794 -1.5545001 1.5879353 -0.42646438 -0.36170653 -0.6527078
-0.009944239 -1.4022142 -6.0236034 -1.3171414 -0.21607552 1.6781079 5.8014035 1.5309428
-0.82418734 2.4361992 3.2489438 2.0946722 0.76058996 0.95305157 -1.0202444 -0.6148277
0.43149343 -2.0561602 -5.636352 -1.8810903 1.8748399 -1.2716069 -1.4109105 -1.1210796
0.101288356 -3.3491476 -9.133654 -2.8923144 1.2215897 -1.4625304 -2.8351948 -1.3684075
-0.8259359 1.0895777 5.4613576 2.1885107 1.376604 2.4054153 6.3640933 1.741043
0.5802375 -2.8642027 -4.4246144 -2.3540127 2.3166015 -0.24796256 -1.6764756 0.4671881
0.4683742 0.7815537 6.112479 1.0100163 0.045279197 1.4880261 5.9906855 1.3993151
-1.5887755 0.71284056 1.0302595 0.8625146 -0.54881793 -0.14350146 -3.8407633 -0.920928
0.37638265 0.553285 4.5220585 1.3575041 -1.5325246 3.4283981 5.095607 2.324621
-1.9946939 -0.018013839 -0.38415968 0.2807817 5.8564477 0.9463813 -3.1049018 -0.10584909
-0.9001392 2.3192856 2.5311987 1.9304745 -0.69810605 3.7019591 4.5044336 3.0347838
1.546286 -0.60101855 -0.6086962 -0.8137243 4.8259706 4.3321753 10.890307 3.7750413
0.6517235 0.17564613 4.44865 0.85727113 -1.3543476 1.7661945 3.7290897 1.667814
-0.7348703 -0.32714137 -4.228165 -0.7784785 4.4565797 1.8058014 3.0788398 1.6168864
2.2836802 0.72092587 3.1161492 -0.073683 0.86088216 0.12504867 3.525945 0.44254726
1.6674602 -0.1193164 -1.4381626 -0.54668427 -0.9244422 0.2261976 -3.1120281 -0.10288059
0.7641478 0.40979132 4.3622 0.6247191 -0.5821839 2.4386306 5.592483 2.1273594
6.471193 0.88996106 -1.1165475 0.16983339 -6.3118043 -2.2948952 -4.667541 -2.167549
-0.46664694 -0.20809707 -4.227634 -1.0747786 -1.4413687 1.791602 3.8665679 1.7093446
0.93115985 0.24118926 3.74398 0.286486 0.54316366 -2.508451 -6.285153 -2.1845207
2.917927 -0.49224493 -0.6983426 -0.18760638 -0.18360117 -0.6032703 -5.526533 -1.2974714
-0.6430415 -0.5344088 -4.058787 -0.9847707 -1.5439426 -0.3351646 0.101270564 0.24224073
-2.3718703 -3.2984748 -10.738883 -3.645967 3.887078 4.413726 10.456983 3.4477408
-0.29222116 2.3632298 5.8933697 2.019437 -3.9923043 0.21174063 1.7583966 -0.985398
1.2860274 -0.29466188 -1.0835346 -1.1687218 -0.42080462 1.8327681 5.8721514 1.6492995
0.05203624 1.3127377 3.827032 2.0413287 -3.0377479 -0.009952126 2.1025486 0.21135038

fc1.bias f4 [64]
00000000: adeb babe 1c00 a03f 00f7 c23f 9a9a abbe
00000010: 1002 91bf 9cfb 703e 8cf9 0940 a459 84bf
00000020: bff7 9abf 1633 d23f d232 0140 12d6 1340
00000030: fc26 b9bf 3e7c c83f b9ba f03f c52d d83e
00000040: e4d2 88bf 10fe 3240 6162 cebf 663b 09c0
00000050: 2715 08c0 c1d2 92bf 7b4d 9cbf 1609 973e
00000060: 4f92 b33f 4f55 c33f 14bc 13c0 6c07 d73f
00000070: a63c f9bf 4b53 f7be 89f5 ddbd 48f9 05bf
00000080: 2e86 f03f 41a7 f33e e52c 0f40 19f2 1cbe
00000090: d56a f3bf 758c 2040 26a6 0640 f5b9 373f
000000a0: 5cd9 923f c669 05c0 e8ba ec3f 3b70 fd3f
000000b0: 5169 12c0 c226 833f 4303 7ebd e003 983f
000000c0: 12da d23f 33b3 2b40 e194 14c0 8e8f 73bf
000000d0: 2fca 49be 069b 0a40 9e48 0c40 58ff e2bf
000000e0: 2885 97bf 64d9 c8be 8ead a33f 1a9e a53e
000000f0: d87c f23f 81e2 c63f bc03 61bf 6306 c03e
-0.3650793 1.2500033 1.5231628 -0.3351639 -1.1328754 0.23533481 2.1558561 -1.0339856
-1.2106856 1.642184 2.0187268 2.3099408 -1.4465022 1.5662916 1.8806983 0.4222242
-1.0689359 2.7967567 -1.6123773 -2.1442504 -2.126291 -1.1470567 -1.2211145 0.2949912
1.4029025 1.5260409 -2.3083544 1.679914 -1.9471633 -0.48305735 -0.10837848 -0.523335
1.8790948 0.47588542 2.2371151 -0.15326728 -1.9016978 2.5085728 2.103891 0.7176812
1.1472583 -2.084581 1.8494539 1.9799875 -2.287678 1.0246203 -0.06201483 1.1876183
1.64728 2.6828125 -2.3215868 -0.9514092 -0.19706033 2.1657119 2.1919322 -1.7734175
-1.1837511 -0.39228356 1.278734 0.32347184 1.8944349 1.5537874 -0.87896323 0.37504873

fc2.weight f4 [2, 64]
00000000: c7a7 1a40 2b14 1340 0ddb 5840 1a93 a93f
00000010: 5395 2ac0 5152 65c0 5dda 5b40 c1f9 2f40
00000020: fb13 dfbf 5c34 1c40 e24b 2240 0005 4540
00000030: 60db 35c0 5454 7040 3630 7740 bb32 973f
00000040: a6fa 18c0 1552 7740 86da 5740 72d5 6ac0
00000050: 86d3 10c0 a644 1a40 5466 81c0 869f 1b40
00000060: c70b 6140 beaf 4d40 b809 77c0 764a 3840
00000070: 46fa 31c0 3482 4c40 e32e 0c40 c47a d13f
00000080: 9fdd 5b40 596d 4140 ea91 6040 07b7 4dc0
00000090: ff73 37c0 4e0c 9340 b07f 5540 acf9 58c0
000000a0: 9110 0940 4b5c 44c0 8370 5040 7835 3040
000000b0: 744c 36c0 1fac 7340 7b75 fa3f ad85 4040
000000c0: 14ae 4940 ee72 9040 3bdb 3cc0 4a83 74c0
000000d0: 5dfd 2e40 7c8a 1640 ba7d 4840 5cc5 2cc0
000000e0: 7f77 2d40 ae28 28c0 1c20 5840 d06a e7bf
000000f0: 454d 4e40 8b21 8940 74a2 45c0 97d3 0ac0
00000100: 3253 2840 e85e 5a40 3d08 6f40 32ce 7c3f
00000110: 9354 25c0 4487 12c0 7b90 4d40 650a 6fbe
00000120: 6a8c 61c0 f05f 24c0 7e31 3840 6552 7a40
00000130: 1423 4fc0 37de 6240 ddcc 8d40 990e 373f
00000140: 5dcf 4ac0 957e 9b40 9279 20c0 1bbf 49c0
00000150: 8c4e 70c0 c1bb 3040 1962 62c0 052d f93f
00000160: 73a7 4840 a957 5c40 4733 80c0 5fc1 1940
00000170: 8ac4 26c0 7fcd 7b40 ea90 1340 3db7 b13f
00000180: c8ec 7c40 834c 7640 4004 7540 716a 38c0
00000190: 771f 1fc0 55ee 8440 bd6d 4d40 24be 23c0
000001a0: 7cfb 2bc0 ebe2 38c0 b12d 313e 707c 2040
000001b0: bb58 56c0 87e8 3d40 0869 de3f ea1e 3a40
000001c0: 0c21 2540 f11e 8940 46f1 57c0 d2a1 5bc0
000001d0: 4f58 1540 448d 4a40 a666 4f40 983b 58c0
000001e0: 7fd5 2540 4857 2bc0 5ab9 7440 3360 86bf
000001f0: 042b 5b40 5f77 5e40 c80b d6be e285 00c0
2.4164903 2.298106 3.3883698 1.3248017 -2.665364 -3.5831492 3.4352028 2.7496188
-1.7427973 2.4406958 2.5358815 3.0784302 -2.8415146 3.755147 3.8623176 1.1812357
-2.3902984 3.864385 3.3727126 -3.6692777 -2.2629104 2.41044 -4.043741 2.4316115
3.5163438 3.2138515 -3.8599682 2.8795447 -2.7809005 3.195447 2.1903617 1.636559
3.4354017 3.022299 3.508906 -3.214296 -2.8664548 4.595252 3.3359184 -3.3902388
2.1416361 -3.068133 3.2568672 2.7532635 -2.8484163 3.8073804 1.9567102 3.008159
3.15125 4.5140295 -2.9508808 -3.8205132 2.734214 2.3522024 3.1326737 -2.6995459
2.7104185 -2.627483 3.3769598 -1.8079472 3.2234662 4.2853446 -3.0880404 -2.1691644
2.6300778 3.4120426 3.7348778 0.9875213 -2.583287 -2.289506 3.2119434 -0.23343809
-3.5241952 -2.5683556 2.8780208 3.911279 -3.236516 3.544813 4.4312577 0.7150665
-3.1689065 4.859202 -2.50742 -3.1522892 -3.7547941 2.7614596 -3.5372374 1.9466864
3.1352203 3.4428504 -4.0062594 2.4024274 -2.6057458 3.9344175 2.3057199 1.3884045
3.951952 3.84842 3.8283844 -2.8814967 -2.4862955 4.1540933 3.209823 -2.5584803
-2.6872244 -2.88885 0.17302586 2.507595 -3.3491657 2.9673173 1.7375803 2.9081368
2.580142 4.285027 -3.3741012 -3.4317517 2.333515 3.1648722 3.2406402 -3.3786373
2.5911558 -2.6772022 3.823813 -1.0498108 3.4245005 3.4760358 -0.41805863 -2.0081716

fc2.bias f4 [2]
00000000: 8332 0fbe 72c9 e1be
-0.13984112 -0.44099003
