4_TRPO/trpo/save_model/model.pth (torch_old, 18931 bytes, 5 tensors)

fc1.weight f4 [64, 3]
0.12525952 -0.39255494 0.34853458 -0.32396746 0.14684917 0.13213456 -0.36456066 0.40034395
0.21486807 0.3071848 -0.03357513 0.4777599 -0.33978388 0.012130631 -0.5835045 0.23373136
0.24178404 -0.1055898 0.42087418 0.2737078 0.34014538 0.6069838 0.11217038 -0.3698159
-0.69231933 0.4864148 0.2949148 -0.4516622 -0.09031258 0.329785 -0.34508365 -0.044579823
0.35592765 0.4424131 -0.36590302 0.8133314 0.47339565 0.3306714 0.0900083 -0.54361856
-0.15210655 -0.27271628 0.48212802 -0.688348 0.09901264 0.36347926 0.287801 -0.3964527
-0.31600964 0.045450624 -0.16704994 0.10794248 1.3681368 0.5166675 0.121216856 0.4130878
-0.32784975 -0.008624676 0.38275236 0.5146823 0.21090408 0.12940086 -0.2798954 0.02016359
-0.11039774 0.01604722 0.5704307 -0.3536963 0.14051805 -0.7323149 -0.28443477 -0.3057311
0.7862477 0.3195124 0.25647426 -0.29288337 -0.393729 0.15262651 0.63733506 -0.26920933
-0.22960602 0.3471286 0.38575217 0.52733624 0.06418149 -0.3412755 0.45830312 0.4045641
0.3749704 0.35680676 -0.38119462 -0.42820093 0.3845657 0.5050794 0.18276191 -0.3386999
0.5726915 -0.22810517 0.46800077 -0.013298059 0.27454466 -0.0056666727 0.25598234 0.43080482
-0.4402047 0.1595408 0.792021 0.3537478 0.26078346 -0.11122585 -0.41174647 -0.1382672
-0.045937926 -0.57296675 -0.10771003 0.50248826 -0.19138642 0.6402052 0.2863231 0.32757333
-0.098151095 -0.4951739 -0.2927027 0.24539405 0.09977948 0.6102626 0.51819694 0.0864817
-0.24445078 -0.10629304 -0.111660555 0.2624552 -0.04415332 0.42506954 -0.26890197 0.3679974
0.32910284 -0.09476123 0.011710277 -0.20889124 0.34789062 -0.016642893 0.28169063 0.26821044
0.3946931 -0.2271882 0.21090455 -0.18620418 -0.1918386 0.11769292 0.38608906 0.37114963
-0.2114204 0.039765485 -0.4996935 -0.23109567 0.34998903 0.49737316 -0.22136034 -0.17474544
0.70183283 0.29061255 0.0018266744 0.049217973 0.22346872 -0.43891963 -0.22229709 0.113689765
0.717871 0.90853566 -0.011718832 -0.33135125 -0.13102692 0.34573323 0.23049615 -0.15836817
0.31042638 -0.5303363 0.10147104 0.35425997 0.31132546 0.52882 -0.23235661 0.8853203
0.62765706 0.3677164 0.6360524 -0.040879168 -0.3559521 0.024005279 -0.57073635 0.1092273
00000000: 0844 003e f6fc c8be 2073 b23e 10df a5be
00000010: a15f 163e 484e 073e b2a7 babe e2f9 cc3e
00000020: 6006 5c3e 5347 9d3e 1386 09bd f29c f43e
00000030: 27f8 adbe 8ebf 463c 8d60 15bf 4657 6f3e
00000040: 3c96 773e 773f d8bd d27c d73e 6e23 8c3e
00000050: 8927 ae3e 4a63 1b3f 96b9 e53d 8258 bdbe
00000060: d73b 31bf 5c0b f93e 13ff 963e 4540 e7be
00000070: cdf5 b8bd 94d9 a83e ceae b0be 5599 36bd
00000080: 263c b63e f883 e23e a457 bbbe 7d36 503f
00000090: ea60 f23e c34d a93e 4656 b83d 962a 0bbf
000000a0: d2c1 1bbe 78a1 8bbe 7cd9 f63e 9337 30bf
000000b0: 24c7 ca3d f419 ba3e a75a 933e d9fb cabe
000000c0: 04cc a1be 6f2a 3a3d 240f 2bbe f210 dd3d
000000d0: 1b1f af3f 5244 043f 8b40 f83d 3e80 d33e
000000e0: ecdb a7be 834e 0dbc 1ef8 c33e 38c2 033f
000000f0: 3df7 573e a981 043e 734e 8fbe 1d2e a53c
00000100: 3618 e2bd 7675 833c bf07 123f ae17 b5be
00000110: f7e3 0f3e fd78 3bbf 6fa1 91be c988 9cbe
00000120: 8747 493f 2197 a33e 9850 833e cff4 95be
00000130: d996 c9be 204a 1c3e 6428 233f ced5 89be
00000140: d71d 6bbe d7ba b13e 4f81 c53e 82ff 063f
00000150: 9671 833d aabb aebe b5a6 ea3e 0723 cf3e
00000160: 1ffc bf3e 60af b63e f12b c3be 273d dbbe
00000170: cce5 c43e e24c 013f f025 3b3e 136a adbe
00000180: e99b 123f 6794 69be cc9d ef3e 1ae0 59bc
00000190: 1e91 8c3e 7faf b9bb 1e10 833e 7392 dc3e
000001a0: 8362 e1be aa5e 233e e3c1 4a3f 6f1e b53e
000001b0: 6985 853e 61ca e3bd 6fd0 d2be eb95 0dbe
000001c0: 6829 3cbd f3ad 12bf 1497 dcbd 12a3 003f
000001d0: cdfa 43be 7de4 233f f198 923e b1b7 a73e
000001e0: 7103 c9bd 6f87 fdbe 21dd 95be 9448 7b3e
000001f0: 2f59 cc3d 2b3a 1c3f 8ea8 043f 511d b13d
00000200: 4e51 7abe 2ab0 d9bd 4aae e4bd 8760 863e
00000210: 1dda 34bd b7a2 d93e 85ad 89be 286a bc3e
00000220: 2b80 a83e 2d12 c2bd 76dc 3f3c 96e7 55be
00000230: b81e b23e ad56 88bc c139 903e e152 893e
00000240: 3715 ca3e 06a4 68be 5df7 573e 4fac 3ebe
00000250: 5771 44be fc08 f13d 77ad c53e 5307 be3e
00000260: 977e 58be 22e1 223d d4d7 ffbe 58a4 6cbe
00000270: c331 b33e b2a7 fe3e 49ac 62be 78f0 32be
00000280: 51ab 333f 2bcb 943e 066d ef3a c998 493d
00000290: fcd4 643e 13ba e0be d9a1 63be 2ed6 e83d
000002a0: 65c6 373f cb95 683f 5800 40bc dfa6 a9be
000002b0: ec2b 06be f203 b13e 2f07 6c3e 442b 22be
000002c0: 35f0 9e3e 1fc4 07bf 0cd0 cf3d 9061 b53e
000002d0: 0d66 9f3e bf60 073f e4ee 6dbe 5aa4 623f
000002e0: 22ae 203f 5345 bc3e 55d4 223f ea70 27bd
000002f0: 5b3f b6be b8a6 c43c c71b 12bf 90b2 df3d

fc1.bias f4 [64]
-0.36747563 0.39779472 0.4165338 -0.15967266 -0.24317707 -0.40002558 0.5144431 0.4539968
0.97243667 -0.23933889 -0.22626458 0.17369899 -0.42621252 0.11021623 -0.42170143 -0.44291696
0.6330738 -0.15301022 0.46873587 -0.45829463 0.13335767 0.53829503 -0.71602845 -0.4807113
-0.92937744 -0.066759825 0.3794687 -0.663019 -0.29416344 -0.6751525 -0.17056067 0.41840014
-0.15243724 0.0689119 -0.17635241 -0.06361516 0.07627563 -0.15521467 -0.49870884 0.40447888
0.113262996 0.26450792 0.36506042 0.55038786 -0.4636638 -0.31351706 0.15902734 -0.06528723
0.39036676 0.043641616 -0.011658 -0.5761332 0.39791143 0.38022333 0.48023382 0.5520305
-0.51726246 -0.1906005 -0.11257268 0.12673289 -0.5701199 0.38002628 0.2618359 0.11755888
00000000: c425 bcbe c0ab cb3e eb43 d53e 3b81 23be
00000010: 6903 79be 27d0 ccbe 8bb2 033f 4572 e83e
00000020: 9cf1 783f 4115 75be e7b1 67be 26de 313e
00000030: 8738 dabe 0cb9 e13d 40e9 d7be 03c6 e2be
00000040: 2011 223f b6ae 1cbe 26fe ef3e 98a5 eabe
00000050: ea8e 083e b4cd 093f a44d 37bf cb1f f6be
00000060: aeeb 6dbf 60b9 88bd b949 c23e 9dbb 29bf
00000070: 979c 96be cbd6 2cbf 75a7 2ebe 8b38 d63e
00000080: 8218 1cbe af21 8d3d ba95 34be aa48 82bd
00000090: 6636 9c3d 98f0 1ebe c456 ffbe db17 cf3e
000000a0: 6ef6 e73d 956d 873e 33e9 ba3e 38e6 0c3f
000000b0: 5765 edbe 4f85 a0be 10d8 223e 50b5 85bd
000000c0: 27de c73e 8dc1 323d 3201 3fbc 777d 13bf
000000d0: 0cbb cb3e a2ac c23e 35e1 f53e df51 0d3f
000000e0: 506b 04bf c72c 43be 818c e6bd 44c6 013e
000000f0: 61f3 11bf ce92 c23e 5b0f 863e b6c2 f03d

fc2.weight f4 [64, 64]
0.04009552 0.035598043 0.00892666 0.011346928 -0.03860382 -0.07780416 0.12479706 0.0536351
-0.053530544 -0.019745152 0.11170167 0.10789584 -0.06078323 0.017587554 -0.030294878 0.08984316
0.030881008 0.05819356 0.046994902 -0.08985199 -0.095280044 0.014542732 -0.14154896 -0.010576644
0.011475374 0.027037514 -0.11363654 -0.012168817 -0.038787775 -0.039212268 -0.011505382 0.09379047
0.050268676 0.10893425 0.123081975 -0.0037531587 -0.11008854 0.055828135 0.034591544 -0.049147025
0.0036640577 -0.07943926 0.010686586 0.07424085 -0.102714166 0.09572911 0.111079104 0.11102879
0.09835683 0.080855496 -0.10549779 -0.07126794 0.04622312 0.07964857 0.101848915 -0.07708868
0.010070086 -0.0099307895 -0.0014756074 -0.023058703 0.0699985 0.1523803 -0.02449903 -0.1371456
-0.065255664 -0.120367475 0.06850006 0.009091007 0.06989275 0.01119817 0.08236811 -0.12459863
-0.08090161 0.08151198 -0.038497064 -0.04400758 0.067230746 -0.042084012 0.031300616 -0.013689719
-0.12914792 -0.042012274 -0.12714608 -0.09994922 0.040805835 0.022150842 -0.08904241 0.041359942
-0.012459518 -0.02810311 -0.11698663 -0.0043635643 0.00040636002 -0.026148325 0.114635505 -0.007349873
0.004489012 -0.029874252 -0.031071182 -0.09325695 0.009444762 0.05455183 -0.021283746 -0.057157002
0.12443854 -0.0011834215 0.071623154 -0.120483965 0.024557928 0.10854612 -0.043320265 -0.033876844
0.03664789 -0.054178886 0.037306704 0.019217385 0.10822344 -0.09696376 0.01284917 -0.053888567
0.08542839 0.0818202 -0.0051284675 -0.029942013 -0.010750417 0.09156796 -0.086886555 0.015032604
0.09159328 0.07550325 0.11010093 -0.07544232 -0.052806742 0.03400989 0.06303122 -0.108572416
-0.007838738 0.12349787 -0.10442427 0.10028242 0.02719148 0.003020104 -0.023684606 -0.010059581
-0.045524098 -0.10776484 -0.08332109 0.06622825 -0.11076111 -0.115866825 -0.057731874 -0.050305426
-0.03178678 -0.10454367 0.066330664 0.08201119 0.018296806 0.07598225 -0.10563247 -0.028871808
-0.0733616 0.12301454 -0.065195754 -0.06665765 0.10359969 -0.022841554 0.014493968 0.0069167917
0.09350327 -0.040732674 -0.06428097 0.05427122 0.027585307 -0.006188382 -0.04456557 0.09565736
-0.06306913 -0.07704203 -0.031289555 -0.064793564 0.004279489 0.0023516188 -0.048046503 -0.08634335
-0.12224222 -0.10576235 0.08536468 0.026088452 -0.0035774102 0.051951367 0.07424797 0.079067804
-0.06615822 -0.10475742 -0.07453996 0.10428767 -0.15192758 0.142476 -0.05941608 0.03280849
-0.1563927 0.11638861 0.117604844 0.1346929 -0.019947814 -0.1273446 -0.20819588 0.037245248
0.08788085 -0.038864292 -0.07007588 0.09859508 0.017262502 -0.008154432 -0.04753647 0.0067557134
-0.16978991 -0.10809903 -0.050335888 -0.14465368 0.078427255 -0.0655162 0.12187686 0.08000467
-0.05882622 0.13355823 -0.03796245 -0.017790783 -0.058269467 0.00061861356 -0.015623772 0.2184749
0.10765163 0.10194157 0.08915072 -0.057888255 0.00555305 0.112348884 -0.024178367 -0.036761064
-0.07127402 0.005300683 0.041643273 0.08860846 -0.0889771 0.048822176 -0.040415984 -0.09984013
-0.037183966 0.14537202 -0.014547967 0.062483713 0.12107749 0.20059799 -0.0440535 0.049444962
00000000: 333b 243d 41cf 113d 2041 123c 77e8 393c
00000010: 0a1f 1ebd ca57 9fbd 9a95 ff3d 7bb0 5b3d
00000020: d842 5bbd 96c0 a1bc d8c3 e43d 7ff8 dc3d
00000030: d6f7 78bd c613 903c f72c f8bc b1ff b73d
00000040: 2bfa fc3c 5f5c 6e3d ba7d 403d 5204 b8bd
00000050: 2f22 c3bd a444 6e3c 36f2 10be a949 2dbc
00000060: 3503 3c3c c77d dd3c 46ba e8bd b85f 47bc
00000070: eedf 1ebd 0b9d 20bd 1281 3cbc 3815 c03d
00000080: 87e6 4d3d ec18 df3d 6712 fc3d 8ef7 75bb
00000090: 1a76 e1bd 0bac 643d ddaf 0d3d 644e 49bd
000000a0: b020 703b 0db1 a2bd ca16 2f3c 960b 983d
000000b0: ce5b d2bd a00d c43d 717d e33d 1063 e33d
000000c0: 4e6f c93d 9197 a53d 3a0f d8bd edf4 91bd
000000d0: 7454 3d3d ca1e a33d 2a96 d03d abe0 9dbd
000000e0: 01fd 243c c0b4 22bc 2b69 c1ba 9be5 bcbc
000000f0: 605b 8f3d 9509 1c3e 31b2 c8bc e56f 0cbe
00000100: c3a4 85bd 3983 f6bd c249 8c3d 72f2 143c
00000110: ee23 8f3d 8778 373c 9db0 a83d 912d ffbd
00000120: beaf a5bd c1ef a63d 19af 1dbd 4b41 34bd
00000130: 46b0 893d 4960 2cbd 1335 003d d84a 60bc
00000140: 5a3f 04be 1015 2cbd 9532 02be 2db2 ccbd
00000150: 0524 273d af75 b53c de5b b6bd 0b69 293d
00000160: 0223 4cbc 7e38 e6bc b096 efbd 3bfc 8ebb
00000170: b80c d539 0335 d6bc 05c6 ea3d 34d7 f0bb
00000180: 9018 933b d9ba f4bc fe88 febc 80fd bebd
00000190: 34be 1a3c bd71 5f3d 405b aebc 761d 6abd
000001a0: a2d9 fe3d 091d 9bba 29af 923d 4cc0 f6bd
000001b0: b52d c93c 6e4d de3d 9770 31bd 72c2 0abd
000001c0: 191c 163d aeea 5dbd eace 183d c76d 9d3c
000001d0: 40a4 dd3d f094 c6bd 5385 523c 42ba 5cbd
000001e0: 14f5 ae3d 5991 a73d b40c a8bb f448 f5bc
000001f0: 8422 30bc fc87 bb3d 94f1 b1bd 504b 763c
00000200: 4295 bb3d 73a1 9a3d 997c e13d 8181 9abd
00000210: e24b 58bd f44d 0b3d 8316 813d 375b debd
00000220: 0d6e 00bc 74ec fc3d 64dc d5bd df60 cd3d
00000230: abc0 de3c f0ec 453b 3806 c2bc f1d0 24bc
00000240: 7a77 3abd d0b3 dcbd 3fa4 aabd ada2 873d
00000250: b9d6 e2bd 964b edbd 4278 6cbd 100d 4ebd
00000260: db32 02bd fe1a d6bd 5fd8 873d 7cf5 a73d
00000270: 2fe3 953c 959c 9b3d d655 d8bd 9284 ecbc
00000280: 9b3e 96bd 0cef fb3d 5a85 85bd ce83 88bd
00000290: 132c d43d 361e bbbc 1c78 6d3c 41a6 e23b
000002a0: a47e bf3d 4ed7 26bd bea5 83bd 804b 5e3d
000002b0: 95fa e13c e9c7 cabb 638a 36bd 02e8 c33d
000002c0: 632a 81bd 36c8 9dbd 7a29 00bd 7db2 84bd
000002d0: f53a 8c3b 9e1d 1a3b 69cc 44bd c8d4 b0bd
000002e0: 215a fabd ee99 d8bd add3 ae3d 73b7 d53c
000002f0: fc72 6abb f5ca 543d 520f 983d 4dee a13d
00000300: f67d 87bd 0f8b d6bd 68a8 98bd c694 d53d
00000310: e792 1bbe 3be5 113e 475e 73bd 3262 063d
00000320: 6825 20be 275d ee3d cfda f03d f0ec 093e
00000330: 9969 a3bc 9f66 02be 4d31 55be 798e 183d
00000340: e0fa b33d 2a30 1fbd f183 8fbd 38ec c93d
00000350: 176a 8d3c 2b9a 05bc 9ab5 42bd 085f dd3b
00000360: 68dd 2dbe 0663 ddbd 012d 4ebd 1820 14be
00000370: 789e a03d 5c2d 86bd 939a f93d 7dd9 a33d
00000380: c3f3 70bd 7dc3 083e 847e 1bbd fabd 91bc
00000390: f7ab 6ebd 742a 223a d9fa 7fbc e2b7 5f3e
000003a0: 7578 dc3d bec6 d03d a794 b63d 3c1c 6dbd
000003b0: 5cf6 b53b 2c17 e63d b611 c6bc c592 16bd
000003c0: 1df8 91bd 5ab1 ad3b 2392 2a3d 5a78 b53d
000003d0: a039 b6bd c3f9 473d 3b8b 25bd fb78 ccbd
000003e0: 374e 18bd 67dc 143e 995a 6ebc ecee 7f3d
000003f0: 7af7 f73d 8f69 4d3e 7171 34bd cd86 4a3d

fc2.bias f4 [64]
-0.088990256 -0.045086533 0.038461044 -0.03016987 -0.075563766 0.16245429 0.07231977 -0.031079495
0.11593959 -0.12456464 0.041211367 -0.0067952108 0.0979374 -0.07933689 -0.01180262 -0.060815167
-0.114643306 0.050730374 0.09808638 -0.017884355 0.017822955 -0.040391702 0.11822593 -0.037919305
0.0034287567 0.026199285 0.15154028 -0.033314396 -0.025686279 -0.01867937 0.03722669 -0.009834628
-0.12210838 0.122159906 0.08438721 0.059824206 -0.029456656 0.107597366 0.026217394 -0.042662293
-0.005106937 0.0711694 -0.08314885 -0.07791526 -0.093293674 0.10935915 -0.054129332 0.0068388702
0.087836 -0.00044263876 0.11066108 0.09016611 -0.11686062 0.043251365 -0.014735556 0.17048393
-0.056882218 -0.041658517 -0.11595089 0.13347827 -0.012621697 0.058342263 -0.12010983 0.12193449
00000000: 8640 b6bd a8ac 38bd 5489 1d3d ce26 f7bc
00000010: 2dc1 9abd 6b5a 263e 631c 943d 6d9a febc
00000020: bc71 ed3d bf1b ffbd 40cd 283d 5caa debb
00000030: 6793 c83d 617b a2bd c75f 41bc 5319 79bd
00000040: 1cca eabd a7ca 4f3d 83e1 c83d 3682 92bc
00000050: 7201 923c c571 25bd 7020 f23d 4651 1bbd
00000060: feb4 603b e29f d63c 602d 1b3e ad74 08bd
00000070: 086c d2bc 7a05 99bc 047b 183d 6b21 21bc
00000080: f513 fabd f92e fa3d 34d3 ac3d 3a0a 753d
00000090: 164f f1bc 025c dc3d dcc5 d63c a8be 2ebd
000000a0: 1858 a7bb 43c1 913d f249 aabd 0992 9fbd
000000b0: c110 bfbd b1f7 df3d b8b6 5dbd 9a18 e03b
000000c0: 5ce3 b33d f811 e8b9 47a2 e23d 02a9 b83d
000000d0: 9f54 efbd 5828 313d 676d 71bc 5793 2e3e
000000e0: 54fd 68bd 1fa2 2abd a977 edbd 87ae 083e
000000f0: 3ccb 4ebc 4cf8 6e3d 24fc f5bd cab8 f93d

fc3.weight f4 [1, 64]
0.080705665 0.13097394 0.11095532 0.45042148 -0.00895315 0.582527 0.29868492 0.03264243
-0.14117263 0.15103313 -0.083763205 0.021739662 0.39925182 0.26299325 0.10798449 -0.18094419
-0.1376828 -0.21339265 0.025725575 0.12932914 -0.09086131 0.50402695 0.06890374 0.0072052246
0.02593429 0.20129135 -0.28146356 0.19254781 0.12645648 0.27097383 0.5450563 -0.17371063
0.65087354 -0.37915012 0.1180021 0.02755948 0.39499736 -0.54179925 -0.29100206 0.50791705
0.057775855 -0.030779975 0.19377585 0.6068027 0.6326718 -0.21654382 0.37822363 0.3282131
-0.15308377 -0.013023024 0.15222599 -0.62067497 0.19579731 -0.5448988 0.40344837 -0.44682822
0.037498195 -0.14548233 -0.36550117 -0.39036086 -0.23143174 0.32713848 0.14709835 -0.33867452
00000000: 0349 a53d 081e 063e 8b3c e33d a59d e63e
00000010: 3cb0 12bc 7d20 153f 3bed 983e 12b4 053d
00000020: 8f8f 10be 6ea8 1a3e 0b8c abbd 6017 b23c
00000030: bc6a cc3e 0da7 863e f926 dd3d 6f49 39be
00000040: b8fc 0cbe 9a83 5abe 71be d23c dc6e 043e
00000050: 7f15 babd e907 013f 671d 8d3d ce19 ec3b
00000060: 2674 d43c 521f 4e3e fe1b 90be 412b 453e
00000070: cf7d 013e 15bd 8a3e cf88 0b3f 33e1 31be
00000080: a69f 263f f71f c2be 16ab f13d 6bc4 e13c
00000090: 183d ca3e 5bb3 0abf 39fe 94be da06 023f
000000a0: 60a6 6c3d 4926 fcbc 2d6d 463e 6c57 1b3f
000000b0: c7f6 213f aabd 5dbe 87a6 c13e 8c0b a83e
000000c0: fec1 1cbe 865e 55bc 21e1 1b3e 8ee4 1ebf
000000d0: 177f 483e 7d7e 0bbf c990 ce3e abc6 e4be
000000e0: b597 193d 52f9 14be f822 bbbe 61dd c7be
000000f0: 71fc 6cbe b27e a73e f3a0 163e bf66 adbe
