5_SAC/sac/save_model/model.pth.tar (torch_old, 70368 bytes, 6 tensors)

fc1.weight f4 [128, 3]
0.07481716 -0.49191937 0.28760618 -0.38413727 0.4366254 0.13485014 -0.4765825 0.7464299
0.19817242 0.438776 0.07072433 0.44250134 -0.27707452 0.02844076 -0.52642083 0.04245836
0.5463402 0.0509012 0.20738743 0.56544363 0.11468995 0.42117694 0.30738986 -0.27563867
-0.92190033 0.18243796 0.1139563 -0.36640766 -0.059641108 0.35565314 -0.43941483 0.040066414
0.27749157 0.5228278 -0.6449624 0.16692263 0.46268824 0.7457481 0.18668005 -0.44801873
-0.43460226 -0.23624206 0.4339332 -0.6473546 0.18946922 0.25044134 0.42106667 -0.448613
-0.31688017 0.050261013 -0.35719666 0.05076982 0.94375575 0.19455662 -0.090956464 0.63741827
-0.20020346 -0.06292371 0.39537624 0.5408148 0.17437844 0.0473218 -0.27131575 0.036179066
-0.076889396 0.060325384 0.44520953 -0.45605466 0.40072972 -0.39713815 -0.3992254 -0.47030035
0.52418107 -0.30030525 -0.12560202 -0.32607028 -0.5696987 0.15687473 0.7094215 -0.497864
-0.2387688 0.53171474 0.2755047 0.4483006 0.055479497 -0.39099956 0.43064532 0.63197243
-0.04283382 0.102094546 -0.9267656 -0.5744529 0.27360165 0.39274475 0.37387547 -0.34105852
0.42837858 -0.34939182 0.40184176 -0.11821176 0.30393386 -0.064554706 0.3440644 0.5292107
-0.52605796 0.39259747 1.0476295 0.24187838 0.46608332 -0.4274564 -0.43492377 -0.031212844
-0.268351 -0.5121475 -0.08966458 0.70547915 -0.2592922 0.5282926 0.62370354 0.23853898
-0.10928487 -0.42110503 -0.123298846 0.20884652 0.12395035 0.49554735 0.7010824 0.032546964
-0.15241408 -0.15579438 -0.17567292 0.29629532 -0.18994437 0.5575565 -0.27541718 0.41685408
0.40529996 -0.21848045 0.12922613 -0.13536358 0.33467174 0.08396376 0.48501107 0.13374656
0.34781173 -0.27819628 0.35007432 -0.114391774 -0.24678992 0.08427576 0.4335961 0.91709006
-0.089432575 0.32815942 -0.98597807 -0.22363168 0.3297876 0.86439246 0.17505291 -0.09703743
0.96385497 0.37437984 0.2042171 0.1324161 0.26130185 -0.51640004 -0.24382144 0.17410855
0.45561555 0.708064 0.1984556 -0.88065046 -0.13971466 0.30381346 0.22253652 -0.15029137
0.2529219 -0.58336055 0.25386497 0.40172482 0.22981673 0.6891242 -0.38748884 0.49782103
1.2101268 0.2803722 0.6084858 -0.2137981 -0.4076835 0.092676654 -0.7495454 0.09574551
-0.38010594 0.5457982 0.3324274 -0.05444098 -0.7157972 -0.33131245 0.52952665 0.70230156
0.38008693 -0.12634067 -0.15118593 0.2556214 -0.18647099 -0.05760083 -0.323846 -0.4610276
0.631431 -0.22836098 0.5422321 -0.5618721 0.19210728 0.6567598 -0.9277655 -0.44557846
-0.66015124 0.017403169 0.12700796 -0.5702881 -0.69598764 -0.28572503 -0.21917559 0.53377324
-0.13703965 0.11630703 -0.29899338 -0.01702313 0.096523695 -0.5088057 -0.4626259 0.6385139
0.36302868 0.27126688 0.4453915 0.5801636 -0.47270662 -0.3610233 -0.046141997 -0.10516582
0.44143915 -0.08991659 -0.0619365 -0.655411 0.7903655 0.24481748 0.40014037 0.5622841
-0.3069095 -0.10617506 -0.20579377 0.19040218 -0.42775247 0.7106394 0.17973642 0.11302674
00000000: bd39 993d dbdc fbbe 1e41 933e a4ad c4be
00000010: 5d8d df3e 2816 0a3e 9f02 f4be 0816 3f3f
00000020: b6ed 4a3e 3fa7 e03e ebd7 903d 898f e23e
00000030: b6dc 8dbe 99fc e83c 84c3 06bf d1e8 2d3d
00000040: f4dc 0b3f c77d 503d 5f5d 543e eac0 103f
00000050: 91e2 ea3d 81a4 d73e 3462 9d3e 8320 8dbe
00000060: a901 6cbf 04d1 3a3e ec61 e93d c999 bbbe
00000070: 3c4a 74bd 2b18 b63e fbfa e0be ae1c 243d
00000080: 6013 8e3e 0bd8 053f 411c 25bf c4ed 2a3e
00000090: 79e5 ec3e 59e9 3e3f 0e29 3f3e b662 e5be
000000a0: 3084 debe 70e9 71be 7e2c de3e 08b9 25bf
000000b0: 3804 423e d939 803e 0d96 d73e 9ab0 e5be
000000c0: 1e3e a2be 7ede 4d3d 7be2 b6be 04f4 4f3d
000000d0: fa99 713f da39 473e 6247 babd d82d 233f
000000e0: 2302 4dbe 25de 80bd c16e ca3e d772 0a3f
000000f0: 4390 323e 81d4 413d e6e9 8abe 8030 143d
00000100: 3078 9dbd c017 773d 81f2 e33e ff7f e9be
00000110: 722c cd3e b155 cbbe 4667 ccbe 35cb f0be
00000120: bb30 063f 9cc1 99be d19d 00be aff2 a6be
00000130: c6d7 11bf c5a3 203e a69c 353f 08e8 febe
00000140: cf7f 74be 751e 083f f40e 8d3e a887 e53e
00000150: 783e 633d 1831 c8be 8b7d dc3e f2c8 213f
00000160: 8472 2fbd f216 d13d 8340 6dbf 580f 13bf
00000170: 8415 8c3e d715 c93e 9b6c bf3e 399f aebe
00000180: 7054 db3e 7ce3 b2be 34be cd3e 0219 f2bd
00000190: 389d 9b3e 4235 84bd 3629 b03e 5a7a 073f
000001a0: bcab 06bf 8902 c93e b918 863f f7ae 773e
000001b0: 79a2 ee3e 91db dabe 54ae debe 14b2 ffbc
000001c0: 4d65 89be 191c 03bf 10a2 b7bd 489a 343f
000001d0: f2c1 84be 2f3e 073f 09ab 1f3f 9043 743e
000001e0: bfd0 dfbd 149b d7be 1b84 fcbd dddb 553e
000001f0: aed9 fd3d 62b8 fd3e 237a 333f f74f 053d
00000200: 7012 1cbe 9088 1fbe 9ae3 33be 05b4 973e
00000210: c780 42be 06bc 0e3f 7b03 8dbe e66d d53e
00000220: 7a83 cf3e 57b9 5fbe db53 043e c09c 0abe
00000230: 185a ab3e 31f5 ab3d 5f53 f83e dcf4 083e
00000240: 6114 b23e be6f 8ebe f13c b33e 3c46 eabd
00000250: 7fb6 7cbe c598 ac3d 4f00 de3e 6ac6 6a3f
00000260: 6d28 b7bd 8304 a83e 0f69 7cbf b4ff 64be
00000270: ecd9 a83e d348 5d3f 1241 333e 8fbb c6bd
00000280: 33bf 763f b7ae bf3e 4a1e 513e 1698 073e
00000290: 5bc9 853e cb32 04bf 54ac 79be 8349 323e
000002a0: 7146 e93e af43 353f f237 4b3e 4f72 61bf
000002b0: 5c11 0fbe 708d 9b3e 9de0 633e fbe5 19be
000002c0: fb7e 813e 1e57 15bf 97fa 813e e0ae cd3e
000002d0: 1455 6b3e 726a 303f f064 c6be 66e2 fe3e
000002e0: 6fe5 9a3f f28c 8f3e bac5 1b3f e4ed 5abe
000002f0: e4bb d0be 42cd bd3d 35e2 3fbf 3916 c43d
00000300: 3f9d c2be 6eb9 0b3f ed33 aa3e 81fd 5ebd
00000310: 7c3e 37bf c9a1 a9be 0f8f 073f 09ca 333f
00000320: c19a c23e 735f 01be 7cd0 1abe cfe0 823e
00000330: 40f2 3ebe d9ee 6bbd 25cf a5be cf0b ecbe
00000340: 76a5 213f 76d7 69be b9cf 0a3f dad6 0fbf
00000350: c5b7 443e 6921 283f 0a82 6dbf dc22 e4be
00000360: acff 28bf 1791 8e3c 600e 023e 67fe 11bf
00000370: 3f2c 32bf 8d4a 92be 916f 60be 5da5 083f
00000380: 1f54 0cbe 6132 ee3d a915 99be 1774 8bbc
00000390: 37ae c53d 1741 02bf 4ddd ecbe a675 233f
000003a0: e5de b93e 7ee3 8a3e 5b0a e43e 9a85 143f
000003b0: 9a06 f2be 0cd8 b8be 64ff 3cbd 2d61 d7bd
000003c0: 5004 e23e 3026 b8bd 21b1 7dbd 04c9 27bf
000003d0: 6555 4a3f 6fb1 7a3e 33df cc3e daf1 0f3f
000003e0: 3e23 9dbe 4f72 d9bd 9abb 52be caf8 423e
000003f0: 5f02 dbbe 77ec 353f d30c 383e 907a e73d

fc1.bias f4 [128]
0.46167025 0.43651223 0.5772382 -0.5140467 -0.119507596 0.13020225 0.3723801 -0.6677344
-0.0017679856 0.5823658 -0.60013956 0.47212484 -0.072054684 0.29099566 -0.0769795 -0.02967631
-0.32154515 -0.077706195 -0.45679867 0.32414967 -0.66808164 -0.51947707 -0.29400337 -0.08848271
-0.111984394 -0.45802975 0.21304236 0.29776978 -0.038331192 0.24385162 -0.60655457 -0.25196263
-0.51595867 0.57093114 -0.36301053 -0.22560698 0.43161166 -0.11802773 0.122414015 -0.06336219
0.39906698 -0.31224328 -0.3528234 0.28168625 0.042941637 -0.049634084 -0.3711961 0.61085075
-0.3606871 -0.3382316 -0.24933484 -0.17646743 -0.028660558 0.24486385 -0.270513 -0.4717333
-0.35138348 -0.5329857 0.41396818 0.15911958 -0.22460602 0.07827339 0.38109833 0.4305577
-0.22549777 -0.059542328 -0.16969061 0.42265534 -0.6548625 0.4587527 -0.4191254 0.30752966
-0.014502638 0.56473374 0.5067761 0.37811485 0.08554839 -0.7129489 -0.447776 0.3173247
0.18542212 0.52683663 -0.3815919 0.56143355 0.2886714 0.13320169 0.23496355 0.4776441
-0.35189372 -0.41035616 0.04151967 -0.5829256 0.3744824 -0.048246592 0.639207 0.5566251
-0.3761243 0.5451742 -0.20305002 0.16463377 -0.22302602 0.08779508 -0.18376599 0.56855655
0.327101 0.1897744 0.60805124 0.034913108 -0.076835975 0.19867744 -0.06597577 0.09723116
-0.4006432 0.3956945 0.27275413 0.39280146 -0.62493604 0.557268 -0.059313603 -0.1514496
0.35404482 0.66615665 -0.1800644 0.3279186 0.3011272 0.22194937 0.086521216 0.42867792
00000000: 0b60 ec3e 887e df3e e2c5 133f 9198 03bf
00000010: 66c0 f4bd bd53 053e 9ba8 be3e a4f0 2abf
00000020: c1bb e7ba ed15 153f bfa2 19bf 59ba f13e
00000030: 6891 93bd 62fd 943e 6ea7 9dbd bc1b f3bc
00000040: 91a1 a4be 6d24 9fbd 84e1 e9be f2f6 a53e
00000050: 6607 2bbf 73fc 04bf 9c87 96be 6c36 b5bd
00000060: 1358 e5bd e082 eabe c727 5a3e 4875 983e
00000070: 2b01 1dbd 3db4 793e 2947 1bbf 3f01 81be
00000080: de15 04bf 8b28 123f 84dc b9be 8405 67be
00000090: 34fc dc3e 86b8 f1bd 33b4 fa3d 09c4 81bd
000000a0: 8252 cc3e 5ade 9fbe 45a5 b4be 2e39 903e
000000b0: 92e3 2f3d 1c4d 4bbd 6a0d bebe b760 1c3f
000000c0: fbab b8be b12c adbe a251 7fbe e1b3 34be
000000d0: 8cc9 eabc 97bd 7a3e ae80 8abe 0787 f1be
000000e0: 89e8 b3be c071 08bf a3f3 d33e 3ef0 223e
000000f0: 1fff 65be cd4d a03d 521f c33e 0f72 dc3e
00000100: e3e8 66be a8e2 73bd 60c3 2dbe 4866 d83e
00000110: 12a5 27bf a2e1 ea3e 9b97 d6be 8774 9d3e
00000120: 799c 6dbc 6492 103f 14bc 013f 4598 c13e
00000130: ff33 af3d d283 36bf e542 e5be 6278 a23e
00000140: 4cdf 3d3e c4de 063f 0360 c3be 1cba 0f3f
00000150: bdcc 933e 0666 083e 499a 703e c48d f43e
00000160: 6a2b b4be 341a d2be 8810 2a3d 9d3a 15bf
00000170: 28bc bf3e 389e 45bd 12a3 233f fc7e 0e3f
00000180: 5d93 c0be 8990 0b3f 58ec 4fbe c195 283e
00000190: ef60 64be e8cd b33d 272d 3cbe ec8c 113f
000001a0: c879 a73e 3854 423e 3fa9 1b3f 0c01 0f3d
000001b0: 2e5c 9dbd 1972 4b3e 4e1e 87bd 2121 c73d
000001c0: 1b21 cdbe 7898 ca3e 6ea6 8b3e 461d c93e
000001d0: cffb 1fbf 1ea9 0e3f d2f2 72bd 9b15 1bbe
000001e0: 5d45 b53e 3e89 2a3f cd62 38be f2e4 a73e
000001f0: 582d 9a3e b246 633e 0932 b13d ac7b db3e

fc2.weight f4 [128, 128]
0.054277524 0.15844658 -0.011689121 0.026588678 -0.064813316 -0.02172833 0.07378186 -0.049429137
-0.03930878 0.07704898 -0.0720522 0.0013757462 0.070699245 0.004572059 0.05364504 0.11242753
0.01046687 -0.72060525 0.02926973 0.06395212 0.039033115 -0.079287216 0.03267189 0.02681332
-0.054539368 0.10328015 -0.066357896 0.039820123 0.056117784 0.08716229 -0.003914718 -0.009562206
-0.034769997 -0.041004017 0.08756338 -0.032502197 -0.06467519 0.036593106 -0.0010443273 0.067553684
0.01670372 0.07393049 -0.0213232 0.002993461 -0.02519985 -0.04331647 0.058181535 0.06876107
-0.03791659 0.085313745 0.12504542 -0.3974347 0.022336964 -0.14257053 -0.0120300725 -0.033940777
0.07311015 -0.01252116 -0.07490653 -0.027381329 0.10226792 0.031500716 -0.027801085 -0.07341009
-0.14549743 0.016769964 0.014289796 0.021830525 0.03570945 0.0707449 0.049518846 -0.09830569
-0.00050082715 -0.060266156 0.09277344 0.002482331 -0.098731175 0.06225152 -0.035306666 0.0623928
0.04929537 -0.50990874 0.025334978 -0.09469816 -0.87842196 0.07486233 0.07321371 -0.62660897
-0.06335346 0.091937535 -0.02158526 -0.013724721 0.061602507 0.083898105 -0.05329241 -0.06120024
0.09141827 0.041612025 -0.7843496 -0.11733335 0.0078021106 0.035130598 -0.059489943 0.008317788
0.017586462 -0.045107093 -0.12105296 0.0010866512 0.078739576 -0.052953582 0.0025755328 0.103699975
-0.011862495 0.038183104 0.07383484 -0.164484 -0.03893585 -0.016094394 -0.15741993 -0.062293783
0.009705256 -0.08419838 0.011471882 0.089073844 0.055604886 -0.003095569 -0.08111179 0.001577883
0.068471685 -0.032260038 0.056178957 -0.10652756 -0.1607609 -0.064240836 0.023071093 -0.019523656
0.17208108 0.023878705 -0.09752356 0.079057634 -0.07578946 0.059699032 -0.023009535 0.044412415
-0.06485804 -0.047125164 0.04113804 -0.010732641 -0.07331742 -0.01967197 -0.0638356 -0.23693505
0.0006420071 -0.013818331 0.06295895 -0.011348975 -0.072344564 0.0685667 0.08168447 0.014789342
0.0059211804 -0.018957786 0.055461034 -0.4099717 -0.0750897 -0.06940144 -0.006787937 -0.12280017
0.08756535 0.04412355 0.056240518 -0.009028037 0.020914912 0.02893679 0.07159287 0.10067062
-0.1104841 -0.13239783 0.035497192 -0.16094314 -0.1890648 -0.07453586 -0.094140455 0.030447118
-0.6104084 0.059007358 0.032369714 0.1263106 0.021601008 -0.05902665 0.08411199 0.051078018
0.009949684 -0.33139932 -0.010981865 -0.008082891 -0.21454306 0.00047485018 0.17336844 -0.025976045
0.1699777 0.043219846 0.04827719 -0.03722685 -0.042491574 0.00087464653 0.11416148 0.027660206
0.08098616 0.12170836 0.07856432 0.083269015 0.12102371 -0.058345784 -0.06362255 -0.012444321
-0.075391054 0.10748453 -0.44252685 0.044299316 -0.11299907 -0.38413304 -0.081419356 0.08990977
-0.15181707 0.011883548 -0.024683714 0.02708136 -0.068984635 -0.05642796 0.07091169 0.0032485826
-0.028055675 -0.07885072 0.005188512 0.061801936 -0.030950218 0.05551012 0.09690222 -0.10146686
-0.15199342 0.038919404 0.10550234 0.08014603 -0.08634207 0.06985565 -0.1646354 0.066449426
0.080615334 -0.025496216 0.09319351 0.025578706 0.08342387 -0.054846276 -0.2695301 0.00095634186
00000000: 1c52 5e3d d23f 223e ba83 3fbc 80d0 d93c
00000010: d8bc 84bd 9cff b1bc f21a 973d 3576 4abd
00000020: 3e02 21bd dbcb 9d3d 1b90 93bd 6252 b43a
00000030: c4ca 903d 36d1 953b e7ba 5b3d 6840 e63d
00000040: 3c7d 2b3c 9679 38bf 13c7 ef3c 54f9 823d
00000050: 30e1 1f3d 5661 a2bd f6d2 053d 9ca7 db3c
00000060: ac64 5fbd 8b84 d33d a6e6 87bd 6d1a 233d
00000070: c3db 653d 2582 b23d 0947 80bb cdaa 1cbc
00000080: fc6a 0ebd d4f3 27bd 6e54 b33d 0621 05bd
00000090: 6d74 84bd a7e2 153d cfe1 88ba 9659 8a3d
000000a0: 3dd6 883c de68 973d fead aebc f12d 443b
000000b0: ea6f cebc 9c6c 31bd c34f 6e3d 9bd2 8c3d
000000c0: 6d4e 1bbd f9b8 ae3d e80b 003e 907c cbbe
000000d0: 02fc b63c 02fe 11be c819 45bc 7c05 0bbd
000000e0: c6ba 953d 8d25 4dbc 9868 99bd cf4e e0bc
000000f0: d871 d13d e506 013d 1abf e3bc 0758 96bd
00000100: 47fd 14be 2a61 893c c01f 6a3c eed5 b23c
00000110: 1244 123d b4e2 903d 46d4 4a3d 7e54 c9bd
00000120: f149 03ba a5d9 76bd 0000 be3d 9aae 223b
00000130: 9233 cabd 73fb 7e3d b99d 10bd 988f 7f3d
00000140: f1e9 493d 6189 02bf 4d8b cf3c 1cf1 c1bd
00000150: 43e0 60bf 6c51 993d 12f1 953d 7269 20bf
00000160: 75bf 81bd bf49 bc3d 92d3 b0bc a7dd 60bc
00000170: e952 7c3d c5d2 ab3d 2449 5abd 1aad 7abd
00000180: 8039 bb3d 5f71 2a3d 23cb 48bf 784c f0bd
00000190: d9a8 ff3b 1ae5 0f3d baab 73bd 5547 083c
000001a0: 7c11 903c 37c2 38bd 9dea f7bd f76d 8e3a
000001b0: 3742 a13d dbe5 58bd 45ca 283b a760 d43d
000001c0: e95a 42bc e365 1c3d b836 973d 7e6e 28be
000001d0: 337b 1fbd 64d8 83bc b132 21be c427 7fbd
000001e0: cb02 1f3c 3370 acbd 90f4 3b3c 596c b63d
000001f0: f3c1 633d 08df 4abb f01d a6bd f8d0 ce3a
00000200: e23a 8c3d 1a23 04bd e81b 663d 1f2b dabd
00000210: 819e 24be b390 83bd 97ff bc3c 13f0 9fbc
00000220: 0636 303e 469d c33c 6fba c7bd f8e8 a13d
00000230: 8137 9bbd f986 743d 7e7e bcbc cbe9 353d
00000240: 4bd4 84bd 5106 41bd 5d80 283d f6d7 2fbc
00000250: 7227 96bd 1c27 a1bc 3dbc 82bd 1a9f 72be
00000260: 5e4c 283a 4866 62bc 9ff0 803d 0df1 39bc
00000270: 6329 94bd b36c 8c3d 304a a73d ff4e 723c
00000280: 7606 c23b 5c4d 9bbc 1c2b 633d d0e7 d1be
00000290: a1c8 99bd 5822 8ebd 586d debb a87e fbbd
000002a0: 7655 b33d e5ba 343d 755c 663d 55ea 13bc
000002b0: c055 ab3c d90c ed3c 489f 923d 662c ce3d
000002c0: 7d45 e2bd 4c93 07be 8165 113d 47ce 24be
000002d0: 349a 41be 42a6 98bd b6cc c0bd 3c6c f93c
000002e0: ba43 1cbf b3b1 713d 1b96 043d 9157 013e
000002f0: 99f4 b03c eec5 71bd e842 ac3d 2f37 513d
00000300: 0004 233c 2cad a9be 48ed 33bc 1a6e 04bc
00000310: 2db1 5bbe 50f5 f839 7f87 313e b7cb d4bc
00000320: a20e 2e3e 4b07 313d 4ebe 453d 2e7b 18bd
00000330: a50b 2ebd 8948 653a 7ecd e93d a897 e23c
00000340: 12dc a53d 3c42 f93d 55e6 a03d f288 aa3d
00000350: 47db f73d fdfb 6ebd 8a4c 82bd 44e3 4bbc
00000360: a066 9abd d920 dc3d e192 e2be 3373 353d
00000370: 0e6c e7bd 16ad c4be 31bf a6bd 9d22 b83d
00000380: ef75 1bbe 37b3 423c 8035 cabc bad9 dd3c
00000390: d147 8dbd 0121 67bd 263a 913d 2ce6 543b
000003a0: 04d5 e5bc 7c7c a1bd 6504 aa3b 0724 7d3d
000003b0: 508b fdbc 945e 633d ac74 c63d dbcd cfbd
000003c0: 2aa4 1bbe f469 1f3d 9c11 d83d 9a23 a43d
000003d0: 1cd4 b0bd 7b10 8f3d 2f96 28be a316 883d
000003e0: a719 a53d 71dd d0bc 3ddc be3d 6f8a d13c
000003f0: 22da aa3d 7da6 60bd d9ff 89be 04b3 7a3a

fc2.bias f4 [128]
0.02679652 0.05205975 0.0345891 -0.064241394 0.026343744 0.009625303 0.061189044 0.069417365
0.055599947 -0.036952954 0.0123969475 0.06467593 0.004005803 0.052376512 0.055513788 0.06644414
0.07596417 -0.02360326 -0.036805697 -0.035711743 0.00990203 -0.0635398 0.07130005 0.032980837
-0.029716233 -0.05243907 -0.078160994 0.05531805 -0.0030065242 -0.018598085 0.043326844 0.021119148
-0.007898452 -0.009818797 0.022533188 0.05008691 0.100765906 -0.030401109 0.035370305 -0.05779621
0.083780475 -0.07009518 -0.00359996 0.020170936 -0.047711834 0.037455067 0.0052388953 0.08386805
-0.021912655 -7.16861e-05 -0.02777514 0.04581073 0.09784662 0.0064091445 0.03170889 0.11869002
-0.05516077 -0.04614511 -0.10512624 -0.06665025 -0.051287223 -0.031713072 -0.079506755 0.051979322
-0.049782902 0.05028993 0.10886666 0.099975154 -0.0037295823 -0.03209916 0.04910539 0.083194844
-0.0733919 0.0037225627 0.08606863 -0.01464063 -0.078746 -0.015575571 -0.015471216 -0.028510367
0.09157752 0.09202537 -0.030029763 0.026374541 -0.012403314 -0.004121368 -0.037186105 -0.042212203
-0.09519708 0.094809495 0.07107751 0.06365346 -0.04472552 0.04012516 0.0022844414 0.0871105
0.044162236 -0.061177216 -0.0038821327 0.045944553 0.030264122 0.04197428 -0.016784813 0.026106998
0.054255035 0.053423688 0.08626821 0.10236174 -0.082513995 0.0007371988 0.05490893 -0.025721269
0.05911265 -0.02574315 -0.023874527 -0.087291375 -0.030367289 -0.049306482 0.018095937 0.03810425
0.05009125 0.13203059 0.031237863 0.0521772 -0.055806946 0.106741 0.11489349 0.06285774
00000000: 6084 db3c 9b3c 553d 4dad 0d3d fe90 83bd
00000010: d6ce d73c 72b3 1d3c 5da1 7a3d b12a 8e3d
00000020: c5bc 633d fb5b 17bd 911c 4b3c d074 843d
00000030: 1c43 833b c188 563d 6d62 633d de13 883d
00000040: 1a93 9b3d a05b c1bc 92c1 16bd 7a46 12bd
00000050: 203c 223c 2821 82bd c305 923d ea16 073d
00000060: 756f f3bc 5aca 56bd df12 a0bd 2e95 623d
00000070: 1b09 45bb 035b 98bc 7d77 313d 1002 ad3c
00000080: 8268 01bc 05df 20bc 8597 b83c ef27 4d3d
00000090: 5b5e ce3d bf0b f9bc 74e0 103d b8bb 6cbd
000000a0: 1995 ab3d 108e 8fbd 4eed 6bbb 853d a53c
000000b0: 7c6d 43bd 7c6a 193d 0aab ab3b 03c3 ab3d
000000c0: 2b82 b3bc 2f56 96b8 b188 e3bc 08a4 3b3d
000000d0: cf63 c83d cd03 d23b 2ee1 013d c113 f33d
000000e0: 42f0 61bd a802 3dbd 6d4c d7bd ed7f 88bd
000000f0: 8d12 52bd 91e5 01bd 70d4 a2bd 45e8 543d
00000100: 28e9 4bbd d0fc 4d3d 7cf5 de3d c6bf cc3d
00000110: 026c 74bb 697a 03bd bc22 493d 0f62 aa3d
00000120: 7e4e 96bd 3df6 733b c044 b03d 41df 6fbc
00000130: 9545 a1bd ae30 7fbc fc7a 7dbc 938e e9bc
00000140: ff8c bb3d cc77 bc3d fa00 f6bc 6c0f d83c
00000150: 4537 4bbc 8a0c 87bb 7550 18bd b4e6 2cbd
00000160: b0f6 c2bd 7b2b c23d 1691 913d bf5c 823d
00000170: 1b32 37bd 485a 243d 91b6 153b fd66 b23d
00000180: 76e3 343d f694 7abd 616b 7ebb 5b30 3c3d
00000190: 77ec f73c 39ed 2b3d 4e80 89bc 58de d53c
000001a0: 873a 5e3d ccd2 5a3d 63ad b03d 08a3 d13d
000001b0: 19fd a8bd 9340 413a 30e8 603d 69b5 d2bc
000001c0: 1b20 723d 4ce3 d2bc 8394 c3bc d2c5 b2bd
000001d0: d2c4 f8bc 98f5 49bd ee3d 943c 3413 1c3d
000001e0: 7c2c 4d3d 0733 073e 8ce6 ff3c c2b7 553d
000001f0: d395 64bd 079b da3d 474d eb3d 8fbb 803d

fc3.weight f4 [1, 128]
-0.6819327 0.48164737 -0.10677257 -0.3404679 -0.12403912 -0.05081535 -0.025480924 0.08515053
-0.27627668 -0.04874635 0.101865 -0.6873979 0.06029269 0.17351599 -0.030066047 0.025535721
-0.02427753 -0.10693364 0.1588017 0.27843958 0.039847724 0.17929333 0.06616797 0.21328641
0.12745692 0.0051789656 0.061402746 0.21346612 0.4458621 0.3461872 -0.10105605 0.13008305
0.40004325 0.09830674 0.37887463 0.13506974 -0.407722 0.20762984 0.1127402 0.322814
0.04628327 0.1421525 0.73006195 0.24636473 -0.009907146 -0.0435169 0.13660423 0.19571896
0.17370349 -0.075614356 -0.29068112 0.17019653 0.053450692 -0.10025352 0.13759689 0.11297292
-0.22773677 -0.07510297 0.060124785 -0.07325048 0.42897594 -0.17194326 0.1161483 -0.04183175
-0.070123814 0.03824792 -0.14241791 0.009982284 -0.005335043 -0.05241934 0.3762227 0.11577814
0.35557008 -0.5156591 -0.08842587 -0.63141006 0.4022066 0.24265489 0.07277877 0.49375302
-0.01749524 0.34186652 0.006248751 -0.03393347 0.3735991 -0.16430278 -0.14198543 0.09800048
0.32051826 -0.18544814 0.2990714 -0.05806058 0.53299046 -0.12323239 0.24117707 0.2018318
-0.14033374 0.102930464 0.26526964 -0.3292938 0.6844667 0.13942593 0.23320399 0.060867377
0.11313936 -0.12685978 0.20656604 -0.18481769 -0.042396076 -0.27726564 -0.0063015013 0.084639594
0.33786255 0.057154946 -0.119510315 0.37441447 -0.035026547 -0.53618914 -0.39018905 -0.17670433
-0.13503645 -0.10879262 -0.058820207 -0.09742723 -0.033388443 -0.10872957 -0.101983204 0.048341215
00000000: 2493 2ebf 7c9a f63e 94ab dabd cf51 aebe
00000010: 3908 febd c223 50bd 5fbd d0bc 6763 ae3d
00000020: 2374 8dbe 41aa 47bd 999e d03d 4ff9 2fbf
00000030: 78f5 763d 2dae 313e 124d f6bc 4a30 d13c
00000040: ace1 c6bc 0600 dbbd ea9c 223e a28f 8e3e
00000050: 5e37 233d ac98 373e 1383 873d c167 5a3e
00000060: 1184 023e 50b4 a93b 7281 7b3d dd96 5a3e
00000070: 0a48 e43e 733f b13e 79f6 cebd 7e34 053e
00000080: 78d2 cc3e 0b55 c93d dbfb c13e b94f 0a3e
00000090: f0c0 d0be eb9c 543e 55e4 e63d e047 a53e
000000a0: 8793 3d3d 6d90 113e 57e5 3a3f 0947 7c3e
000000b0: 9551 22bc c73e 32bd fbe1 0b3e 8d6a 483e
000000c0: 54df 313e b3db 9abd 28d4 94be 0048 2e3e
000000d0: 1def 5a3d b851 cdbd 33e6 0c3e 595e e73d
000000e0: d433 69be 96cf 99bd 6845 763d 5904 96bd
000000f0: bca2 db3e e511 30be 29df ed3d c557 2bbd
00000100: 139d 8fbd daa9 1c3d 00d6 11be bc8c 233c
00000110: 96d1 aebb a9b5 56bd 43a0 c03e 171d ed3d
00000120: 480d b63e 3c02 04bf 9f18 b5bd 17a4 21bf
00000130: 06ee cd3e 867a 783e 090d 953d 32cd fc3e
00000140: 2d52 8fbc 2109 af3e 53c2 cc3b d2fd 0abd
00000150: 6248 bf3e fd3e 28be a164 11be 7ab4 c83d
00000160: f81a a43e 1ee6 3dbe e31f 993e eed0 6dbd
00000170: 1072 083f 4361 fcbd 1ff7 763e ffac 4e3e
00000180: a6b3 0fbe 35cd d23d 6cd1 873e 3299 a8be
00000190: 3639 2f3f acc5 0e3e 07cd 6e3e 1250 793d
000001a0: 9cb5 e73d 88e7 01be 0c86 533e d940 3dbe
000001b0: 82a7 2dbd c3f5 8dbe d37c cebb 8657 ad3d
000001c0: 52fc ac3e 4e1b 6a3d d3c1 f4bd 41b3 bf3e
000001d0: ff77 0fbd b143 09bf dcc6 c7be fbf1 34be
000001e0: ff46 0abe aace debd 75ed 70bd ed87 c7bd
000001f0: 52c2 08bd 9cad debd 92dc d0bd 7001 463d

fc4.weight f4 [1, 128]
-0.010197294 0.014588622 -0.11644079 -0.07054159 -0.06998452 -0.04827815 -0.08379241 -0.054888997
-0.17701754 -0.019411828 0.057935104 0.17789766 0.06464226 0.041872393 0.12569353 -0.07335008
0.067189105 -0.039099827 0.055121638 0.09438928 -0.050647024 -0.13081309 0.0703263 0.052472148
-0.100288086 -0.022961993 -0.045801777 0.09081289 0.008327423 0.024503997 -0.057177726 0.086330555
0.019246975 -0.03156124 -0.040749043 0.025719533 0.06496516 0.058104016 -0.03399027 0.03367971
-0.024339747 -0.109788805 -0.10756651 -0.13809428 0.03276081 -0.023933148 0.06829186 -0.041489255
0.0802433 0.08077983 -0.010115053 -0.009371342 -0.1047089 -0.062117502 -0.06379834 -0.05981728
-0.14540292 0.102660775 -0.021979656 0.042294428 0.076128334 -0.036536835 -0.05578109 -0.056148708
0.12515427 0.089052364 -0.021165954 -0.03407204 0.084528215 -0.029277384 0.078782074 -0.044959683
0.06306475 -0.086738855 -0.08886944 0.17619585 0.111616164 0.025472661 0.032687962 -0.000862098
-0.0397429 0.059220556 -0.13918197 -0.058510248 0.04214674 0.06940472 0.04629479 0.028375681
-0.036546603 -0.05541112 0.07500708 0.012933974 -0.017352777 0.051095035 -0.052540645 -0.12678905
-0.04965696 -0.01749132 0.060208485 0.09117896 -0.19816951 -0.06898771 -0.09141497 0.025400735
-0.014481873 -0.021427564 -0.054097105 -0.10746687 -0.08223581 0.13013905 0.10054032 -0.13218316
0.042541962 0.025212899 0.00020182821 0.03253232 -0.021086952 -0.039874412 -0.10031967 0.019257598
-0.043304607 0.038460728 -0.034435105 0.009635441 -0.06265657 -0.078107364 -0.05935986 -0.08708679
00000000: 8d12 27bc 1e05 6f3c 8278 eebd 1c78 90bd
00000010: 0b54 8fbd 4fbf 45bd 5b9b abbd 49d3 60bd
00000020: 1644 35be 8e05 9fbc 5c4d 6d3d ce2a 363e
00000030: 2963 843d 6382 2b3d ceb5 003e 9138 96bd
00000040: 719a 893d 2427 20bd 3ac7 613d 2b4f c13d
00000050: 4173 4fbd def3 05be 3c07 903d 09ed 563d
00000060: d763 cdbd ca1a bcbc a59a 3bbd 1cfc b93d
00000070: be6f 083c 9bbc c83c 3133 6abd 13ce b03d
00000080: d5ab 9d3c 5c46 01bd 78e8 26bd c5b1 d23c
00000090: 740c 853d 7afe 6d3d 6239 0bbd bcf3 093d
000000a0: 2664 c7bc f4d8 e0bd d54b dcbd 9668 0dbe
000000b0: 3330 063d 730f c4bc 9adc 8b3d a3f0 29bd
000000c0: 9956 a43d e56f a53d 9bb9 25bc 428a 19bc
000000d0: 9f71 d6bd ec6e 7ebd b4a8 82bd f702 75bd
000000e0: 81e4 14be d03f d23d ae0e b4bc ec3c 2d3d
000000f0: 2ce9 9b3d a6a7 15bd b67a 64bd 30fc 65bd
00000100: 7128 003e 1661 b63d 3964 adbc 208f 0bbd
00000110: 211d ad3d 20d7 efbc 7f58 a13d a527 38bd
00000120: 1728 813d 24a4 b1bd 2e01 b6bd af6c 343e
00000130: 0497 e43d 0bac d03c d0e3 053d 6bfe 61ba
00000140: 73c9 22bd 4191 723d b885 0ebe 71a8 6fbd
00000150: 0fa2 2c3d 1024 8e3d 9b9f 3d3d 1e74 e83c
00000160: e4b1 15bd c5f6 62bd 509d 993d 05e9 533c
00000170: 6927 8ebc 0749 513d dc34 57bd fdd4 01be
00000180: 1965 4bbd f549 8fbc 2c9d 763d 09bc ba3d
00000190: f3ec 4abe 6e49 8dbd c637 bbbd 3415 d03c
000001a0: 6145 6dbc dc88 afbc ed94 5dbd 9717 dcbd
000001b0: 406b a8bd 2c43 053e 15e8 cd3d 065b 07be
000001c0: 7b40 2e3d 488b ce3c d9a1 5339 9c40 053d
000001d0: 8bbe acbc 5a53 23bd 6674 cdbd 1cc2 9d3c
000001e0: 2c60 31bd ff88 1d3d d30b 0dbd f8dd 1d3c
000001f0: 1652 80bd c1f6 9fbd 5323 73bd 8f5a b2bd
