5_SAC/sac/save_model/model.pth.tar (torch_old, 70368 bytes, 6 tensors)

fc1.weight f4 [128, 3]
00000000: 55ee a73d 353d 19bf 38b4 9a3e 8cfa b8be
00000010: fbf9 d93e f988 fd3d ed73 f2be 20c0 993e
00000020: 58f7 a33e 908a ec3e 4c19 063e 36d0 e83e
00000030: 17e5 96be ba70 aabe cb5d 0bbf eaea 5b3d
00000040: c295 8c3e 3f65 06bd 945a 6d3e 14c6 d33e
00000050: 3c19 7d3e 8102 d23e 05ec a53e 9758 94be
00000060: 0632 52bf 1dc6 1c3e ae78 c63d 8b7a febe
00000070: aec0 02be 0892 b73e a797 45be 92c2 9e3d
00000080: bfef 963e ced9 f43e 0918 50bf 00ea 773d
00000090: b544 163f e0d5 223f 9c16 383e 02c3 ffbe
000000a0: c6b7 95be 757b 83be 1cf0 c53e a60c 43bf
000000b0: 014f 503e 8fce 0c3e 676d 973e 8945 ebbe
000000c0: 7bde 02be 999e b4bd 3e1c ccbe 920d 813d
000000d0: aa43 6d3f 6631 0f3e 0670 69bd 0693 f33e
000000e0: b2e7 62be ce88 343c a0c3 1a3f dd2d 073f
000000f0: f950 753e d5d8 db3c 8ae1 83be 8030 143d
00000100: 3078 9dbd c017 773d e37e 0c3f b592 06bf
00000110: fa7a c43e babc ccbe d99e debe 083a e9be
00000120: 50d5 0f3f 0753 8abe 852d f1bd 4f58 b0be
00000130: 6ceb 26bf 7d84 283e 2c43 153f 5da0 11bf
00000140: fb07 84be 7d24 ee3e b9e2 9c3e a899 f03e
00000150: 24b2 e03d 84e5 99be 4709 da3e 339e 2b3f
00000160: 1fa6 4ebd 0d48 023e ac14 57bf c33b 21bf
00000170: af81 a23e 9456 c23e 515a 783e 961a b8be
00000180: 014c 043f 42ec ccbe ddc3 c13e 905a 85bb
00000190: 7adf a23e 62d2 46bd e1c0 543e d8d9 f53e
000001a0: ea0d 09bf fb18 c83e 0463 733f dbd3 7b3e
000001b0: 3ce3 e33e 9c47 b0be 8076 e4be 19ad 1bbe
000001c0: c5f1 bcbe ba34 0bbf e097 60bd 3245 163f
000001d0: de7d 89be e0c4 f13e 1f71 e43e 362d ad3e
000001e0: b2a9 06be b071 edbe decf d0bd bbb5 b13e
000001f0: 0059 8f3e 1beb 073f 9542 2f3f 6362 cdbe
00000200: a4b8 33be c04e 8cbd 4a0d 9fbe f934 8a3e
00000210: 7649 c7bd 926d d03e a241 8abe e40d dd3e
00000220: c2bd 353e 48b3 79be a5aa b73d f26e 71be
00000230: 7e64 af3e 2544 933c 081b b03e 5b00 ff3d
00000240: 25b5 653e 45af eabe 9bc1 a73e 8f28 e0be
00000250: b520 9cbd 7518 ab3d 9545 003f 6937 f83e
00000260: bb6e 34be 1c3c 4a3e ef67 8bbf 477f 59be
00000270: 2b13 913e 1349 693f d0ce 4c3e a7bd a9bd
00000280: e08e 6e3f 40a6 d13e 9bb1 2b3e 2805 e73d
00000290: 2dd7 8e3e 7022 d7be ea63 9ebe c7ab 473e
000002a0: 5a69 073f 226b 263f 7010 473e 3232 0bbf
000002b0: ad3b d63d 1a82 af3e 4fc9 4f3e 747b a7be
000002c0: fe78 643e 79ea fabe e129 6e3e 9ff9 da3e
000002d0: 3512 833e 261a 0f3f 7cde cbbe 2b4a 293f
000002e0: 8596 783f 605b 963e a4d8 133f 007f 12bd
000002f0: 0634 debe 105f 0a3d df03 46bf 31a2 9c3d
00000300: 731e 0cbf 86c1 053f 29f0 853e d7c6 bbbc
00000310: 5d29 3cbf 1f55 64be 7b2b e43e cfd6 2e3f
00000320: 7198 e13e 92f0 4cbe c328 56be bd7d 6f3e
00000330: 05d9 0abd 2a9d dfbd fe42 b2be 72ae 10bf
00000340: 1791 1e3f 70ab 58be c89b 113f 474d 29bf
00000350: 6899 243e b7fa 1c3f fb8e 7cbf 9f69 ebbe
00000360: 4eb2 21bf e0e4 f33c 0091 0d3e b880 13bf
00000370: dc75 17bf e1a3 69be 61e5 8ebe 7ba2 073f
00000380: 154e d6bd 7083 d83d 9c07 8cbe c367 9cbc
00000390: 9921 d2bd 88bd c6be 2cc4 febe 0cd4 1a3f
000003a0: 411d fa3d 159c ad3e b696 c43e 34db e33e
000003b0: e804 f9be 0c78 00bf 3f18 bc3d 70c1 b7bd
000003c0: 772b ed3e d7a4 8bbe e180 e23c cfa9 12bf
000003d0: 27aa 313f d8b9 763e 9498 273f 414a f43e
000003e0: 15f0 7abe 6a5e 1abe 69e2 71be 4d06 353e
000003f0: 825d eabe de1a 183f 42f9 2d3e 4760 5c3e
0.08199755 -0.5985902 0.3021562 -0.36128652 0.42573532 0.12379641 -0.4735407 0.30029392
0.32024646 0.46199465 0.13095587 0.45471352 -0.29471657 -0.3328913 -0.5443999 0.05369083
0.27458006 -0.0328114 0.23179084 0.4136206 0.24716657 0.41017535 0.3240663 -0.2897384
-0.8210758 0.15309949 0.096909866 -0.49702868 -0.12768814 0.358536 -0.19296132 0.07751955
0.29479787 0.47822422 -0.81286675 0.060525894 0.5869859 0.636076 0.17977375 -0.49953467
-0.2924177 -0.25680128 0.3865975 -0.76191175 0.20342638 0.13750671 0.29575655 -0.4595149
-0.12780182 -0.088193126 -0.39865297 0.063014165 0.9268137 0.13983688 -0.0569916 0.47573107
-0.22158697 0.011018945 0.6045475 0.52804357 0.2395667 0.026836792 -0.2575801 0.036179066
-0.076889396 0.060325384 0.54881114 -0.5256761 0.38375074 -0.39987737 -0.43480566 -0.45552087
0.56184864 -0.2701647 -0.1177626 -0.34442374 -0.65202975 0.1645679 0.5830562 -0.5688532
-0.2578734 0.46512213 0.30641726 0.4699223 0.10971478 -0.3005792 0.42585203 0.6703827
-0.050451394 0.12722798 -0.8401592 -0.62981814 0.31739566 0.3795668 0.24253203 -0.35957783
0.5167847 -0.40024 0.37844744 -0.004069634 0.31811124 -0.04854048 0.20776702 0.48017764
-0.53536856 0.3908156 0.9507296 0.24592535 0.44509304 -0.34429634 -0.44621658 -0.1520275
-0.36903206 -0.5437733 -0.05483234 0.58699334 -0.26853842 0.47220516 0.44617555 0.33823556
-0.13150671 -0.463758 -0.101958975 0.34708962 0.2799759 0.5309312 0.6846097 -0.40114126
-0.17550904 -0.06850958 -0.31064826 0.2699354 -0.097308084 0.40708596 -0.270032 0.4317466
0.17748168 -0.24384797 0.08968095 -0.23577479 0.34256357 0.01797683 0.34395623 0.1245124
0.22432382 -0.45836845 0.32764897 -0.43780944 -0.07623426 0.08354274 0.50106174 0.48479775
-0.17620365 0.19749492 -1.0891093 -0.21239959 0.28334936 0.9112713 0.20000768 -0.082881264
0.9318676 0.4094715 0.1676697 0.1128028 0.2789854 -0.4201846 -0.30935603 0.19499122
0.5289513 0.6500722 0.19439864 -0.54373467 0.10460601 0.34278947 0.20291637 -0.32711375
0.2231178 -0.49007013 0.23258163 0.4276857 0.25599828 0.55899274 -0.3981818 0.66128796
0.97104675 0.2936659 0.5775244 -0.035765648 -0.43399066 0.033782065 -0.77349657 0.07648123
-0.5473396 0.5224842 0.2615979 -0.022921963 -0.73500615 -0.22298096 0.44564423 0.6829652
0.44061616 -0.20013645 -0.20913987 0.23387809 -0.033898372 -0.109186485 -0.34816736 -0.5651618
0.6194014 -0.21159148 0.5687833 -0.6613354 0.16074145 0.6132006 -0.9865567 -0.4597902
-0.63162696 0.029772222 0.13824844 -0.57618284 -0.59164214 -0.22816421 -0.27909377 0.529823
-0.10464112 0.10571945 -0.27349555 -0.019092446 -0.102603145 -0.38816476 -0.49759042 0.6047981
0.12212611 0.33908144 0.38396233 0.44503176 -0.48636556 -0.50183177 0.09184312 -0.08972442
0.46322224 -0.272742 0.027649345 -0.5729036 0.69400257 0.24094331 0.6546719 0.477129
-0.24505647 -0.15075079 -0.23621525 0.17678185 -0.45774466 0.59415996 0.16989616 0.21521102

fc1.bias f4 [128]
00000000: ea25 e73e e698 ca3e 60aa 143f c9ed eabe
00000010: 95f5 5abe d3ef 1b3e 0436 903e bc6d 30bf
00000020: e776 293e a15c 0f3f b8ba 0abf c18f fc3e
00000030: a8d5 05be f4c7 203e cb89 17bd d925 73bd
00000040: e8d0 73be 6703 0abe b294 00bf c830 893e
00000050: 10d6 2bbf 73fc 04bf 04fb a9be 758c a8bd
00000060: 4ea8 00be 2c64 e7be 25e6 9d3e 1d27 883e
00000070: 1b90 d6bc e05e 523e b787 ccbe 845e 1bbe
00000080: 9fe8 12bf 48d3 123f 1fbc a0be 4a35 82be
00000090: bb72 ce3e 27ab 12be b548 033e 98b4 06be
000000a0: 7240 cf3e 9328 81be d87e a3be 13da a13e
000000b0: 1ab4 613d e3ae 4abd 1bc4 bbbe c802 1b3f
000000c0: a6c9 fcbe 9b59 87be 6477 07be abd2 86be
000000d0: 9dab 06be 3603 873e 0644 8abe 8e16 d8be
000000e0: e1e1 d7be abb1 00bf d2e1 df3e f624 c73d
000000f0: 1657 f8bd 9b4d ba3d 4c5e b93e 7989 e93e
00000100: ba3f d0be 514b dfbd 5eb0 3bbe cf22 073f
00000110: 0428 0ebf b8f5 0d3f 3f66 cbbe f951 c53e
00000120: e3ff 683e a066 1f3f 6413 053f ef67 bd3e
00000130: 8a65 2a3e 29a4 08bf 9bc6 d2be 23fd a03d
00000140: a255 043e 07dc 173f bfe1 99be 2b87 0f3f
00000150: ca38 aa3e b8ec 7d3d 11dc 413e 5984 0c3f
00000160: cdbf 83be 3e4c d7be 3d54 2c3d 0857 16bf
00000170: 48a8 bc3e d1a0 a4bd 08d3 173f d2e9 193f
00000180: 5745 b2be fb1d f13e e980 bebd 7ff0 f23d
00000190: e062 37be 7929 febc 6945 3ebc 66d3 1a3f
000001a0: ff8b 993e 1b42 0a3e 11cd 103f 4f97 7cbd
000001b0: e91f 943c d170 5a3e a197 bdbb 8e05 683d
000001c0: 20c5 9fbe 9205 e13e 225f 573e 139a dc3e
000001d0: 0240 0cbf 9e5c 113f 08a2 73be 2694 fabd
000001e0: ed53 9b3e 925f 203f 0def b5bd 3277 913e
000001f0: 0d04 763e 5391 643e 6205 ec3d 5a57 b13e
0.45146114 0.39569777 0.5807247 -0.4588454 -0.21382745 0.15228204 0.2816621 -0.6891744
0.16549264 0.56000715 -0.5419116 0.49328426 -0.13069785 0.15701276 -0.036996644 -0.059362266
-0.2381016 -0.1347786 -0.5022689 0.2679503 -0.6712351 -0.51947707 -0.33199322 -0.08229915
-0.12564203 -0.45193613 0.3083965 0.2659234 -0.026191762 0.20544004 -0.39947292 -0.15172774
-0.573862 0.5735364 -0.31393525 -0.2543128 0.40321907 -0.14323102 0.12820704 -0.13154829
0.40478855 -0.25226268 -0.31932712 0.3161169 0.0551034 -0.04948319 -0.36673054 0.6055112
-0.49372596 -0.2643555 -0.13229138 -0.26332602 -0.13151403 0.26369637 -0.27005023 -0.42204708
-0.4216452 -0.502711 0.43726975 0.097238466 -0.12125985 0.09096833 0.36204755 0.45612696
-0.4067362 -0.10903037 -0.18328997 0.5278749 -0.5552981 0.5545306 -0.39726445 0.38539103
0.22753863 0.6226597 0.5198271 0.36993358 0.16640297 -0.5337549 -0.4116715 0.07860782
0.12923291 0.5932011 -0.30055043 0.56065625 0.33246452 0.06199333 0.18931605 0.54889446
-0.2573227 -0.42050356 0.042072523 -0.5872655 0.36847138 -0.08038486 0.59306383 0.60122406
-0.34818527 0.47093186 -0.093019314 0.11862277 -0.17908812 -0.031025635 -0.011613228 0.6047882
0.2998962 0.1350178 0.56562907 -0.061667737 0.018081622 0.21332099 -0.005785898 0.056645922
-0.31205082 0.43949562 0.21032384 0.430863 -0.5478517 0.5678195 -0.23792279 -0.12235288
0.30337468 0.6264583 -0.08883486 0.2841125 0.24024983 0.22321062 0.11524464 0.34636956

fc2.weight f4 [128, 128]
00000000: 21b9 5c3d 6bdb ec3d 7d9a 053d ae61 bebc
00000010: b173 91bd 66dd c4bc 7fb8 7c3d f9fe b7bd
00000020: ead4 06b9 9f78 b13d 7be6 acbd d7fb 443d
00000030: 8a7a bc3c b867 943a 47d2 793d 4377 cb3d
00000040: aa68 00bc 3bfe 92bd 40c6 57bd 8bdd 5a3d
00000050: e656 79bb 5661 a2bd 08a2 f7bc b9e5 f73c
00000060: db62 8b3d 677c 893d 2de6 7abc 951e 333c
00000070: daec 22bb 3db5 b53d aa17 6bbc d887 0ebd
00000080: 86b9 b5bd f53c 60bb b8d0 6e3d 938f abbd
00000090: 3140 4abc f534 5a3d adaa 9dbc a80d 143c
000000a0: eaf2 ce3d 07ad 493d def5 f63d ee70 b8bc
000000b0: 87d3 2fbd 30f7 69bd c6d1 3e3b 0716 453d
000000c0: c1ad e1bd 797d 3ebd 352d dd3d 3c59 4a3d
000000d0: ce07 2bbc e32c c6bd cfc0 62bd b11b 66bc
000000e0: 4d8a a73d 5cca b03a 809b bdbd e049 b13c
000000f0: 200a 9d3d fd78 aabc 94da a83a a9ac 48bb
00000100: bade 02bd 710b 913d 89d6 15bd 1774 cb3c
00000110: e6b7 643b d098 9a3d 5e71 5c3d 8f27 36bc
00000120: 6185 5b3d d650 6eb8 84d4 f43d 080b ad3d
00000130: 9253 47bd d63c 383c 8477 90bd 8095 553d
00000140: 23fb ec3d a0b3 22bd e642 9bbc 494f a5bd
00000150: 31e7 98bc 6d45 d73c a75e ca3d 27b1 b73d
00000160: ca33 b7bd 1e3f 503d 2595 1dbc f1f2 75bc
00000170: 4ae5 943d 7f0b 963d 8284 b2bc ae88 94bd
00000180: 640c 563d e7b6 3a3d bc2c 78bd ff19 8ebd
00000190: 0782 693d a6ee 1abc f84a 06bd ac70 c23c
000001a0: f0f1 8e3d eeb5 67bd 3f8d d1bb 8981 15bc
000001b0: b941 4b3d 6485 56bd 4c42 15ba 99a6 aa3d
000001c0: 103e 02bd 3e1d 90bc 8bb0 973d 155a 1ebc
000001d0: 37da 5cbd 9c56 283d 1a5b 08bd 626f 04bd
000001e0: 7439 a8bc 1c85 23bd 1d3b b93b 35bd 6f3d
000001f0: 53c4 e23d 8c89 a43c d57d 2b3d dffd b23d
00000200: a99f 813d 7b5d 7cbd c2ec 783d 10b0 abbd
00000210: ef51 45bc f031 02be 3c82 6b3c 0717 7fbd
00000220: 5786 2f3e 6ab7 983c a98c 89bd 6369 9c3d
00000230: 9d0b b1bd c6ba d53b bfb0 94ba 53cb 993d
00000240: b3ec 883d 32a2 b6bd 6484 10bd 3b1f 9cbc
00000250: f825 ffbc 1c27 a1bc d99d 05bd 6d33 d9bd
00000260: 8bfa 433d 04ae ea3c 3f59 843d 2038 46bb
00000270: 6208 6fbd de36 7d3d 1b42 ae3d 3523 56bb
00000280: 0038 2c3d c7e8 fbbc e986 183d 6e20 a9be
00000290: 716a 82bd 730d 793d b115 c7bd 9a75 12be
000002a0: fc61 de3d 4388 553d ed87 803d c456 a2bc
000002b0: 83ee 593b da48 5c3b 6504 c33d 3dee 863d
000002c0: d581 84bd 18b9 5d3d 0a7b 96bd efed 30be
000002d0: d532 c6be 9faf b6bd 9cfe a1bd ced2 7e3d
000002e0: 3d8e 44bf 2f43 ad3d 99a2 f63c ce12 043e
000002f0: 47ef ff3a 98f2 c5bd e7f7 c63d b75a 483d
00000300: 5536 a23d 76e6 04be 025d 60bd ae68 9ebc
00000310: 9c72 20bd 466d 73bc a2d6 2e3e dfea 0cbc
00000320: 2d56 223e 093c 2f3c 7f28 743c 0b8e 29bd
00000330: c649 583d a818 62bc 8ac5 5e3d 812f 8f3d
00000340: 473b 8c3d eb6f 0b3e 8309 02bd 7b92 9f3d
00000350: ef3e 453e 6e40 abbd 9b27 96bd e701 00be
00000360: ff27 44bd 64ff d53d 574d 1fbf 7900 8b3c
00000370: 511b a1bd f1cf ffbe c1c7 81bd a847 a73d
00000380: e460 2bbe a75e 743b 17e9 b53b d358 e43c
00000390: 4271 1abd 5906 86bd 0181 b2bb ae04 4e3a
000003a0: 2db7 54bd c895 abbd b4cf 813c cfed 643d
000003b0: 5004 83bc b121 1f3d 9394 b43d 73cb fdbd
000003c0: 445c 3c3d 7d7f d23d b48a 243e e20c e63d
000003d0: 2fbf 64bd edd8 953d 6256 d8bd 9a46 fe3d
000003e0: dfbf 933d eb1d 16bd dbb6 b23d 3878 4ebd
000003f0: 74ab 8c3d 0def babd 93b8 10be 20ea f738
0.05388749 0.11565288 0.032618035 -0.023239937 -0.071021445 -0.024031352 0.061699387 -0.08984179
-0.00012858553 0.08665585 -0.08442398 0.048091736 0.02300765 0.0011322415 0.06099155 0.09934857
-0.007837454 -0.07177397 -0.0526793 0.053433936 -0.003804618 -0.079287216 -0.03022863 0.030260907
0.068059646 0.06713181 -0.015313667 0.010932584 -0.0024860413 0.08872459 -0.014348904 -0.03479752
-0.088732764 -0.003421602 0.05830452 -0.08376994 -0.012344406 0.05327316 -0.019246424 0.009036459
0.10104926 0.049237277 0.12058614 -0.022514787 -0.042926338 -0.057120502 0.0029116734 0.04811671
-0.11019469 -0.04650638 0.10799638 0.049401507 -0.0104388725 -0.0967653 -0.055359658 -0.014044688
0.08180676 0.0013488042 -0.09258175 0.021641672 0.07667947 -0.020809645 0.0012882524 -0.0030620492
-0.03195069 0.070822604 -0.03658155 0.02483563 0.003489965 0.07548678 0.053819053 -0.01111783
0.053593997 -5.6818906e-05 0.11954597 0.0844937 -0.048663683 0.011244973 -0.07054046 0.052144527
0.11571338 -0.039722085 -0.018952798 -0.08071763 -0.018664928 0.026278222 0.09881335 0.08969336
-0.08945425 0.050841443 -0.009618078 -0.015011535 0.07270296 0.073264115 -0.0217917 -0.07252632
0.05225791 0.045584586 -0.060589537 -0.06938552 0.05700877 -0.009456312 -0.03278634 0.023735367
0.0697974 -0.056569986 -0.0063950117 -0.009125122 0.049623225 -0.052373305 -0.0005693778 0.08332557
-0.03179747 -0.017592069 0.0740672 -0.009665032 -0.053919043 0.041098222 -0.033290006 -0.032332785
-0.020535208 -0.039921865 0.005652799 0.05853005 0.11072602 0.020085119 0.04186805 0.08739828
0.06329281 -0.061612587 0.060772665 -0.08383191 -0.01204346 -0.12714362 0.014374312 -0.06227782
0.1714109 0.018642146 -0.06716282 0.076372884 -0.08644793 0.0065225093 -0.0011344178 0.07509484
0.06685772 -0.08917655 -0.035282508 -0.01905786 -0.031146035 -0.01967197 -0.03262124 -0.10605512
0.04784636 0.02864743 0.06462335 -0.0030245855 -0.058357604 0.061819904 0.08508702 -0.0032674794
0.042045593 -0.030750645 0.037238035 -0.33032554 -0.06367958 0.06080384 -0.09720934 -0.14302674
0.10858533 0.052131902 0.06275926 -0.019816764 0.0033253736 0.003361276 0.095223226 0.06588409
-0.06470076 0.054131597 -0.073476866 -0.17278264 -0.38710657 -0.08920216 -0.07909891 0.062212758
-0.7677954 0.0846008 0.03010683 0.12897798 0.0019526266 -0.09665412 0.09715252 0.048914637
0.07920519 -0.12978539 -0.0547762 -0.019337025 -0.0391718 -0.014857596 0.17074063 -0.0086009195
0.15853186 0.010695466 0.014902233 -0.04139523 0.05280473 -0.013799824 0.054387607 0.069914825
0.06847244 0.13616912 -0.031747352 0.07791611 0.19262289 -0.08361898 -0.07331773 -0.12500726
-0.047889706 0.104491025 -0.62227386 0.016967999 -0.07866538 -0.49963334 -0.06336928 0.08167964
-0.1673618 0.0037287863 0.005551468 0.027874386 -0.037705667 -0.065441795 -0.0054475074 0.00078589737
-0.051932503 -0.08378178 0.01584611 0.055890854 -0.015993267 0.03885049 0.08817401 -0.123923205
0.04598643 0.10278223 0.16068536 0.11232926 -0.05584639 0.07316766 -0.10563351 0.1241581
0.07214331 -0.036649626 0.08726283 -0.05040762 0.068686396 -0.091276266 -0.1413291 0.00011821487

fc2.bias f4 [128]
00000000: 7467 933d 9826 293d b82a 683d ae80 2e3d
00000010: 9116 5d3c f866 f13b 0e28 873d b12a 8e3d
00000020: c326 be3c f18d 93bd f301 5d3c d282 863d
00000030: def5 9fba 0019 603d f1e2 2c3b 1da2 583d
00000040: 5adc 9b3d 92e2 78bd e4ec 05bd bb4e 09bd
00000050: 203c 223c d26f a7bd 874a 813d ffdb 643d
00000060: 4bce 1cbd cf2d 07bd c62a 9ebd 2f0c 463d
00000070: 40b9 0338 21c5 663d 715a 9a3d 0db2 453d
00000080: 1bd7 223d 0358 ce3c 914b cd3c 3166 b73d
00000090: 6ddf 903d a0d0 9c3b 655c 773d 1255 ebbc
000000a0: 3716 b23d 77fc 4bbd 6911 38bc b804 8a3c
000000b0: 7016 43bd aac8 e3bc e941 8d3c e0de 8e3d
000000c0: 2d15 01bd 6439 873c 09c7 54bc f61c fabc
000000d0: 34d4 3f3d 25bb dd3c cbc8 053d a7a6 ff3d
000000e0: 31cf 5abc 1410 3dbd 81cd 043c d202 82bd
000000f0: 1602 bf3b 1f6b aa3c bf20 96bd 69f2 483d
00000100: c7eb a7bd 2fa4 973d a231 b23d 9bd5 bf3d
00000110: 860c 3a3d 1423 24bd 69ed 823d 04f3 923d
00000120: f3eb 15bd 28b4 49bc cab3 bc3d 9eab 3a3d
00000130: 1acc c1bc 81bd 083d 6796 84bc da23 96bc
00000140: b259 b73d 4f64 cc3d 86c9 b7bc 90e1 303d
00000150: 3c59 62bc 4e97 8abd d71a 05be bbe4 31bd
00000160: 1315 60bd 5203 d73d 22c8 943d 57a8 973d
00000170: 88cc fbba 3dad df3d a0bf 8bbd 9223 c83d
00000180: dea6 363d e6e5 ef38 f366 f63c 9592 973c
00000190: 2d4e 883d b8fb 393d 7daf 98bc 58de d53c
000001a0: 337d 9d3d 83c7 d33c 9051 ca3d 5f28 f33d
000001b0: 8a6b aebd a1aa a03c 6972 613d 5f1c d4bc
000001c0: 3d9e 733d 4ce3 d2bc 9003 89bd a8bf bebc
000001d0: 8b47 45bd d8d7 8bbd 62bd 39ba 2308 103c
000001e0: 44a8 ba3d e25f df3d 23b2 143d 2541 8d3d
000001f0: ed1a 5bbd 259b b83d 1dac f13d f841 573d
0.071974665 0.04129657 0.056681365 0.042603187 0.01349415 0.007367011 0.06599437 0.069417365
0.023211842 -0.072048075 0.013489234 0.06567921 -0.0012204011 0.05471134 0.0026380385 0.05288898
0.07610388 -0.06076295 -0.03269662 -0.03352235 0.00990203 -0.08175625 0.06313043 0.055873867
-0.038282674 -0.03300267 -0.07723002 0.048351463 3.140536e-05 0.05634034 0.075367816 0.048265506
0.03975592 0.025188452 0.025060447 0.08955038 0.07073865 0.004785612 0.06039085 -0.028727088
0.086956434 -0.049801316 -0.01123462 0.016847953 -0.04762882 -0.027805645 0.017243342 0.06976104
-0.031514335 0.016506858 -0.012986907 -0.030531388 0.046833232 0.027066777 0.032662194 0.12482958
-0.013355062 -0.04615791 0.008105637 -0.06348194 0.005829106 0.020803032 -0.073304646 0.049059305
-0.08199268 0.074043624 0.08700873 0.09366914 0.0454221 -0.040072516 0.06392939 0.07175258
-0.03660197 -0.012311019 0.092139795 0.045573823 -0.023656894 0.03338385 -0.016184999 -0.018327642
0.08952655 0.0998007 -0.022434961 0.043183863 -0.01381522 -0.0676714 -0.1299852 -0.043431025
-0.054707598 0.1049868 0.07264735 0.07405155 -0.0019210735 0.109217145 -0.06823659 0.097724095
0.04459273 0.0001143923 0.030078387 0.018502513 0.06655536 0.045406073 -0.018638367 0.026106998
0.076898955 0.02585197 0.09878838 0.118729346 -0.08516605 0.019612612 0.05504075 -0.025892435
0.05947708 -0.02574315 -0.066901326 -0.023284748 -0.04816393 -0.06828278 -0.000708541 0.008791002
0.09114125 0.1090696 0.036302697 0.06897191 -0.053492475 0.090139665 0.11800406 0.052553147

fc3.weight f4 [1, 128]
00000000: a205 37bd 0a13 f83e 1d31 bcbd a42d d8be
00000010: c696 54bd 934a 49bd 3147 a83a 6763 ae3d
00000020: c9ab 8dbe 9477 40bd f542 b33d 91d9 a0ba
00000030: 9b5a eb3e a6f7 cf3e 9568 cebe c41f ac3d
00000040: 3a73 c4bc 8341 00be f71d ed3d 9111 893d
00000050: 5e37 233d c4fa 083e 680d 153f 55a5 b13d
00000060: 1df4 29bc 072c 1bbd f382 843d ea79 063e
00000070: 3267 fa3e 32f7 abbe a314 b6bd a5bb 523e
00000080: 3e9d 583e 54ce 5e3d d9b6 923e 0acf e13e
00000090: 4231 723e f2c6 bc3d 0d0c 653e 5f18 6a3e
000000a0: a694 483d dbbf f03d ed02 333f de0b 113e
000000b0: 2f0a 28bc b9e2 5bbe abdd 3a3e 8ec5 21bd
000000c0: cd93 843e 9235 e3bd 2fe7 60be 2d1a 043d
000000d0: cc13 ab3d b238 76be d264 1b3f c6b0 683d
000000e0: a055 d4be 0502 e4bd 2465 253e e425 9cbd
000000f0: 6d5a c03e ef26 06bf 8e5b 233d 9202 2bbd
00000100: 8a7a 063f aab6 873c 7def 75be 7c3b e5bb
00000110: 2ee3 993e bd15 4abd d8ad ae3e a4ca 203e
00000120: b85c 043e c683 2fbd bab5 97bd 3077 23bf
00000130: 87d2 b03e 5733 2c3e 5035 473e 4c30 fa3e
00000140: 85eb c7bc 6910 873e b251 9f3c cb67 adbc
00000150: a515 c83e bf39 8dbe f529 91be cc66 f23d
00000160: 6173 7c3e 334a d9bd 3bcc d33d f383 93bd
00000170: 8f4a 093f 4a78 70bd 65a2 223e 1587 a83d
00000180: 9512 9abd 93be 883d 7cdf 6f3e e9ef 45be
00000190: 5427 023f e7bf 693e f176 253e 1250 793d
000001a0: 3fbf c23d 93f1 22be 8dd0 d83e 7254 91bd
000001b0: 6ba8 19bd 4339 72be 44aa 2a3d 12dc c6bc
000001c0: 716d ad3e 4e1b 6a3d 8089 bebe 72a7 7f3e
000001d0: ad41 6abd d6c6 e4be ae14 60be 6d94 36be
000001e0: 7473 51be ba04 fbbd a826 7ebd 9edb 00be
000001f0: fd76 05bd 80af b7bd 514d c8bd c084 863d
-0.044683106 0.48452026 -0.09189055 -0.4222232 -0.0519016 -0.049143385 0.00128386 0.08515053
-0.27670124 -0.04698904 0.087530054 -0.0012271871 0.45967564 0.40618628 -0.40314165 0.08404496
-0.023980726 -0.1252499 0.11577981 0.06692804 0.039847724 0.1337691 0.5822358 0.08674113
-0.010373143 -0.037883785 0.06470289 0.13132444 0.48906857 -0.33587033 -0.08890655 0.20579393
0.21153733 0.05439599 0.28655127 0.4410327 0.23651603 0.09217633 0.22367878 0.2286086
0.048969887 0.117553435 0.6992634 0.14164683 -0.010256334 -0.21473207 0.18248622 -0.039495043
0.25894013 -0.11094202 -0.2196319 0.032251526 0.08353385 -0.24045065 0.60700715 0.05680921
-0.41471577 -0.11133198 0.16151863 -0.076244146 0.3756899 -0.5240316 0.039882235 -0.041750498
0.5253073 0.016566593 -0.24017139 -0.0069956165 0.30056137 -0.049337137 0.34117007 0.15702301
0.12925994 -0.04285028 -0.074077085 -0.6385374 0.3453562 0.1681646 0.19453931 0.48864973
-0.024404297 0.26379707 0.019448135 -0.021167656 0.39079013 -0.2758312 -0.28352323 0.11836013
0.24653389 -0.106098555 0.10341688 -0.07202902 0.5362939 -0.058708467 0.15882261 0.0822889
-0.075230755 0.06676974 0.23425096 -0.193298 0.5084126 0.22827111 0.16158654 0.060867377
0.095091335 -0.15912466 0.42346612 -0.07096185 -0.03751413 -0.23654656 0.041666284 -0.02427486
0.3387256 0.057154946 -0.3721428 0.24966219 -0.05719154 -0.4468295 -0.21882889 -0.17830057
-0.20454198 -0.12256761 -0.062048584 -0.12583777 -0.03258418 -0.08969021 -0.09780372 0.06568289

fc4.weight f4 [1, 128]
00000000: d4cb 40bd 3ce3 2b3b edde e0bd 59f9 bf3c
00000010: 0186 7ebd 788b 29bd 4d92 c9bd 49d3 60bd
00000020: 5022 f5bc 7e6e b2bc 0427 473d 4e9d 703d
00000030: ef97 f73d 94dd c63d 1ffa 643e 040a f1bd
00000040: d646 8a3d e8bd b03b 1eaf 2c3c a7c2 0b3e
00000050: 4173 4fbd 1936 05be ff48 023e f06b 9b3d
00000060: 3d4f 8ebd b774 90bd f12c 15bd 0beb 9d3d
00000070: fab0 b93d d281 c43d a727 19bd a05b cd3d
00000080: 4ac9 d93d 0521 a1bd ff63 32bc 598c 983d
00000090: f0bd a9bd 6080 943d 64df 1bbe 2c14 52bc
000000a0: 10ee d1bc 074b b9bd 9e66 6dbd 8f5e 30be
000000b0: e407 093d 86cb c53c 8ab8 633d 48de 24bd
000000c0: 3d30 963d 1cbc 943d 4045 253b 3869 1c3d
000000d0: b6bc 40be c587 fdbd e10c 51be d5b2 bfbd
000000e0: 6342 b7bd 8d58 b03d f756 e53c dacf 203d
000000f0: 8d7a 4e3e 981f dd3d d3db b4bd 01a2 28bd
00000100: 14cc 873d 0131 a63d 3161 d4bc 6b99 c1bd
00000110: e1a0 9d3e 98a4 b1bc 6a85 0f3e 7953 87bd
00000120: 6d7e 133d 0a6b 50bd a3cf bebd 2131 573e
00000130: b899 96bd 3bd3 95bd 540f 5ebd e3a6 1c3d
00000140: 99a8 dfbc 0e95 07bc 9ff7 c7bd 7f3a 1ebd
00000150: b62c a53d 6b2a 833d c0d3 383e c550 7d3d
00000160: 1c8b c2bd 414e 20bd 054f ec3d 3440 d23c
00000170: bcb4 eb3d 8a7c d63d c12c 14be 5e6b a2bd
00000180: 4289 12be 4048 26be a81c 073e a75c ee3d
00000190: e36e 9ebe ae87 e5bd d04d e7bd 3415 d03c
000001a0: 3221 d5bd 235d 94bc 7833 723d f0e9 d9bd
000001b0: f967 a5bd 1957 3d3e 20d5 a43d 281e 3fbe
000001c0: 4489 5b3d 488b ce3c 20df 613d 8dbb acbb
000001d0: 1794 423c aa20 563c 5df3 e33b f56c f33d
000001e0: d76d 53bc a95f 7f3b 4633 9fbc 8235 713c
000001f0: 37ab 82bd a72b 97bd 3c32 e0bd f5fd 09be
-0.047069386 0.0026227972 -0.1098002 0.023434328 -0.062139515 -0.041392773 -0.09842358 -0.054888997
-0.029923588 -0.021781202 0.048621193 0.058743767 0.12089526 0.097102314 0.22361039 -0.117694885
0.06751792 0.0053937323 0.010539798 0.13648473 -0.050647024 -0.13008918 0.12723158 0.07588947
-0.06948707 -0.070535116 -0.036419813 0.077108465 0.09066959 0.09595074 -0.03739133 0.10027242
0.10634096 -0.07867626 -0.010888099 0.07448644 -0.08288181 0.07251048 -0.15221936 -0.012822192
-0.025626212 -0.090475135 -0.05795919 -0.17223571 0.03345479 0.0241449 0.055595912 -0.040251046
0.073334195 0.072624415 0.0025218278 0.038186282 -0.18821988 -0.123794116 -0.20415069 -0.093602814
-0.08948209 0.0861064 0.02799557 0.039260723 0.20163937 0.10797042 -0.08830991 -0.041170124
0.06630722 0.081148155 -0.02592525 -0.0945309 0.30786803 -0.02168493 0.14015737 -0.06607718
0.03600924 -0.05088333 -0.09316947 0.21014835 -0.07353538 -0.0731568 -0.054213837 0.038245093
-0.027302073 -0.0082752835 -0.09764027 -0.038630005 0.080651686 0.06404575 0.18049526 0.061844606
-0.09499189 -0.03913713 0.11538509 0.02566538 0.11509082 0.10472973 -0.14470197 -0.07930635
-0.14310172 -0.16238499 0.13194525 0.11638766 -0.30943975 -0.112075195 -0.112941384 0.025400735
-0.10406722 -0.018110817 0.059131116 -0.10640323 -0.08076472 0.18490256 0.08048463 -0.18663847
0.053597704 0.025212899 0.05514443 -0.0052713812 0.011876128 0.013069311 0.0069565014 0.11886016
-0.012904606 0.003896693 -0.019433629 0.01472223 -0.06380313 -0.07381373 -0.109470814 -0.13475783
